…
  top: "label"
  transform_param {
    mirror: true
    crop_size: 473
    mean_value: 103.939
    mean_value: 116.779
    mean_value: 123.68
    scale_factors: 0.5
    scale_factors: 0.75
    scale_factors: 1
    scale_factors: 1.25
    scale_factors: 1.5
    scale_factors: 1.75
    scale_factors: 2
  }
  image_data_param {
    source: "/home/bingbing/Documents/datasets/cityscapesDataset/list/cityscapes_train_val.txt"
    batch_size: 3
    shuffle: true
    root_folder: "/home/bingbing/Documents/datasets/cityscapesDataset/"
    label_type: PIXEL
  }
}
layer {
  name: "conv1_1_3x3_s2"
  type: "Convolution"
  bottom: "data"
  top: "conv1_1_3x3_s2"
  param {
    lr_mult: 1
    decay_mult: 1
  }
  convolution_param {
    num_output: 64
    bias_term: false
    pad: 1
    kernel_size: 3
    stride: 2
    weight_filler {
      type: "msra"
    }
  }
}
layer {
  name: "conv1_1_3x3_s2/bn"
  type: "SyncBN"
  bottom: "conv1_1_3x3_s2"
  top: "conv1_1_3x3_s2/bn"
  param {
    lr_mult: 1
    decay_mult: 0
  }
  param {
    lr_mult: 1
    decay_mult: 0
  }
  param {
    lr_mult: 0
    decay_mult: 0
  }
  param {
    lr_mult: 0
    decay_mult: 0
  }
  bn_param {
    slope_filler {
      type: "constant"
      value: 1
    }
    bias_filler {
      type: "constant"
      value: 0
    }
    momentum: 0.95
    frozen: false
  }
}
layer {
  name: "conv1_1_3x3_s2/relu"
  type: "ReLU"
  bottom: "conv1_1_3x3_s2/bn"
  top: "conv1_1_3x3_s2/bn"
}
layer {
  name: "conv1_2_3x3"
  type: "Convolution"
  bottom: "conv1_1_3x3_s2/bn"
  top: "conv1_2_3x3"
  param {
    lr_mult: 1
    decay_mult: 1
  }
  convolution_param {
    num_output: 64
    bias_term: false
    pad: 1
    kernel_size: 3
    stride: 1
    weight_filler {
      type: "msra"
    }
  }
}
layer {
  name: "conv1_2_3x3/bn"
  type: "SyncBN"
  bottom: "conv1_2_3x3"
  top: "conv1_2_3x3/bn"
  param {
    lr_mult: 1
    decay_mult: 0
  }
  param {
    lr_mult: 1
    decay_mult: 0
  }
  param {
    lr_mult: 0
    decay_mult: 0
  }
  param {
    lr_mult: 0
    decay_mult: 0
  }
  bn_param {
    slope_filler {
      type: "constant"
      value: 1
    }
    bias_filler {
      type: "constant"
      value: 0
    }
    momentum: 0.95
    frozen: false
  }
}
layer {
  name: "conv1_2_3x3/relu"
  type: "ReLU"
  bottom: "conv1_2_3x3/bn"
  top: "conv1_2_3x3/bn"
}
layer {
  name: "conv1_3_3x3"
  type: "Convolution"
  bottom: "conv1_2_3x3/bn"
  top: "conv1_3_3x3"
  param {
    lr_mult: 1
    decay_mult: 1
  }
  convolution_param {
    num_output: 128
    bias_term: false
    pad: 1
    kernel_size: 3
    stride: 1
    weight_filler {
      type: "msra"
    }
  }
}
layer {
  name: "conv1_3_3x3/bn"
  type: "SyncBN"
  bottom: "conv1_3_3x3"
  top: "conv1_3_3x3/bn"
  param {
    lr_mult: 1
    decay_mult: 0
  }
  param {
    lr_mult: 1
    decay_mult: 0
  }
  param {
    lr_mult: 0
    decay_mult: 0
  }
  param {
    lr_mult: 0
    decay_mult: 0
  }
  bn_param {
    slope_filler {
      type: "constant"
      value: 1
    }
    bias_filler {
      type: "constant"
      value: 0
    }
    momentum: 0.95
    frozen: false
  }
}
layer {
  name: "conv1_3_3x3/relu"
  type: "ReLU"
  bottom: "conv1_3_3x3/bn"
  top: "conv1_3_3x3/bn"
}
layer {
  name: "pool1_3x3_s2"
  type: "Pooling"
  bottom: "conv1_3_3x3/bn"
  top: "pool1_3x3_s2"
  pooling_param {
    pool: MAX
    kernel_size: 3
    stride: 2
    pad: 1
  }
}
layer {
  name: "conv2_1_1x1_reduce"
  type: "Convolution"
  bottom: "pool1_3x3_s2"
  top: "conv2_1_1x1_reduce"
  param {
    lr_mult: 1
    decay_mult: 1
  }
  convolution_param {
    num_output: 64
    bias_term: false
    pad: 0
    kernel_size: 1
    stride: 1
    weight_filler {
      type: "msra"
    }
  }
}
layer {
  name: "conv2_1_1x1_reduce/bn"
  type: "SyncBN"
  bottom: "conv2_1_1x1_reduce"
  top: "conv2_1_1x1_reduce/bn"
  param {
    lr_mult: 1
    decay_mult: 0
  }
  param {
    lr_mult: 1
    decay_mult: 0
  }
  param {
    lr_mult: 0
    decay_mult: 0
  }
  param {
    lr_mult: 0
    decay_mult: 0
  }
  bn_param {
    slope_filler {
      type: "constant"
      value: 1
    }
    bias_filler {
      type: "constant"
      value: 0
    }
    momentum: 0.95
    frozen: false
  }
}
layer {
  name: "conv2_1_1x1_reduce/relu"
  type: "ReLU"
  bottom: "conv2_1_1x1_reduce/bn"
  top: "conv2_1_1x1_reduce/bn"
}
layer {
  name: "conv2_1_3x3"
  type: "Convolution"
  bottom: "conv2_1_1x1_reduce/bn"
  top: "conv2_1_3x3"
  param {
    lr_mult: 1
    decay_mult: 1
  }
  convolution_param {
    num_output: 64
    bias_term: false
    pad: 1
    kernel_size: 3
    stride: 1
    weight_filler {
      type: "msra"
    }
  }
}
layer {
  name: "conv2_1_3x3/bn"
  type: "SyncBN"
  bottom: "conv2_1_3x3"
  top: "conv2_1_3x3/bn"
  param {
    lr_mult: 1
    decay_mult: 0
  }
  param {
    lr_mult: 1
    decay_mult: 0
  }
  param {
    lr_mult: 0
    decay_mult: 0
  }
  param {
    lr_mult: 0
    decay_mult: 0
  }
  bn_param {
    slope_filler {
      type: "constant"
      value: 1
    }
    bias_filler {
      type: "constant"
      value: 0
    }
    momentum: 0.95
    frozen: false
  }
}
layer {
  name: "conv2_1_3x3/relu"
  type: "ReLU"
  bottom: "conv2_1_3x3/bn"
  top: "conv2_1_3x3/bn"
}
layer {
  name: "conv2_1_1x1_increase"
  type: "Convolution"
  bottom: "conv2_1_3x3/bn"
  top: "conv2_1_1x1_increase"
  param {
    lr_mult: 1
    decay_mult: 1
  }
  convolution_param {
    num_output: 256
    bias_term: false
    pad: 0
    kernel_size: 1
    stride: 1
    weight_filler {
      type: "msra"
    }
  }
}
layer {
  name: "conv2_1_1x1_increase/bn"
  type: "SyncBN"
  bottom: "conv2_1_1x1_increase"
  top: "conv2_1_1x1_increase/bn"
  param {
    lr_mult: 1
    decay_mult: 0
  }
  param {
    lr_mult: 1
    decay_mult: 0
  }
  param {
    lr_mult: 0
    decay_mult: 0
  }
  param {
    lr_mult: 0
    decay_mult: 0
  }
  bn_param {
    slope_filler {
      type: "constant"
      value: 1
    }
    bias_filler {
      type: "constant"
      value: 0
    }
    momentum: 0.95
    frozen: false
  }
}
layer {
  name: "conv2_1_1x1_proj"
  type: "Convolution"
  bottom: "pool1_3x3_s2"
  top: "conv2_1_1x1_proj"
  param {
    lr_mult: 1
    decay_mult: 1
  }
  convolution_param {
    num_output: 256
    bias_term: false
    pad: 0
    kernel_size: 1
    stride: 1
    weight_filler {
      type: "msra"
    }
  }
}
layer {
  name: "conv2_1_1x1_proj/bn"
  type: "SyncBN"
  bottom: "conv2_1_1x1_proj"
  top: "conv2_1_1x1_proj/bn"
  param {
    lr_mult: 1
    decay_mult: 0
  }
  param {
    lr_mult: 1
    decay_mult: 0
  }
  param {
    lr_mult: 0
    decay_mult: 0
  }
  param {
    lr_mult: 0
    decay_mult: 0
  }
  bn_param {
    slope_filler {
      type: "constant"
      value: 1
    }
    bias_filler {
      type: "constant"
      value: 0
    }
    momentum: 0.95
    frozen: false
  }
}
layer {
  name: "conv2_1"
  type: "Eltwise"
  bottom: "conv2_1_1x1_proj/bn"
  bottom: "conv2_1_1x1_increase/bn"
  top: "conv2_1"
  eltwise_param {
    operation: SUM
  }
}
layer {
  name: "conv2_1/relu"
  type: "ReLU"
  bottom: "conv2_1"
  top: "conv2_1"
}
layer {
  name: "conv2_2_1x1_reduce"
  type: "Convolution"
  bottom: "conv2_1"
  top: "conv2_2_1x1_reduce"
  param {
    lr_mult: 1
    decay_mult: 1
  }
  convolution_param {
    num_output: 64
    bias_term: false
    pad: 0
    kernel_size: 1
    stride: 1
    weight_filler {
      type: "msra"
    }
  }
}
layer {
  name: "conv2_2_1x1_reduce/bn"
  type: "SyncBN"
  bottom: "conv2_2_1x1_reduce"
  top: "conv2_2_1x1_reduce/bn"
  param {
    lr_mult: 1
    decay_mult: 0
  }
  param {
    lr_mult: 1
    decay_mult: 0
  }
  param {
    lr_mult: 0
    decay_mult: 0
  }
  param {
    lr_mult: 0
    decay_mult: 0
  }
  bn_param {
    slope_filler {
      type: "constant"
      value: 1
    }
    bias_filler {
      type: "constant"
      value: 0
    }
    momentum: 0.95
    frozen: false
  }
}
layer {
  name: "conv2_2_1x1_reduce/relu"
  type: "ReLU"
  bottom: "conv2_2_1x1_reduce/bn"
  top: "conv2_2_1x1_reduce/bn"
}
layer {
  name: "conv2_2_3x3"
  type: "Convolution"
  bottom: "conv2_2_1x1_reduce/bn"
  top: "conv2_2_3x3"
  param {
    lr_mult: 1
    decay_mult: 1
  }
  convolution_param {
    num_output: 64
    bias_term: false
    pad: 1
    kernel_size: 3
    stride: 1
    weight_filler {
      type: "msra"
    }
  }
}
layer {
  name: "conv2_2_3x3/bn"
  type: "SyncBN"
  bottom: "conv2_2_3x3"
  top: "conv2_2_3x3/bn"
  param {
    lr_mult: 1
    decay_mult: 0
  }
  param {
    lr_mult: 1
    decay_mult: 0
  }
  param {
    lr_mult: 0
    decay_mult: 0
  }
  param {
    lr_mult: 0
    decay_mult: 0
  }
  bn_param {
    slope_filler {
      type: "constant"
      value: 1
    }
    bias_filler {
      type: "constant"
      value: 0
    }
    momentum: 0.95
    frozen: false
  }
}
layer {
  name: "conv2_2_3x3/relu"
  type: "ReLU"
  bottom: "conv2_2_3x3/bn"
  top: "conv2_2_3x3/bn"
}
layer {
  name: "conv2_2_1x1_increase"
  type: "Convolution"
  bottom: "conv2_2_3x3/bn"
  top: "conv2_2_1x1_increase"
  param {
    lr_mult: 1
    decay_mult: 1
  }
  convolution_param {
    num_output: 256
    bias_term: false
    pad: 0
    kernel_size: 1
    stride: 1
    weight_filler {
      type: "msra"
    }
  }
}
layer {
  name: "conv2_2_1x1_increase/bn"
  type: "SyncBN"
  bottom: "conv2_2_1x1_increase"
  top: "conv2_2_1x1_increase/bn"
  param {
    lr_mult: 1
    decay_mult: 0
  }
  param {
    lr_mult: 1
    decay_mult: 0
  }
  param {
    lr_mult: 0
    decay_mult: 0
  }
  param {
    lr_mult: 0
    decay_mult: 0
  }
  bn_param {
    slope_filler {
      type: "constant"
      value: 1
    }
    bias_filler {
      type: "constant"
      value: 0
    }
    momentum: 0.95
    frozen: false
  }
}
layer {
  name: "conv2_2"
  type: "Eltwise"
  bottom: "conv2_1"
  bottom: "conv2_2_1x1_increase/bn"
  top: "conv2_2"
  eltwise_param {
    operation: SUM
  }
}
layer {
  name: "conv2_2/relu"
  type: "ReLU"
  bottom: "conv2_2"
  top: "conv2_2"
}
layer {
  name: "conv2_3_1x1_reduce"
  type: "Convolution"
  bottom: "conv2_2"
  top: "conv2_3_1x1_reduce"
  param {
    lr_mult: 1
    decay_mult: 1
  }
  convolution_param {
    num_output: 64
    bias_term: false
    pad: 0
    kernel_size: 1
    stride: 1
    weight_filler {
      type: "msra"
    }
  }
}
layer {
  name: "conv2_3_1x1_reduce/bn"
  type: "SyncBN"
  bottom: "conv2_3_1x1_reduce"
  top: "conv2_3_1x1_reduce/bn"
  param {
    lr_mult: 1
    decay_mult: 0
  }
  param {
    lr_mult: 1
    decay_mult: 0
  }
  param {
    lr_mult: 0
    decay_mult: 0
  }
  param {
    lr_mult: 0
    decay_mult: 0
  }
  bn_param {
    slope_filler {
      type: "constant"
      value: 1
    }
    bias_filler {
      type: "constant"
      value: 0
    }
    momentum: 0.95
    frozen: false
  }
}
layer {
  name: "conv2_3_1x1_reduce/relu"
  type: "ReLU"
  bottom: "conv2_3_1x1_reduce/bn"
  top: "conv2_3_1x1_reduce/bn"
}
layer {
  name: "conv2_3_3x3"
  type: "Convolution"
  bottom: "conv2_3_1x1_reduce/bn"
  top: "conv2_3_3x3"
  param {
    lr_mult: 1
    decay_mult: 1
  }
  convolution_param {
    num_output: 64
    bias_term: false
    pad: 1
    kernel_size: 3
    stride: 1
    weight_filler {
      type: "msra"
    }
  }
}
layer {
  name: "conv2_3_3x3/bn"
  type: "SyncBN"
  bottom: "conv2_3_3x3"
  top: "conv2_3_3x3/bn"
  param {
    lr_mult: 1
    decay_mult: 0
  }
  param {
    lr_mult: 1
    decay_mult: 0
  }
  param {
    lr_mult: 0
    decay_mult: 0
  }
  param {
    lr_mult: 0
    decay_mult: 0
  }
  bn_param {
    slope_filler {
      type: "constant"
      value: 1
    }
    bias_filler {
      type: "constant"
      value: 0
    }
    momentum: 0.95
    frozen: false
  }
}
layer {
  name: "conv2_3_3x3/relu"
  type: "ReLU"
  bottom: "conv2_3_3x3/bn"
  top: "conv2_3_3x3/bn"
}
layer {
  name: "conv2_3_1x1_increase"
  type: "Convolution"
  bottom: "conv2_3_3x3/bn"
  top: "conv2_3_1x1_increase"
  param {
    lr_mult: 1
    decay_mult: 1
  }
  convolution_param {
    num_output: 256
    bias_term: false
    pad: 0
    kernel_size: 1
    stride: 1
    weight_filler {
      type: "msra"
    }
  }
}
layer {
  name: "conv2_3_1x1_increase/bn"
  type: "SyncBN"
  bottom: "conv2_3_1x1_increase"
  top: "conv2_3_1x1_increase/bn"
  param {
    lr_mult: 1
    decay_mult: 0
  }
  param {
    lr_mult: 1
    decay_mult: 0
  }
  param {
    lr_mult: 0
    decay_mult: 0
  }
  param {
    lr_mult: 0
    decay_mult: 0
  }
  bn_param {
    slope_filler {
      type: "constant"
      value: 1
    }
    bias_filler {
      type: "constant"
      value: 0
    }
    momentum: 0.95
    frozen: false
  }
}
layer {
  name: "conv2_3"
  type: "Eltwise"
  bottom: "conv2_2"
  bottom: "conv2_3_1x1_increase/bn"
  top: "conv2_3"
  eltwise_param {
    operation: SUM
  }
}
layer {
  name: "conv2_3/relu"
  type: "ReLU"
  bottom: "conv2_3"
  top: "conv2_3"
}
layer {
  name: "conv3_1_1x1_reduce"
  type: "Convolution"
  bottom: "conv2_3"
  top: "conv3_1_1x1_reduce"
  param {
    lr_mult: 1
    decay_mult: 1
  }
  convolution_param {
    num_output: 128
    bias_term: false
    pad: 0
    kernel_size: 1
    stride: 1
    weight_filler {
      type: "msra"
    }
  }
}
layer {
  name: "conv3_1_1x1_reduce/bn"
  type: "SyncBN"
  bottom: "conv3_1_1x1_reduce"
  top: "conv3_1_1x1_reduce/bn"
  param {
    lr_mult: 1
    decay_mult: 0
  }
  param {
    lr_mult: 1
    decay_mult: 0
  }
  param {
    lr_mult: 0
    decay_mult: 0
  }
  param {
    lr_mult: 0
    decay_mult: 0
  }
  bn_param {
    slope_filler {
      type: "constant"
      value: 1
    }
    bias_filler {
      type: "constant"
      value: 0
    }
    momentum: 0.95
    frozen: false
  }
}
layer {
  name: "conv3_1_1x1_reduce/relu"
  type: "ReLU"
  bottom: "conv3_1_1x1_reduce/bn"
  top: "conv3_1_1x1_reduce/bn"
}
layer {
  name: "conv3_1_3x3"
  type: "Convolution"
  bottom: "conv3_1_1x1_reduce/bn"
  top: "conv3_1_3x3"
  param {
    lr_mult: 1
    decay_mult: 1
  }
  convolution_param {
    num_output: 128
    bias_term: false
    pad: 1
    kernel_size: 3
    stride: 2
    weight_filler {
      type: "msra"
    }
  }
}
layer {
  name: "conv3_1_3x3/bn"
  type: "SyncBN"
  bottom: "conv3_1_3x3"
  top: "conv3_1_3x3/bn"
  param {
    lr_mult: 1
    decay_mult: 0
  }
  param {
    lr_mult: 1
    decay_mult: 0
  }
  param {
    lr_mult: 0
    decay_mult: 0
  }
  param {
    lr_mult: 0
    decay_mult: 0
  }
  bn_param {
    slope_filler {
      type: "constant"
      value: 1
    }
    bias_filler {
      type: "constant"
      value: 0
    }
    momentum: 0.95
    frozen: false
  }
}
layer {
  name: "conv3_1_3x3/relu"
  type: "ReLU"
  bottom: "conv3_1_3x3/bn"
  top: "conv3_1_3x3/bn"
}
layer {
  name: "conv3_1_1x1_increase"
  type: "Convolution"
  bottom: "conv3_1_3x3/bn"
  top: "conv3_1_1x1_increase"
  param {
    lr_mult: 1
    decay_mult: 1
  }
  convolution_param {
    num_output: 512
    bias_term: false
    pad: 0
    kernel_size: 1
    stride: 1
    weight_filler {
      type: "msra"
    }
  }
}
layer {
  name: "conv3_1_1x1_increase/bn"
  type: "SyncBN"
  bottom: "conv3_1_1x1_increase"
  top: "conv3_1_1x1_increase/bn"
  param {
    lr_mult: 1
    decay_mult: 0
  }
  param {
    lr_mult: 1
    decay_mult: 0
  }
  param {
    lr_mult: 0
    decay_mult: 0
  }
  param {
    lr_mult: 0
    decay_mult: 0
  }
  bn_param {
    slope_filler {
      type: "constant"
      value: 1
    }
    bias_filler {
      type: "constant"
      value: 0
    }
    momentum: 0.95
    frozen: false
  }
}
layer {
  name: "conv3_1_1x1_proj"
  type: "Convolution"
  bottom: "conv2_3"
  top: "conv3_1_1x1_proj"
  param {
    lr_mult: 1
    decay_mult: 1
  }
  convolution_param {
    num_output: 512
    bias_term: false
    pad: 0
    kernel_size: 1
    stride: 2
    weight_filler {
      type: "msra"
    }
  }
}
layer {
  name: "conv3_1_1x1_proj/bn"
  type: "SyncBN"
  bottom: "conv3_1_1x1_proj"
  top: "conv3_1_1x1_proj/bn"
  param {
    lr_mult: 1
    decay_mult: 0
  }
  param {
    lr_mult: 1
    decay_mult: 0
  }
  param {
    lr_mult: 0
    decay_mult: 0
  }
  param {
    lr_mult: 0
    decay_mult: 0
  }
  bn_param {
    slope_filler {
      type: "constant"
      value: 1
    }
    bias_filler {
      type: "constant"
      value: 0
    }
    momentum: 0.95
    frozen: false
  }
}
layer {
  name: "conv3_1"
  type: "Eltwise"
  bottom: "conv3_1_1x1_proj/bn"
  bottom: "conv3_1_1x1_increase/bn"
  top: "conv3_1"
  eltwise_param {
    operation: SUM
  }
}
layer {
  name: "conv3_1/relu"
  type: "ReLU"
  bottom: "conv3_1"
  top: "conv3_1"
}
layer {
  name: "conv3_2_1x1_reduce"
  type: "Convolution"
  bottom: "conv3_1"
  top: "conv3_2_1x1_reduce"
  param {
    lr_mult: 1
    decay_mult: 1
  }
  convolution_param {
    num_output: 128
    bias_term: false
    pad: 0
    kernel_size: 1
    stride: 1
    weight_filler {
      type: "msra"
    }
  }
}
layer {
  name: "conv3_2_1x1_reduce/bn"
  type: "SyncBN"
  bottom: "conv3_2_1x1_reduce"
  top: "conv3_2_1x1_reduce/bn"
  param {
    lr_mult: 1
    decay_mult: 0
  }
  param {
    lr_mult: 1
    decay_mult: 0
  }
  param {
    lr_mult: 0
    decay_mult: 0
  }
  param {
    lr_mult: 0
    decay_mult: 0
  }
  bn_param {
    slope_filler {
      type: "constant"
      value: 1
    }
    bias_filler {
      type: "constant"
      value: 0
    }
    momentum: 0.95
    frozen: false
  }
}
layer {
  name: "conv3_2_1x1_reduce/relu"
  type: "ReLU"
  bottom: "conv3_2_1x1_reduce/bn"
  top: "conv3_2_1x1_reduce/bn"
}
layer {
  name: "conv3_2_3x3"
  type: "Convolution"
  bottom: "conv3_2_1x1_reduce/bn"
  top: "conv3_2_3x3"
  param {
    lr_mult: 1
    decay_mult: 1
  }
  convolution_param {
    num_output: 128
    bias_term: false
    pad: 1
    kernel_size: 3
    stride: 1
    weight_filler {
      type: "msra"
    }
  }
}
layer {
  name: "conv3_2_3x3/bn"
  type: "SyncBN"
  bottom: "conv3_2_3x3"
  top: "conv3_2_3x3/bn"
  param {
    lr_mult: 1
    decay_mult: 0
  }
  param {
    lr_mult: 1
    decay_mult: 0
  }
  param {
    lr_mult: 0
    decay_mult: 0
  }
  param {
    lr_mult: 0
    decay_mult: 0
  }
  bn_param {
    slope_filler {
      type: "constant"
      value: 1
    }
    bias_filler {
      type: "constant"
      value: 0
    }
    momentum: 0.95
    frozen: false
  }
}
layer {
  name: "conv3_2_3x3/relu"
  type: "ReLU"
  bottom: "conv3_2_3x3/bn"
  top: "conv3_2_3x3/bn"
}
layer {
  name: "conv3_2_1x1_increase"
  type: "Convolution"
  bottom: "conv3_2_3x3/bn"
  top: "conv3_2_1x1_increase"
  param {
    lr_mult: 1
    decay_mult: 1
  }
  convolution_param {
    num_output: 512
    bias_term: false
    pad: 0
    kernel_size: 1
    stride: 1
    weight_filler {
      type: "msra"
    }
  }
}
layer {
  name: "conv3_2_1x1_increase/bn"
  type: "SyncBN"
  bottom: "conv3_2_1x1_increase"
  top: "conv3_2_1x1_increase/bn"
  param {
    lr_mult: 1
    decay_mult: 0
  }
  param {
    lr_mult: 1
    decay_mult: 0
  }
  param {
    lr_mult: 0
    decay_mult: 0
  }
  param {
    lr_mult: 0
    decay_mult: 0
  }
  bn_param {
    slope_filler {
      type: "constant"
      value: 1
    }
    bias_filler {
      type: "constant"
      value: 0
    }
    momentum: 0.95
    frozen: false
  }
}
layer {
  name: "conv3_2"
  type: "Eltwise"
  bottom: "conv3_1"
  bottom: "conv3_2_1x1_increase/bn"
  top: "conv3_2"
  eltwise_param {
    operation: SUM
  }
}
layer {
  name: "conv3_2/relu"
  type: "ReLU"
  bottom: "conv3_2"
  top: "conv3_2"
}
layer {
  name: "conv3_3_1x1_reduce"
  type: "Convolution"
  bottom: "conv3_2"
  top: "conv3_3_1x1_reduce"
  param {
    lr_mult: 1
    decay_mult: 1
  }
  convolution_param {
    num_output: 128
    bias_term: false
    pad: 0
    kernel_size: 1
    stride: 1
    weight_filler {
      type: "msra"
    }
  }
}
layer {
  name: "conv3_3_1x1_reduce/bn"
  type: "SyncBN"
  bottom: "conv3_3_1x1_reduce"
  top: "conv3_3_1x1_reduce/bn"
  param {
    lr_mult: 1
    decay_mult: 0
  }
  param {
    lr_mult: 1
    decay_mult: 0
  }
  param {
    lr_mult: 0
    decay_mult: 0
  }
  param {
    lr_mult: 0
    decay_mult: 0
  }
  bn_param {
    slope_filler {
      type: "constant"
      value: 1
    }
    bias_filler {
      type: "constant"
      value: 0
    }
    momentum: 0.95
    frozen: false
  }
}
layer {
  name: "conv3_3_1x1_reduce/relu"
  type: "ReLU"
  bottom: "conv3_3_1x1_reduce/bn"
  top: "conv3_3_1x1_reduce/bn"
}
layer {
  name: "conv3_3_3x3"
  type: "Convolution"
  bottom: "conv3_3_1x1_reduce/bn"
  top: "conv3_3_3x3"
  param {
    lr_mult: 1
    decay_mult: 1
  }
  convolution_param {
    num_output: 128
    bias_term: false
    pad: 1
    kernel_size: 3
    stride: 1
    weight_filler {
      type: "msra"
    }
  }
}
layer {
  name: "conv3_3_3x3/bn"
  type: "SyncBN"
  bottom: "conv3_3_3x3"
  top: "conv3_3_3x3/bn"
  param {
    lr_mult: 1
    decay_mult: 0
  }
  param {
    lr_mult: 1
    decay_mult: 0
  }
  param {
    lr_mult: 0
    decay_mult: 0
  }
  param {
    lr_mult: 0
    decay_mult: 0
  }
  bn_param {
    slope_filler {
      type: "constant"
      value: 1
    }
    bias_filler {
      type: "constant"
      value: 0
    }
    momentum: 0.95
    frozen: false
  }
}
layer {
  name: "conv3_3_3x3/relu"
  type: "ReLU"
  bottom: "conv3_3_3x3/bn"
  top: "conv3_3_3x3/bn"
}
layer {
  name: "conv3_3_1x1_increase"
  type: "Convolution"
  bottom: "conv3_3_3x3/bn"
  top: "conv3_3_1x1_increase"
  param {
    lr_mult: 1
    decay_mult: 1
  }
  convolution_param {
    num_output: 512
    bias_term: false
    pad: 0
    kernel_size: 1
    stride: 1
    weight_filler {
      type: "msra"
    }
  }
}
layer {
  name: "conv3_3_1x1_increase/bn"
  type: "SyncBN"
  bottom: "conv3_3_1x1_increase"
  top: "conv3_3_1x1_increase/bn"
  param {
    lr_mult: 1
    decay_mult: 0
  }
  param {
    lr_mult: 1
    decay_mult: 0
  }
  param {
    lr_mult: 0
    decay_mult: 0
  }
  param {
    lr_mult: 0
    decay_mult: 0
  }
  bn_param {
    slope_filler {
      type: "constant"
      value: 1
    }
    bias_filler {
      type: "constant"
      value: 0
    }
    momentum: 0.95
    frozen: false
  }
}
layer {
  name: "conv3_3"
  type: "Eltwise"
  bottom: "conv3_2"
  bottom: "conv3_3_1x1_increase/bn"
  top: "conv3_3"
  eltwise_param {
    operation: SUM
  }
}
layer {
  name: "conv3_3/relu"
  type: "ReLU"
  bottom: "conv3_3"
  top: "conv3_3"
}
layer {
  name: "conv3_4_1x1_reduce"
  type: "Convolution"
  bottom: "conv3_3"
  top: "conv3_4_1x1_reduce"
  param {
    lr_mult: 1
    decay_mult: 1
  }
  convolution_param {
    num_output: 128
    bias_term: false
    pad: 0
    kernel_size: 1
    stride: 1
    weight_filler {
      type: "msra"
    }
  }
}
layer {
  name: "conv3_4_1x1_reduce/bn"
  type: "SyncBN"
  bottom: "conv3_4_1x1_reduce"
  top: "conv3_4_1x1_reduce/bn"
  param {
    lr_mult: 1
    decay_mult: 0
  }
  param {
    lr_mult: 1
    decay_mult: 0
  }
  param {
    lr_mult: 0
    decay_mult: 0
  }
  param {
    lr_mult: 0
    decay_mult: 0
  }
  bn_param {
    slope_filler {
      type: "constant"
      value: 1
    }
    bias_filler {
      type: "constant"
      value: 0
    }
    momentum: 0.95
    frozen: false
  }
}
layer {
  name: "conv3_4_1x1_reduce/relu"
  type: "ReLU"
  bottom: "conv3_4_1x1_reduce/bn"
  top: "conv3_4_1x1_reduce/bn"
}
layer {
  name: "conv3_4_3x3"
  type: "Convolution"
  bottom: "conv3_4_1x1_reduce/bn"
  top: "conv3_4_3x3"
  param {
    lr_mult: 1
    decay_mult: 1
  }
  convolution_param {
    num_output: 128
    bias_term: false
    pad: 1
    kernel_size: 3
    stride: 1
    weight_filler {
      type: "msra"
    }
  }
}
layer {
  name: "conv3_4_3x3/bn"
  type: "SyncBN"
  bottom: "conv3_4_3x3"
  top: "conv3_4_3x3/bn"
  param {
    lr_mult: 1
    decay_mult: 0
  }
  param {
    lr_mult: 1
    decay_mult: 0
  }
  param {
    lr_mult: 0
    decay_mult: 0
  }
  param {
    lr_mult: 0
    decay_mult: 0
  }
  bn_param {
    slope_filler {
      type: "constant"
      value: 1
    }
    bias_filler {
      type: "constant"
      value: 0
    }
    momentum: 0.95
    frozen: false
  }
}
layer {
  name: "conv3_4_3x3/relu"
  type: "ReLU"
  bottom: "conv3_4_3x3/bn"
  top: "conv3_4_3x3/bn"
}
layer {
  name: "conv3_4_1x1_increase"
  type: "Convolution"
  bottom: "conv3_4_3x3/bn"
  top: "conv3_4_1x1_increase"
  param {
    lr_mult: 1
    decay_mult: 1
  }
  convolution_param {
    num_output: 512
    bias_term: false
    pad: 0
    kernel_size: 1
    stride: 1
    weight_filler {
      type: "msra"
    }
  }
}
layer {
  name: "conv3_4_1x1_increase/bn"
  type: "SyncBN"
  bottom: "conv3_4_1x1_increase"
  top: "conv3_4_1x1_increase/bn"
  param {
    lr_mult: 1
    decay_mult: 0
  }
  param {
    lr_mult: 1
    decay_mult: 0
  }
  param {
    lr_mult: 0
    decay_mult: 0
  }
  param {
    lr_mult: 0
    decay_mult: 0
  }
  bn_param {
    slope_filler {
      type: "constant"
      value: 1
    }
    bias_filler {
      type: "constant"
      value: 0
    }
    momentum: 0.95
    frozen: false
  }
}
layer {
  name: "conv3_4"
  type: "Eltwise"
  bottom: "conv3_3"
  bottom: "conv3_4_1x1_increase/bn"
  top: "conv3_4"
  eltwise_param {
    operation: SUM
  }
}
layer {
  name: "conv3_4/relu"
  type: "ReLU"
  bottom: "conv3_4"
  top: "conv3_4"
}
layer {
  name: "conv4_1_1x1_reduce"
  type: "Convolution"
  bottom: "conv3_4"
  top: "conv4_1_1x1_reduce"
  param {
    lr_mult: 1
    decay_mult: 1
  }
  convolution_param {
    num_output: 256
    bias_term: false
    pad: 0
    kernel_size: 1
    stride: 1
    weight_filler {
      type: "msra"
    }
  }
}
layer {
  name: "conv4_1_1x1_reduce/bn"
  type: "SyncBN"
  bottom: "conv4_1_1x1_reduce"
  top: "conv4_1_1x1_reduce/bn"
  param {
    lr_mult: 1
    decay_mult: 0
  }
  param {
    lr_mult: 1
    decay_mult: 0
  }
  param {
    lr_mult: 0
    decay_mult: 0
  }
  param {
    lr_mult: 0
    decay_mult: 0
  }
  bn_param {
    slope_filler {
      type: "constant"
      value: 1
    }
    bias_filler {
      type: "constant"
      value: 0
    }
    momentum: 0.95
    frozen: false
  }
}
layer {
  name: "conv4_1_1x1_reduce/relu"
  type: "ReLU"
  bottom: "conv4_1_1x1_reduce/bn"
  top: "conv4_1_1x1_reduce/bn"
}
layer {
  name: "conv4_1_3x3"
  type: "Convolution"
  bottom: "conv4_1_1x1_reduce/bn"
  top: "conv4_1_3x3"
  param {
    lr_mult: 1
    decay_mult: 1
  }
  convolution_param {
    num_output: 256
    bias_term: false
    pad: 2
    kernel_size: 3
    stride: 1
    weight_filler {
      type: "msra"
    }
    engine: CAFFE
    dilation: 2
  }
}
layer {
  name: "conv4_1_3x3/bn"
  type: "SyncBN"
  bottom: "conv4_1_3x3"
  top: "conv4_1_3x3/bn"
  param {
    lr_mult: 1
    decay_mult: 0
  }
  param {
    lr_mult: 1
    decay_mult: 0
  }
  param {
    lr_mult: 0
    decay_mult: 0
  }
  param {
    lr_mult: 0
    decay_mult: 0
  }
  bn_param {
    slope_filler {
      type: "constant"
      value: 1
    }
    bias_filler {
      type: "constant"
      value: 0
    }
    momentum: 0.95
    frozen: false
  }
}
layer {
  name: "conv4_1_3x3/relu"
  type: "ReLU"
  bottom: "conv4_1_3x3/bn"
  top: "conv4_1_3x3/bn"
}
layer {
  name: "conv4_1_1x1_increase"
  type: "Convolution"
  bottom: "conv4_1_3x3/bn"
  top: "conv4_1_1x1_increase"
  param {
    lr_mult: 1
    decay_mult: 1
  }
  convolution_param {
    num_output: 1024
    bias_term: false
    pad: 0
    kernel_size: 1
    stride: 1
    weight_filler {
      type: "msra"
    }
  }
}
layer {
  name: "conv4_1_1x1_increase/bn"
  type: "SyncBN"
  bottom: "conv4_1_1x1_increase"
  top: "conv4_1_1x1_increase/bn"
  param {
    lr_mult: 1
    decay_mult: 0
  }
  param {
    lr_mult: 1
    decay_mult: 0
  }
  param {
    lr_mult: 0
    decay_mult: 0
  }
  param {
    lr_mult: 0
    decay_mult: 0
  }
  bn_param {
    slope_filler {
      type: "constant"
      value: 1
    }
    bias_filler {
      type: "constant"
      value: 0
    }
    momentum: 0.95
    frozen: false
  }
}
layer {
  name: "conv4_1_1x1_proj"
  type: "Convolution"
  bottom: "conv3_4"
  top: "conv4_1_1x1_proj"
  param {
    lr_mult: 1
    decay_mult: 1
  }
  convolution_param {
    num_output: 1024
    bias_term: false
    pad: 0
    kernel_size: 1
    stride: 1
    weight_filler {
      type: "msra"
    }
  }
}
layer {
  name: "conv4_1_1x1_proj/bn"
  type: "SyncBN"
  bottom: "conv4_1_1x1_proj"
  top: "conv4_1_1x1_proj/bn"
  param {
    lr_mult: 1
    decay_mult: 0
  }
  param {
    lr_mult: 1
    decay_mult: 0
  }
  param {
    lr_mult: 0
    decay_mult: 0
  }
  param {
    lr_mult: 0
    decay_mult: 0
  }
  bn_param {
    slope_filler {
      type: "constant"
      value: 1
    }
    bias_filler {
      type: "constant"
      value: 0
    }
    momentum: 0.95
    frozen: false
  }
}
layer {
  name: "conv4_1"
  type: "Eltwise"
  bottom: "conv4_1_1x1_proj/bn"
  bottom: "conv4_1_1x1_increase/bn"
  top: "conv4_1"
  eltwise_param {
    operation: SUM
  }
}
layer {
  name: "conv4_1/relu"
  type: "ReLU"
  bottom: "conv4_1"
  top: "conv4_1"
}
layer {
  name: "conv4_2_1x1_reduce"
  type: "Convolution"
  bottom: "conv4_1"
  top: "conv4_2_1x1_reduce"
  param {
    lr_mult: 1
    decay_mult: 1
  }
  convolution_param {
    num_output: 256
    bias_term: false
    pad: 0
    kernel_size: 1
    stride: 1
    weight_filler {
      type: "msra"
    }
  }
}
layer {
  name: "conv4_2_1x1_reduce/bn"
  type: "SyncBN"
  bottom: "conv4_2_1x1_reduce"
  top: "conv4_2_1x1_reduce/bn"
  param {
    lr_mult: 1
    decay_mult: 0
  }
  param {
    lr_mult: 1
    decay_mult: 0
  }
  param {
    lr_mult: 0
    decay_mult: 0
  }
  param {
    lr_mult: 0
    decay_mult: 0
  }
  bn_param {
    slope_filler {
      type: "constant"
      value: 1
    }
    bias_filler {
      type: "constant"
      value: 0
    }
    momentum: 0.95
    frozen: false
  }
}
layer {
  name: "conv4_2_1x1_reduce/relu"
  type: "ReLU"
  bottom: "conv4_2_1x1_reduce/bn"
  top: "conv4_2_1x1_reduce/bn"
}
layer {
  name: "conv4_2_3x3"
  type: "Convolution"
  bottom: "conv4_2_1x1_reduce/bn"
  top: "conv4_2_3x3"
  param {
   
I0520 00:19:30.201901 30568 layer_factory.hpp:74] Creating layer data
I0520 00:19:30.201931 30568 net.cpp:99] Creating Layer data
I0520 00:19:30.201941 30568 net.cpp:437] data -> data
I0520 00:19:30.201970 30568 net.cpp:437] data -> label
I0520 00:19:30.201980 30568 net.cpp:437] data -> (automatic)
I0520 00:19:30.201985 30568 net.cpp:163] Setting up data
I0520 00:19:30.202389 30568 image_seg_data_layer.cpp:47] Opening file /home/bingbing/Documents/datasets/cityscapesDataset/list/cityscapes_train_val.txt
I0520 00:19:30.209633 30568 image_seg_data_layer.cpp:64] Shuffling data
I0520 00:19:30.210819 30568 image_seg_data_layer.cpp:69] A total of 3475 images.
I0520 00:19:30.305351 30568 image_seg_data_layer.cpp:126] output data size: 3,3,473,473
I0520 00:19:30.305372 30568 image_seg_data_layer.cpp:130] output label size: 3,1,473,473
I0520 00:19:30.305655 30568 net.cpp:170] Top shape: 3 3 473 473 (2013561)
I0520 00:19:30.305666 30568 net.cpp:170] Top shape: 3 1 473 473 (671187)
I0520 00:19:30.305671 30568 net.cpp:170] Top shape: (0)
I0520 00:19:30.305680 30568 layer_factory.hpp:74] Creating layer label_data_1_split
I0520 00:19:30.305694 30568 net.cpp:99] Creating Layer label_data_1_split
I0520 00:19:30.305701 30568 net.cpp:481] label_data_1_split <- label
I0520 00:19:30.305712 30568 net.cpp:130] This layer is inheriting previous layer's sync mode: 1
I0520 00:19:30.305721 30568 net.cpp:437] label_data_1_split -> label_data_1_split_0
I0520 00:19:30.305732 30568 net.cpp:437] label_data_1_split -> label_data_1_split_1
I0520 00:19:30.305740 30568 net.cpp:437] label_data_1_split -> label_data_1_split_2
I0520 00:19:30.305747 30568 net.cpp:163] Setting up label_data_1_split
I0520 00:19:30.305754 30568 net.cpp:170] Top shape: 3 1 473 473 (671187)
I0520 00:19:30.305759 30568 net.cpp:170] Top shape: 3 1 473 473 (671187)
I0520 00:19:30.305763 30568 net.cpp:170] Top shape: 3 1 473 473 (671187)
I0520 00:19:30.305766 30568 layer_factory.hpp:74] Creating layer conv1_1_3x3_s2
I0520 00:19:30.305778 30568 net.cpp:99] Creating Layer conv1_1_3x3_s2
I0520 00:19:30.305806 30568 net.cpp:481] conv1_1_3x3_s2 <- data
I0520 00:19:30.305811 30568 net.cpp:130] This layer is inheriting previous layer's sync mode: 1
I0520 00:19:30.305816 30568 net.cpp:437] conv1_1_3x3_s2 -> conv1_1_3x3_s2
I0520 00:19:30.305826 30568 net.cpp:163] Setting up conv1_1_3x3_s2
I0520 00:19:31.336673 30568 net.cpp:170] Top shape: 3 64 237 237 (10784448)
I0520 00:19:31.336757 30568 layer_factory.hpp:74] Creating layer conv1_1_3x3_s2/bn
I0520 00:19:31.336793 30568 net.cpp:99] Creating Layer conv1_1_3x3_s2/bn
I0520 00:19:31.336803 30568 net.cpp:481] conv1_1_3x3_s2/bn <- conv1_1_3x3_s2
I0520 00:19:31.336817 30568 net.cpp:130] This layer is inheriting previous layer's sync mode: 1
I0520 00:19:31.336829 30568 net.cpp:437] conv1_1_3x3_s2/bn -> conv1_1_3x3_s2/bn
I0520 00:19:31.336851 30568 net.cpp:163] Setting up conv1_1_3x3_s2/bn
I0520 00:19:31.336930 30568 net.cpp:170] Top shape: 3 64 237 237 (10784448)
I0520 00:19:31.336982 30568 layer_factory.hpp:74] Creating layer conv1_1_3x3_s2/relu
I0520 00:19:31.337011 30568 net.cpp:99] Creating Layer conv1_1_3x3_s2/relu
I0520 00:19:31.337018 30568 net.cpp:481] conv1_1_3x3_s2/relu <- conv1_1_3x3_s2/bn
I0520 00:19:31.337025 30568 net.cpp:130] This layer is inheriting previous layer's sync mode: 1
I0520 00:19:31.337034 30568 net.cpp:426] conv1_1_3x3_s2/relu -> conv1_1_3x3_s2/bn (in-place)
I0520 00:19:31.337044 30568 net.cpp:163] Setting up conv1_1_3x3_s2/relu
I0520 00:19:31.339375 30568 net.cpp:170] Top shape: 3 64 237 237 (10784448)
I0520 00:19:31.339402 30568 layer_factory.hpp:74] Creating layer conv1_2_3x3
I0520 00:19:31.339422 30568 net.cpp:99] Creating Layer conv1_2_3x3
I0520 00:19:31.339428 30568 net.cpp:481] conv1_2_3x3 <- conv1_1_3x3_s2/bn
I0520 00:19:31.339442 30568 net.cpp:130] This layer is inheriting previous layer's sync mode: 1
I0520 00:19:31.339452 30568 net.cpp:437] conv1_2_3x3 -> conv1_2_3x3
I0520 00:19:31.339474 30568 net.cpp:163] Setting up conv1_2_3x3
I0520 00:19:31.774317 30568 net.cpp:170] Top shape: 3 64 237 237 (10784448)
I0520 00:19:31.774368 30568 layer_factory.hpp:74] Creating layer conv1_2_3x3/bn
I0520 00:19:31.774391 30568 net.cpp:99] Creating Layer conv1_2_3x3/bn
I0520 00:19:31.774399 30568 net.cpp:481] conv1_2_3x3/bn <- conv1_2_3x3
I0520 00:19:31.774415 30568 net.cpp:130] This layer is inheriting previous layer's sync mode: 1
I0520 00:19:31.774425 30568 net.cpp:437] conv1_2_3x3/bn -> conv1_2_3x3/bn
I0520 00:19:31.774442 30568 net.cpp:163] Setting up conv1_2_3x3/bn
I0520 00:19:31.774472 30568 net.cpp:170] Top shape: 3 64 237 237 (10784448)
I0520 00:19:31.774493 30568 layer_factory.hpp:74] Creating layer conv1_2_3x3/relu
I0520 00:19:31.774507 30568 net.cpp:99] Creating Layer conv1_2_3x3/relu
I0520 00:19:31.774511 30568 net.cpp:481] conv1_2_3x3/relu <- conv1_2_3x3/bn
I0520 00:19:31.774519 30568 net.cpp:130] This layer is inheriting previous layer's sync mode: 1
I0520 00:19:31.774526 30568 net.cpp:426] conv1_2_3x3/relu -> conv1_2_3x3/bn (in-place)
I0520 00:19:31.774535 30568 net.cpp:163] Setting up conv1_2_3x3/relu
I0520 00:19:31.774972 30568 net.cpp:170] Top shape: 3 64 237 237 (10784448)
I0520 00:19:31.774989 30568 layer_factory.hpp:74] Creating layer conv1_3_3x3
I0520 00:19:31.775012 30568 net.cpp:99] Creating Layer conv1_3_3x3
I0520 00:19:31.775017 30568 net.cpp:481] conv1_3_3x3 <- conv1_2_3x3/bn
I0520 00:19:31.775025 30568 net.cpp:130] This layer is inheriting previous layer's sync mode: 1
I0520 00:19:31.775032 30568 net.cpp:437] conv1_3_3x3 -> conv1_3_3x3
I0520 00:19:31.775045 30568 net.cpp:163] Setting up conv1_3_3x3
I0520 00:19:32.505676 30568 net.cpp:170] Top shape: 3 128 237 237 (21568896)
I0520 00:19:32.505734 30568 layer_factory.hpp:74] Creating layer conv1_3_3x3/bn
I0520 00:19:32.505761 30568 net.cpp:99] Creating Layer conv1_3_3x3/bn
I0520 00:19:32.505769 30568 net.cpp:481] conv1_3_3x3/bn <- conv1_3_3x3
I0520 00:19:32.505781 30568 net.cpp:130] This layer is inheriting previous layer's sync mode: 1
I0520 00:19:32.505792 30568 net.cpp:437] conv1_3_3x3/bn -> conv1_3_3x3/bn
I0520 00:19:32.505810 30568 net.cpp:163] Setting up conv1_3_3x3/bn
I0520 00:19:32.505889 30568 net.cpp:170] Top shape: 3 128 237 237 (21568896)
I0520 00:19:32.505908 30568 layer_factory.hpp:74] Creating layer conv1_3_3x3/relu
I0520 00:19:32.505918 30568 net.cpp:99] Creating Layer conv1_3_3x3/relu
I0520 00:19:32.505924 30568 net.cpp:481] conv1_3_3x3/relu <- conv1_3_3x3/bn
I0520 00:19:32.505934 30568 net.cpp:130] This layer is inheriting previous layer's sync mode: 1
I0520 00:19:32.505940 30568 net.cpp:426] conv1_3_3x3/relu -> conv1_3_3x3/bn (in-place)
I0520 00:19:32.505949 30568 net.cpp:163] Setting up conv1_3_3x3/relu
I0520 00:19:32.506373 30568 net.cpp:170] Top shape: 3 128 237 237 (21568896)
I0520 00:19:32.506392 30568 layer_factory.hpp:74] Creating layer pool1_3x3_s2
I0520 00:19:32.506404 30568 layer_factory.cpp:59] CUDNN does not support padding or multiple tops. Using Caffe's own pooling layer.
I0520 00:19:32.506417 30568 net.cpp:99] Creating Layer pool1_3x3_s2
I0520 00:19:32.506423 30568 net.cpp:481] pool1_3x3_s2 <- conv1_3_3x3/bn
I0520 00:19:32.506433 30568 net.cpp:130] This layer is inheriting previous layer's sync mode: 1
I0520 00:19:32.506443 30568 net.cpp:437] pool1_3x3_s2 -> pool1_3x3_s2
I0520 00:19:32.506454 30568 net.cpp:163] Setting up pool1_3x3_s2
I0520 00:19:32.506479 30568 net.cpp:170] Top shape: 3 128 119 119 (5437824)
I0520 00:19:32.506487 30568 layer_factory.hpp:74] Creating layer pool1_3x3_s2_pool1_3x3_s2_0_split
I0520 00:19:32.506497 30568 net.cpp:99] Creating Layer pool1_3x3_s2_pool1_3x3_s2_0_split
I0520 00:19:32.506503 30568 net.cpp:481] pool1_3x3_s2_pool1_3x3_s2_0_split <- pool1_3x3_s2
I0520 00:19:32.506510 30568 net.cpp:130] This layer is inheriting previous layer's sync mode: 1
I0520 00:19:32.506517 30568 net.cpp:437] pool1_3x3_s2_pool1_3x3_s2_0_split -> pool1_3x3_s2_pool1_3x3_s2_0_split_0
I0520 00:19:32.506528 30568 net.cpp:437] pool1_3x3_s2_pool1_3x3_s2_0_split -> pool1_3x3_s2_pool1_3x3_s2_0_split_1
I0520 00:19:32.506538 30568 net.cpp:163] Setting up pool1_3x3_s2_pool1_3x3_s2_0_split
I0520 00:19:32.506548 30568 net.cpp:170] Top shape: 3 128 119 119 (5437824)
I0520 00:19:32.506556 30568 net.cpp:170] Top shape: 3 128 119 119 (5437824)
I0520 00:19:32.506561 30568 layer_factory.hpp:74] Creating layer conv2_1_1x1_reduce
I0520 00:19:32.506575 30568 net.cpp:99] Creating Layer conv2_1_1x1_reduce
I0520 00:19:32.506582 30568 net.cpp:481] conv2_1_1x1_reduce <- pool1_3x3_s2_pool1_3x3_s2_0_split_0
I0520 00:19:32.506589 30568 net.cpp:130] This layer is inheriting previous layer's sync mode: 1
I0520 00:19:32.506598 30568 net.cpp:437] conv2_1_1x1_reduce -> conv2_1_1x1_reduce
I0520 00:19:32.506610 30568 net.cpp:163] Setting up conv2_1_1x1_reduce
I0520 00:19:32.636961 30568 net.cpp:170] Top shape: 3 64 119 119 (2718912)
I0520 00:19:32.637012 30568 layer_factory.hpp:74] Creating layer conv2_1_1x1_reduce/bn
I0520 00:19:32.637039 30568 net.cpp:99] Creating Layer conv2_1_1x1_reduce/bn
I0520 00:19:32.637048 30568 net.cpp:481] conv2_1_1x1_reduce/bn <- conv2_1_1x1_reduce
I0520 00:19:32.637063 30568 net.cpp:130] This layer is inheriting previous layer's sync mode: 1
I0520 00:19:32.637074 30568 net.cpp:437] conv2_1_1x1_reduce/bn -> conv2_1_1x1_reduce/bn
I0520 00:19:32.637099 30568 net.cpp:163] Setting up conv2_1_1x1_reduce/bn
I0520 00:19:32.637130 30568 net.cpp:170] Top shape: 3 64 119 119 (2718912)
I0520 00:19:32.637154 30568 layer_factory.hpp:74] Creating layer conv2_1_1x1_reduce/relu
I0520 00:19:32.637166 30568 net.cpp:99] Creating Layer conv2_1_1x1_reduce/relu
I0520 00:19:32.637171 30568 net.cpp:481] conv2_1_1x1_reduce/relu <- conv2_1_1x1_reduce/bn
I0520 00:19:32.637181 30568 net.cpp:130] This layer is inheriting previous layer's sync mode: 1
I0520 00:19:32.637188 30568 net.cpp:426] conv2_1_1x1_reduce/relu -> conv2_1_1x1_reduce/bn (in-place)
I0520 00:19:32.637197 30568 net.cpp:163] Setting up conv2_1_1x1_reduce/relu
I0520 00:19:32.638569 30568 net.cpp:170] Top shape: 3 64 119 119 (2718912)
I0520 00:19:32.638593 30568 layer_factory.hpp:74] Creating layer conv2_1_3x3
I0520 00:19:32.638619 30568 net.cpp:99] Creating Layer conv2_1_3x3
I0520 00:19:32.638626 30568 net.cpp:481] conv2_1_3x3 <- conv2_1_1x1_reduce/bn
I0520 00:19:32.638664 30568 net.cpp:130] This layer is inheriting previous layer's sync mode: 1
I0520 00:19:32.638674 30568 net.cpp:437] conv2_1_3x3 -> conv2_1_3x3
I0520 00:19:32.638687 30568 net.cpp:163] Setting up conv2_1_3x3
I0520 00:19:32.754122 30568 net.cpp:170] Top shape: 3 64 119 119 (2718912)
I0520 00:19:32.754153 30568 layer_factory.hpp:74] Creating layer conv2_1_3x3/bn
I0520 00:19:32.754179 30568 net.cpp:99] Creating Layer conv2_1_3x3/bn
I0520 00:19:32.754186 30568 net.cpp:481] conv2_1_3x3/bn <- conv2_1_3x3
I0520 00:19:32.754195 30568 net.cpp:130] This layer is inheriting previous layer's sync mode: 1
I0520 00:19:32.754204 30568 net.cpp:437] conv2_1_3x3/bn -> conv2_1_3x3/bn
I0520 00:19:32.754217 30568 net.cpp:163] Setting up conv2_1_3x3/bn
I0520 00:19:32.754240 30568 net.cpp:170] Top shape: 3 64 119 119 (2718912)
I0520 00:19:32.754256 30568 layer_factory.hpp:74] Creating layer conv2_1_3x3/relu
I0520 00:19:32.754266 30568 net.cpp:99] Creating Layer conv2_1_3x3/relu
I0520 00:19:32.754271 30568 net.cpp:481] conv2_1_3x3/relu <- conv2_1_3x3/bn
I0520 00:19:32.754276 30568 net.cpp:130] This layer is inheriting previous layer's sync mode: 1
I0520 00:19:32.754282 30568 net.cpp:426] conv2_1_3x3/relu -> conv2_1_3x3/bn (in-place)
I0520 00:19:32.754290 30568 net.cpp:163] Setting up conv2_1_3x3/relu
I0520 00:19:32.754628 30568 net.cpp:170] Top shape: 3 64 119 119 (2718912)
I0520 00:19:32.754649 30568 layer_factory.hpp:74] Creating layer conv2_1_1x1_increase
I0520 00:19:32.754664 30568 net.cpp:99] Creating Layer conv2_1_1x1_increase
I0520 00:19:32.754669 30568 net.cpp:481] conv2_1_1x1_increase <- conv2_1_3x3/bn
I0520 00:19:32.754678 30568 net.cpp:130] This layer is inheriting previous layer's sync mode: 1
I0520 00:19:32.754686 30568 net.cpp:437] conv2_1_1x1_increase -> conv2_1_1x1_increase
I0520 00:19:32.754698 30568 net.cpp:163] Setting up conv2_1_1x1_increase
I0520 00:19:32.987732 30568 net.cpp:170] Top shape: 3 256 119 119 (10875648)
I0520 00:19:32.987767 30568 layer_factory.hpp:74] Creating layer conv2_1_1x1_increase/bn
I0520 00:19:32.987785 30568 net.cpp:99] Creating Layer conv2_1_1x1_increase/bn
I0520 00:19:32.987792 30568 net.cpp:481] conv2_1_1x1_increase/bn <- conv2_1_1x1_increase
I0520 00:19:32.987802 30568 net.cpp:130] This layer is inheriting previous layer's sync mode: 1
I0520 00:19:32.987812 30568 net.cpp:437] conv2_1_1x1_increase/bn -> conv2_1_1x1_increase/bn
I0520 00:19:32.987825 30568 net.cpp:163] Setting up conv2_1_1x1_increase/bn
I0520 00:19:32.987851 30568 net.cpp:170] Top shape: 3 256 119 119 (10875648)
I0520 00:19:32.987869 30568 layer_factory.hpp:74] Creating layer conv2_1_1x1_proj
I0520 00:19:32.987881 30568 net.cpp:99] Creating Layer conv2_1_1x1_proj
I0520 00:19:32.987887 30568 net.cpp:481] conv2_1_1x1_proj <- pool1_3x3_s2_pool1_3x3_s2_0_split_1
I0520 00:19:32.987895 30568 net.cpp:130] This layer is inheriting previous layer's sync mode: 1
I0520 00:19:32.987903 30568 net.cpp:437] conv2_1_1x1_proj -> conv2_1_1x1_proj
I0520 00:19:32.987915 30568 net.cpp:163] Setting up conv2_1_1x1_proj
I0520 00:19:33.405313 30568 net.cpp:170] Top shape: 3 256 119 119 (10875648)
I0520 00:19:33.405344 30568 layer_factory.hpp:74] Creating layer conv2_1_1x1_proj/bn
I0520 00:19:33.405359 30568 net.cpp:99] Creating Layer conv2_1_1x1_proj/bn
I0520 00:19:33.405366 30568 net.cpp:481] conv2_1_1x1_proj/bn <- conv2_1_1x1_proj
I0520 00:19:33.405375 30568 net.cpp:130] This layer is inheriting previous layer's sync mode: 1
I0520 00:19:33.405383 30568 net.cpp:437] conv2_1_1x1_proj/bn -> conv2_1_1x1_proj/bn
I0520 00:19:33.405396 30568 net.cpp:163] Setting up conv2_1_1x1_proj/bn
I0520 00:19:33.405421 30568 net.cpp:170] Top shape: 3 256 119 119 (10875648)
I0520 00:19:33.405437 30568 layer_factory.hpp:74] Creating layer conv2_1
I0520 00:19:33.405463 30568 net.cpp:99] Creating Layer conv2_1
I0520 00:19:33.405468 30568 net.cpp:481] conv2_1 <- conv2_1_1x1_proj/bn
I0520 00:19:33.405477 30568 net.cpp:481] conv2_1 <- conv2_1_1x1_increase/bn
I0520 00:19:33.405481 30568 net.cpp:130] This layer is inheriting previous layer's sync mode: 1
I0520 00:19:33.405514 30568 net.cpp:437] conv2_1 -> conv2_1
I0520 00:19:33.405530 30568 net.cpp:163] Setting up conv2_1
I0520 00:19:33.405544 30568 net.cpp:170] Top shape: 3 256 119 119 (10875648)
I0520 00:19:33.405551 30568 layer_factory.hpp:74] Creating layer conv2_1/relu
I0520 00:19:33.405560 30568 net.cpp:99] Creating Layer conv2_1/relu
I0520 00:19:33.405565 30568 net.cpp:481] conv2_1/relu <- conv2_1
I0520 00:19:33.405570 30568 net.cpp:130] This layer is inheriting previous layer's sync mode: 1
I0520 00:19:33.405576 30568 net.cpp:426] conv2_1/relu -> conv2_1 (in-place)
I0520 00:19:33.405583 30568 net.cpp:163] Setting up conv2_1/relu
I0520 00:19:33.405910 30568 net.cpp:170] Top shape: 3 256 119 119 (10875648)
I0520 00:19:33.405928 30568 layer_factory.hpp:74] Creating layer conv2_1_conv2_1/relu_0_split
I0520 00:19:33.405939 30568 net.cpp:99] Creating Layer conv2_1_conv2_1/relu_0_split
I0520 00:19:33.405944 30568 net.cpp:481] conv2_1_conv2_1/relu_0_split <- conv2_1
I0520 00:19:33.405954 30568 net.cpp:130] This layer is inheriting previous layer's sync mode: 1
I0520 00:19:33.405963 30568 net.cpp:437] conv2_1_conv2_1/relu_0_split -> conv2_1_conv2_1/relu_0_split_0
I0520 00:19:33.405975 30568 net.cpp:437] conv2_1_conv2_1/relu_0_split -> conv2_1_conv2_1/relu_0_split_1
I0520 00:19:33.405984 30568 net.cpp:163] Setting up conv2_1_conv2_1/relu_0_split
I0520 00:19:33.405993 30568 net.cpp:170] Top shape: 3 256 119 119 (10875648)
I0520 00:19:33.405999 30568 net.cpp:170] Top shape: 3 256 119 119 (10875648)
I0520 00:19:33.406004 30568 layer_factory.hpp:74] Creating layer conv2_2_1x1_reduce
I0520 00:19:33.406018 30568 net.cpp:99] Creating Layer conv2_2_1x1_reduce
I0520 00:19:33.406023 30568 net.cpp:481] conv2_2_1x1_reduce <- conv2_1_conv2_1/relu_0_split_0
I0520 00:19:33.406028 30568 net.cpp:130] This layer is inheriting previous layer's sync mode: 1
I0520 00:19:33.406035 30568 net.cpp:437] conv2_2_1x1_reduce -> conv2_2_1x1_reduce
I0520 00:19:33.406045 30568 net.cpp:163] Setting up conv2_2_1x1_reduce
I0520 00:19:33.638067 30568 net.cpp:170] Top shape: 3 64 119 119 (2718912)
I0520 00:19:33.638092 30568 layer_factory.hpp:74] Creating layer conv2_2_1x1_reduce/bn
I0520 00:19:33.638106 30568 net.cpp:99] Creating Layer conv2_2_1x1_reduce/bn
I0520 00:19:33.638113 30568 net.cpp:481] conv2_2_1x1_reduce/bn <- conv2_2_1x1_reduce
I0520 00:19:33.638123 30568 net.cpp:130] This layer is inheriting previous layer's sync mode: 1
I0520 00:19:33.638131 30568 net.cpp:437] conv2_2_1x1_reduce/bn -> conv2_2_1x1_reduce/bn
I0520 00:19:33.638142 30568 net.cpp:163] Setting up conv2_2_1x1_reduce/bn
I0520 00:19:33.638161 30568 net.cpp:170] Top shape: 3 64 119 119 (2718912)
I0520 00:19:33.638171 30568 layer_factory.hpp:74] Creating layer conv2_2_1x1_reduce/relu
I0520 00:19:33.638180 30568 net.cpp:99] Creating Layer conv2_2_1x1_reduce/relu
I0520 00:19:33.638183 30568 net.cpp:481] conv2_2_1x1_reduce/relu <- conv2_2_1x1_reduce/bn
I0520 00:19:33.638188 30568 net.cpp:130] This layer is inheriting previous layer's sync mode: 1
I0520 00:19:33.638195 30568 net.cpp:426] conv2_2_1x1_reduce/relu -> conv2_2_1x1_reduce/bn (in-place)
I0520 00:19:33.638201 30568 net.cpp:163] Setting up conv2_2_1x1_reduce/relu
I0520 00:19:33.639305 30568 net.cpp:170] Top shape: 3 64 119 119 (2718912)
I0520 00:19:33.639327 30568 layer_factory.hpp:74] Creating layer conv2_2_3x3
I0520 00:19:33.639340 30568 net.cpp:99] Creating Layer conv2_2_3x3
I0520 00:19:33.639346 30568 net.cpp:481] conv2_2_3x3 <- conv2_2_1x1_reduce/bn
I0520 00:19:33.639355 30568 net.cpp:130] This layer is inheriting previous layer's sync mode: 1
I0520 00:19:33.639364 30568 net.cpp:437] conv2_2_3x3 -> conv2_2_3x3
I0520 00:19:33.639374 30568 net.cpp:163] Setting up conv2_2_3x3
I0520 00:19:33.751415 30568 net.cpp:170] Top shape: 3 64 119 119 (2718912)
I0520 00:19:33.751447 30568 layer_factory.hpp:74] Creating layer conv2_2_3x3/bn
I0520 00:19:33.751462 30568 net.cpp:99] Creating Layer conv2_2_3x3/bn
I0520 00:19:33.751468 30568 net.cpp:481] conv2_2_3x3/bn <- conv2_2_3x3
I0520 00:19:33.751477 30568 net.cpp:130] This layer is inheriting previous layer's sync mode: 1
I0520 00:19:33.751507 30568 net.cpp:437] conv2_2_3x3/bn -> conv2_2_3x3/bn
I0520 00:19:33.751518 30568 net.cpp:163] Setting up conv2_2_3x3/bn
I0520 00:19:33.751539 30568 net.cpp:170] Top shape: 3 64 119 119 (2718912)
I0520 00:19:33.751550 30568 layer_factory.hpp:74] Creating layer conv2_2_3x3/relu
I0520 00:19:33.751559 30568 net.cpp:99] Creating Layer conv2_2_3x3/relu
I0520 00:19:33.751565 30568 net.cpp:481] conv2_2_3x3/relu <- conv2_2_3x3/bn
I0520 00:19:33.751574 30568 net.cpp:130] This layer is inheriting previous layer's sync mode: 1
I0520 00:19:33.751579 30568 net.cpp:426] conv2_2_3x3/relu -> conv2_2_3x3/bn (in-place)
I0520 00:19:33.751586 30568 net.cpp:163] Setting up conv2_2_3x3/relu
I0520 00:19:33.752724 30568 net.cpp:170] Top shape: 3 64 119 119 (2718912)
I0520 00:19:33.752746 30568 layer_factory.hpp:74] Creating layer conv2_2_1x1_increase
I0520 00:19:33.752780 30568 net.cpp:99] Creating Layer conv2_2_1x1_increase
I0520 00:19:33.752786 30568 net.cpp:481] conv2_2_1x1_increase <- conv2_2_3x3/bn
I0520 00:19:33.752792 30568 net.cpp:130] This layer is inheriting previous layer's sync mode: 1
I0520 00:19:33.752800 30568 net.cpp:437] conv2_2_1x1_increase -> conv2_2_1x1_increase
I0520 00:19:33.752817 30568 net.cpp:163] Setting up conv2_2_1x1_increase
I0520 00:19:33.985985 30568 net.cpp:170] Top shape: 3 256 119 119 (10875648)
I0520 00:19:33.986018 30568 layer_factory.hpp:74] Creating layer conv2_2_1x1_increase/bn
I0520 00:19:33.986042 30568 net.cpp:99] Creating Layer conv2_2_1x1_increase/bn
I0520 00:19:33.986050 30568 net.cpp:481] conv2_2_1x1_increase/bn <- conv2_2_1x1_increase
I0520 00:19:33.986062 30568 net.cpp:130] This layer is inheriting previous layer's sync mode: 1
I0520 00:19:33.986073 30568 net.cpp:437] conv2_2_1x1_increase/bn -> conv2_2_1x1_increase/bn
I0520 00:19:33.986088 30568 net.cpp:163] Setting up conv2_2_1x1_increase/bn
I0520 00:19:33.986116 30568 net.cpp:170] Top shape: 3 256 119 119 (10875648)
I0520 00:19:33.986135 30568 layer_factory.hpp:74] Creating layer conv2_2
I0520 00:19:33.986147 30568 net.cpp:99] Creating Layer conv2_2
I0520 00:19:33.986153 30568 net.cpp:481] conv2_2 <- conv2_1_conv2_1/relu_0_split_1
I0520 00:19:33.986161 30568 net.cpp:481] conv2_2 <- conv2_2_1x1_increase/bn
I0520 00:19:33.986168 30568 net.cpp:130] This layer is inheriting previous layer's sync mode: 1
I0520 00:19:33.986176 30568 net.cpp:437] conv2_2 -> conv2_2
I0520 00:19:33.986199 30568 net.cpp:163] Setting up conv2_2
I0520 00:19:33.986210 30568 net.cpp:170] Top shape: 3 256 119 119 (10875648)
I0520 00:19:33.986217 30568 layer_factory.hpp:74] Creating layer conv2_2/relu
I0520 00:19:33.986225 30568 net.cpp:99] Creating Layer conv2_2/relu
I0520 00:19:33.986232 30568 net.cpp:481] conv2_2/relu <- conv2_2
I0520 00:19:33.986240 30568 net.cpp:130] This layer is inheriting previous layer's sync mode: 1
I0520 00:19:33.986248 30568 net.cpp:426] conv2_2/relu -> conv2_2 (in-place)
I0520 00:19:33.986256 30568 net.cpp:163] Setting up conv2_2/relu
I0520 00:19:33.986627 30568 net.cpp:170] Top shape: 3 256 119 119 (10875648)
I0520 00:19:33.986646 30568 layer_factory.hpp:74] Creating layer conv2_2_conv2_2/relu_0_split
I0520 00:19:33.986662 30568 net.cpp:99] Creating Layer conv2_2_conv2_2/relu_0_split
I0520 00:19:33.986668 30568 net.cpp:481] conv2_2_conv2_2/relu_0_split <- conv2_2
I0520 00:19:33.986676 30568 net.cpp:130] This layer is inheriting previous layer's sync mode: 1
I0520 00:19:33.986686 30568 net.cpp:437] conv2_2_conv2_2/relu_0_split -> conv2_2_conv2_2/relu_0_split_0
I0520 00:19:33.986701 30568 net.cpp:437] conv2_2_conv2_2/relu_0_split -> conv2_2_conv2_2/relu_0_split_1
I0520 00:19:33.986737 30568 net.cpp:163] Setting up conv2_2_conv2_2/relu_0_split
I0520 00:19:33.986752 30568 net.cpp:170] Top shape: 3 256 119 119 (10875648)
I0520 00:19:33.986758 30568 net.cpp:170] Top shape: 3 256 119 119 (10875648)
I0520 00:19:33.986765 30568 layer_factory.hpp:74] Creating layer conv2_3_1x1_reduce
I0520 00:19:33.986780 30568 net.cpp:99] Creating Layer conv2_3_1x1_reduce
I0520 00:19:33.986786 30568 net.cpp:481] conv2_3_1x1_reduce <- conv2_2_conv2_2/relu_0_split_0
I0520 00:19:33.986822 30568 net.cpp:130] This layer is inheriting previous layer's sync mode: 1
I0520 00:19:33.986835 30568 net.cpp:437] conv2_3_1x1_reduce -> conv2_3_1x1_reduce
I0520 00:19:33.986848 30568 net.cpp:163] Setting up conv2_3_1x1_reduce
I0520 00:19:34.222801 30568 net.cpp:170] Top shape: 3 64 119 119 (2718912)
I0520 00:19:34.222836 30568 layer_factory.hpp:74] Creating layer conv2_3_1x1_reduce/bn
I0520 00:19:34.222853 30568 net.cpp:99] Creating Layer conv2_3_1x1_reduce/bn
I0520 00:19:34.222862 30568 net.cpp:481] conv2_3_1x1_reduce/bn <- conv2_3_1x1_reduce
I0520 00:19:34.222870 30568 net.cpp:130] This layer is inheriting previous layer's sync mode: 1
I0520 00:19:34.222882 30568 net.cpp:437] conv2_3_1x1_reduce/bn -> conv2_3_1x1_reduce/bn
I0520 00:19:34.222898 30568 net.cpp:163] Setting up conv2_3_1x1_reduce/bn
I0520 00:19:34.222923 30568 net.cpp:170] Top shape: 3 64 119 119 (2718912)
I0520 00:19:34.222941 30568 layer_factory.hpp:74] Creating layer conv2_3_1x1_reduce/relu
I0520 00:19:34.222951 30568 net.cpp:99] Creating Layer conv2_3_1x1_reduce/relu
I0520 00:19:34.222957 30568 net.cpp:481] conv2_3_1x1_reduce/relu <- conv2_3_1x1_reduce/bn
I0520 00:19:34.222970 30568 net.cpp:130] This layer is inheriting previous layer's sync mode: 1
I0520 00:19:34.222977 30568 net.cpp:426] conv2_3_1x1_reduce/relu -> conv2_3_1x1_reduce/bn (in-place)
I0520 00:19:34.222987 30568 net.cpp:163] Setting up conv2_3_1x1_reduce/relu
I0520 00:19:34.224350 30568 net.cpp:170] Top shape: 3 64 119 119 (2718912)
I0520 00:19:34.224377 30568 layer_factory.hpp:74] Creating layer conv2_3_3x3
I0520 00:19:34.224395 30568 net.cpp:99] Creating Layer conv2_3_3x3
I0520 00:19:34.224401 30568 net.cpp:481] conv2_3_3x3 <- conv2_3_1x1_reduce/bn
I0520 00:19:34.224409 30568 net.cpp:130] This layer is inheriting previous layer's sync mode: 1
I0520 00:19:34.224419 30568 net.cpp:437] conv2_3_3x3 -> conv2_3_3x3
I0520 00:19:34.224432 30568 net.cpp:163] Setting up conv2_3_3x3
I0520 00:19:34.342119 30568 net.cpp:170] Top shape: 3 64 119 119 (2718912)
I0520 00:19:34.342152 30568 layer_factory.hpp:74] Creating layer conv2_3_3x3/bn
I0520 00:19:34.342169 30568 net.cpp:99] Creating Layer conv2_3_3x3/bn
I0520 00:19:34.342176 30568 net.cpp:481] conv2_3_3x3/bn <- conv2_3_3x3
I0520 00:19:34.342185 30568 net.cpp:130] This layer is inheriting previous layer's sync mode: 1
I0520 00:19:34.342195 30568 net.cpp:437] conv2_3_3x3/bn -> conv2_3_3x3/bn
I0520 00:19:34.342208 30568 net.cpp:163] Setting up conv2_3_3x3/bn
I0520 00:19:34.342237 30568 net.cpp:170] Top shape: 3 64 119 119 (2718912)
I0520 00:19:34.342252 30568 layer_factory.hpp:74] Creating layer conv2_3_3x3/relu
I0520 00:19:34.342260 30568 net.cpp:99] Creating Layer conv2_3_3x3/relu
I0520 00:19:34.342267 30568 net.cpp:481] conv2_3_3x3/relu <- conv2_3_3x3/bn
I0520 00:19:34.342272 30568 net.cpp:130] This layer is inheriting previous layer's sync mode: 1
I0520 00:19:34.342279 30568 net.cpp:426] conv2_3_3x3/relu -> conv2_3_3x3/bn (in-place)
I0520 00:19:34.342288 30568 net.cpp:163] Setting up conv2_3_3x3/relu
I0520 00:19:34.343888 30568 net.cpp:170] Top shape: 3 64 119 119 (2718912)
I0520 00:19:34.343919 30568 layer_factory.hpp:74] Creating layer conv2_3_1x1_increase
I0520 00:19:34.343937 30568 net.cpp:99] Creating Layer conv2_3_1x1_increase
I0520 00:19:34.343945 30568 net.cpp:481] conv2_3_1x1_increase <- conv2_3_3x3/bn
I0520 00:19:34.343953 30568 net.cpp:130] This layer is inheriting previous layer's sync mode: 1
I0520 00:19:34.343964 30568 net.cpp:437] conv2_3_1x1_increase -> conv2_3_1x1_increase
I0520 00:19:34.343979 30568 net.cpp:163] Setting up conv2_3_1x1_increase
I0520 00:19:34.584595 30568 net.cpp:170] Top shape: 3 256 119 119 (10875648)
I0520 00:19:34.584630 30568 layer_factory.hpp:74] Creating layer conv2_3_1x1_increase/bn
I0520 00:19:34.584647 30568 net.cpp:99] Creating Layer conv2_3_1x1_increase/bn
I0520 00:19:34.584656 30568 net.cpp:481] conv2_3_1x1_increase/bn <- conv2_3_1x1_increase
I0520 00:19:34.584666 30568 net.cpp:130] This layer is inheriting previous layer's sync mode: 1
I0520 00:19:34.584703 30568 net.cpp:437] conv2_3_1x1_increase/bn -> conv2_3_1x1_increase/bn
I0520 00:19:34.584720 30568 net.cpp:163] Setting up conv2_3_1x1_increase/bn
I0520 00:19:34.584749 30568 net.cpp:170] Top shape: 3 256 119 119 (10875648)
I0520 00:19:34.584779 30568 layer_factory.hpp:74] Creating layer conv2_3
I0520 00:19:34.584791 30568 net.cpp:99] Creating Layer conv2_3
I0520 00:19:34.584799 30568 net.cpp:481] conv2_3 <- conv2_2_conv2_2/relu_0_split_1
I0520 00:19:34.584807 30568 net.cpp:481] conv2_3 <- conv2_3_1x1_increase/bn
I0520 00:19:34.584815 30568 net.cpp:130] This layer is inheriting previous layer's sync mode: 1
I0520 00:19:34.584823 30568 net.cpp:437] conv2_3 -> conv2_3
I0520 00:19:34.584834 30568 net.cpp:163] Setting up conv2_3
I0520 00:19:34.584844 30568 net.cpp:170] Top shape: 3 256 119 119 (10875648)
I0520 00:19:34.584856 30568 layer_factory.hpp:74] Creating layer conv2_3/relu
I0520 00:19:34.584866 30568 net.cpp:99] Creating Layer conv2_3/relu
I0520 00:19:34.584872 30568 net.cpp:481] conv2_3/relu <- conv2_3
I0520 00:19:34.584878 30568 net.cpp:130] This layer is inheriting previous layer's sync mode: 1
I0520 00:19:34.584885 30568 net.cpp:426] conv2_3/relu -> conv2_3 (in-place)
I0520 00:19:34.584894 30568 net.cpp:163] Setting up conv2_3/relu
I0520 00:19:34.585280 30568 net.cpp:170] Top shape: 3 256 119 119 (10875648)
I0520 00:19:34.585299 30568 layer_factory.hpp:74] Creating layer conv2_3_conv2_3/relu_0_split
I0520 00:19:34.585311 30568 net.cpp:99] Creating Layer conv2_3_conv2_3/relu_0_split
I0520 00:19:34.585319 30568 net.cpp:481] conv2_3_conv2_3/relu_0_split <- conv2_3
I0520 00:19:34.585330 30568 net.cpp:130] This layer is inheriting previous layer's sync mode: 1
I0520 00:19:34.585342 30568 net.cpp:437] conv2_3_conv2_3/relu_0_split -> conv2_3_conv2_3/relu_0_split_0
I0520 00:19:34.585358 30568 net.cpp:437] conv2_3_conv2_3/relu_0_split -> conv2_3_conv2_3/relu_0_split_1
I0520 00:19:34.585369 30568 net.cpp:163] Setting up conv2_3_conv2_3/relu_0_split
I0520 00:19:34.585381 30568 net.cpp:170] Top shape: 3 256 119 119 (10875648)
I0520 00:19:34.585387 30568 net.cpp:170] Top shape: 3 256 119 119 (10875648)
I0520 00:19:34.585394 30568 layer_factory.hpp:74] Creating layer conv3_1_1x1_reduce
I0520 00:19:34.585407 30568 net.cpp:99] Creating Layer conv3_1_1x1_reduce
I0520 00:19:34.585413 30568 net.cpp:481] conv3_1_1x1_reduce <- conv2_3_conv2_3/relu_0_split_0
I0520 00:19:34.585420 30568 net.cpp:130] This layer is inheriting previous layer's sync mode: 1
I0520 00:19:34.585429 30568 net.cpp:437] conv3_1_1x1_reduce -> conv3_1_1x1_reduce
I0520 00:19:34.585440 30568 net.cpp:163] Setting up conv3_1_1x1_reduce
I0520 00:19:35.006420 30568 net.cpp:170] Top shape: 3 128 119 119 (5437824)
I0520 00:19:35.006454 30568 layer_factory.hpp:74] Creating layer conv3_1_1x1_reduce/bn
I0520 00:19:35.006477 30568 net.cpp:99] Creating Layer conv3_1_1x1_reduce/bn
I0520 00:19:35.006485 30568 net.cpp:481] conv3_1_1x1_reduce/bn <- conv3_1_1x1_reduce
I0520 00:19:35.006495 30568 net.cpp:130] This layer is inheriting previous layer's sync mode: 1
I0520 00:19:35.006507 30568 net.cpp:437] conv3_1_1x1_reduce/bn -> conv3_1_1x1_reduce/bn
I0520 00:19:35.006523 30568 net.cpp:163] Setting up conv3_1_1x1_reduce/bn
I0520 00:19:35.006551 30568 net.cpp:170] Top shape: 3 128 119 119 (5437824)
I0520 00:19:35.006569 30568 layer_factory.hpp:74] Creating layer conv3_1_1x1_reduce/relu
I0520 00:19:35.006580 30568 net.cpp:99] Creating Layer conv3_1_1x1_reduce/relu
I0520 00:19:35.006587 30568 net.cpp:481] conv3_1_1x1_reduce/relu <- conv3_1_1x1_reduce/bn
I0520 00:19:35.006593 30568 net.cpp:130] This layer is inheriting previous layer's sync mode: 1
I0520 00:19:35.006600 30568 net.cpp:426] conv3_1_1x1_reduce/relu -> conv3_1_1x1_reduce/bn (in-place)
I0520 00:19:35.006610 30568 net.cpp:163] Setting up conv3_1_1x1_reduce/relu
I0520 00:19:35.008047 30568 net.cpp:170] Top shape: 3 128 119 119 (5437824)
I0520 00:19:35.008072 30568 layer_factory.hpp:74] Creating layer conv3_1_3x3
I0520 00:19:35.008090 30568 net.cpp:99] Creating Layer conv3_1_3x3
I0520 00:19:35.008119 30568 net.cpp:481] conv3_1_3x3 <- conv3_1_1x1_reduce/bn
I0520 00:19:35.008132 30568 net.cpp:130] This layer is inheriting previous layer's sync mode: 1
I0520 00:19:35.008143 30568 net.cpp:437] conv3_1_3x3 -> conv3_1_3x3
I0520 00:19:35.008157 30568 net.cpp:163] Setting up conv3_1_3x3
I0520 00:19:35.046368 30568 net.cpp:170] Top shape: 3 128 60 60 (1382400)
I0520 00:19:35.046406 30568 layer_factory.hpp:74] Creating layer conv3_1_3x3/bn
I0520 00:19:35.046422 30568 net.cpp:99] Creating Layer conv3_1_3x3/bn
I0520 00:19:35.046429 30568 net.cpp:481] conv3_1_3x3/bn <- conv3_1_3x3
I0520 00:19:35.046438 30568 net.cpp:130] This layer is inheriting previous layer's sync mode: 1
I0520 00:19:35.046448 30568 net.cpp:437] conv3_1_3x3/bn -> conv3_1_3x3/bn
I0520 00:19:35.046463 30568 net.cpp:163] Setting up conv3_1_3x3/bn
I0520 00:19:35.046488 30568 net.cpp:170] Top shape: 3 128 60 60 (1382400)
I0520 00:19:35.046506 30568 layer_factory.hpp:74] Creating layer conv3_1_3x3/relu
I0520 00:19:35.046517 30568 net.cpp:99] Creating Layer conv3_1_3x3/relu
I0520 00:19:35.046522 30568 net.cpp:481] conv3_1_3x3/relu <- conv3_1_3x3/bn
I0520 00:19:35.046531 30568 net.cpp:130] This layer is inheriting previous layer's sync mode: 1
I0520 00:19:35.046538 30568 net.cpp:426] conv3_1_3x3/relu -> conv3_1_3x3/bn (in-place)
I0520 00:19:35.046547 30568 net.cpp:163] Setting up conv3_1_3x3/relu
I0520 00:19:35.049700 30568 net.cpp:170] Top shape: 3 128 60 60 (1382400)
I0520 00:19:35.049731 30568 layer_factory.hpp:74] Creating layer conv3_1_1x1_increase
I0520 00:19:35.049751 30568 net.cpp:99] Creating Layer conv3_1_1x1_increase
I0520 00:19:35.049758 30568 net.cpp:481] conv3_1_1x1_increase <- conv3_1_3x3/bn
I0520 00:19:35.049767 30568 net.cpp:130] This layer is inheriting previous layer's sync mode: 1
I0520 00:19:35.049779 30568 net.cpp:437] conv3_1_1x1_increase -> conv3_1_1x1_increase
I0520 00:19:35.049794 30568 net.cpp:163] Setting up conv3_1_1x1_increase
I0520 00:19:35.183944 30568 net.cpp:170] Top shape: 3 512 60 60 (5529600)
I0520 00:19:35.183984 30568 layer_factory.hpp:74] Creating layer conv3_1_1x1_increase/bn
I0520 00:19:35.184005 30568 net.cpp:99] Creating Layer conv3_1_1x1_increase/bn
I0520 00:19:35.184013 30568 net.cpp:481] conv3_1_1x1_increase/bn <- conv3_1_1x1_increase
I0520 00:19:35.184026 30568 net.cpp:130] This layer is inheriting previous layer's sync mode: 1
I0520 00:19:35.184036 30568 net.cpp:437] conv3_1_1x1_increase/bn -> conv3_1_1x1_increase/bn
I0520 00:19:35.184052 30568 net.cpp:163] Setting up conv3_1_1x1_increase/bn
I0520 00:19:35.184082 30568 net.cpp:170] Top shape: 3 512 60 60 (5529600)
I0520 00:19:35.184101 30568 layer_factory.hpp:74] Creating layer conv3_1_1x1_proj
I0520 00:19:35.184123 30568 net.cpp:99] Creating Layer conv3_1_1x1_proj
I0520 00:19:35.184130 30568 net.cpp:481] conv3_1_1x1_proj <- conv2_3_conv2_3/relu_0_split_1
I0520 00:19:35.184137 30568 net.cpp:130] This layer is inheriting previous layer's sync mode: 1
I0520 00:19:35.184145 30568 net.cpp:437] conv3_1_1x1_proj -> conv3_1_1x1_proj
I0520 00:19:35.184160 30568 net.cpp:163] Setting up conv3_1_1x1_proj
I0520 00:19:35.214278 30568 net.cpp:170] Top shape: 3 512 60 60 (5529600)
I0520 00:19:35.214311 30568 layer_factory.hpp:74] Creating layer conv3_1_1x1_proj/bn
I0520 00:19:35.214339 30568 net.cpp:99] Creating Layer conv3_1_1x1_proj/bn
I0520 00:19:35.214346 30568 net.cpp:481] conv3_1_1x1_proj/bn <- conv3_1_1x1_proj
I0520 00:19:35.214355 30568 net.cpp:130] This layer is inheriting previous layer's sync mode: 1
I0520 00:19:35.214365 30568 net.cpp:437] conv3_1_1x1_proj/bn -> conv3_1_1x1_proj/bn
I0520 00:19:35.214380 30568 net.cpp:163] Setting up conv3_1_1x1_proj/bn
I0520 00:19:35.214416 30568 net.cpp:170] Top shape: 3 512 60 60 (5529600)
I0520 00:19:35.214433 30568 layer_factory.hpp:74] Creating layer conv3_1
I0520 00:19:35.214447 30568 net.cpp:99] Creating Layer conv3_1
I0520 00:19:35.214453 30568 net.cpp:481] conv3_1 <- conv3_1_1x1_proj/bn
I0520 00:19:35.214462 30568 net.cpp:481] conv3_1 <- conv3_1_1x1_increase/bn
I0520 00:19:35.214468 30568 net.cpp:130] This layer is inheriting previous layer's sync mode: 1
I0520 00:19:35.214509 30568 net.cpp:437] conv3_1 -> conv3_1
I0520 00:19:35.214520 30568 net.cpp:163] Setting up conv3_1
I0520 00:19:35.214530 30568 net.cpp:170] Top shape: 3 512 60 60 (5529600)
I0520 00:19:35.214540 30568 layer_factory.hpp:74] Creating layer conv3_1/relu
I0520 00:19:35.214550 30568 net.cpp:99] Creating Layer conv3_1/relu
I0520 00:19:35.214555 30568 net.cpp:481] conv3_1/relu <- conv3_1
I0520 00:19:35.214561 30568 net.cpp:130] This layer is inheriting previous layer's sync mode: 1
I0520 00:19:35.214571 30568 net.cpp:426] conv3_1/relu -> conv3_1 (in-place)
I0520 00:19:35.214579 30568 net.cpp:163] Setting up conv3_1/relu
I0520 00:19:35.215004 30568 net.cpp:170] Top shape: 3 512 60 60 (5529600)
I0520 00:19:35.215026 30568 layer_factory.hpp:74] Creating layer conv3_1_conv3_1/relu_0_split
I0520 00:19:35.215039 30568 net.cpp:99] Creating Layer conv3_1_conv3_1/relu_0_split
I0520 00:19:35.215044 30568 net.cpp:481] conv3_1_conv3_1/relu_0_split <- conv3_1
I0520 00:19:35.215054 30568 net.cpp:130] This layer is inheriting previous layer's sync mode: 1
I0520 00:19:35.215064 30568 net.cpp:437] conv3_1_conv3_1/relu_0_split -> conv3_1_conv3_1/relu_0_split_0
I0520 00:19:35.215076 30568 net.cpp:437] conv3_1_conv3_1/relu_0_split -> conv3_1_conv3_1/relu_0_split_1
I0520 00:19:35.215090 30568 net.cpp:163] Setting up conv3_1_conv3_1/relu_0_split
I0520 00:19:35.215100 30568 net.cpp:170] Top shape: 3 512 60 60 (5529600)
I0520 00:19:35.215106 30568 net.cpp:170] Top shape: 3 512 60 60 (5529600)
I0520 00:19:35.215112 30568 layer_factory.hpp:74] Creating layer conv3_2_1x1_reduce
I0520 00:19:35.215124 30568 net.cpp:99] Creating Layer conv3_2_1x1_reduce
I0520 00:19:35.215129 30568 net.cpp:481] conv3_2_1x1_reduce <- conv3_1_conv3_1/relu_0_split_0
I0520 00:19:35.215148 30568 net.cpp:130] This layer is inheriting previous layer's sync mode: 1
I0520 00:19:35.215160 30568 net.cpp:437] conv3_2_1x1_reduce -> conv3_2_1x1_reduce
I0520 00:19:35.215169 30568 net.cpp:163] Setting up conv3_2_1x1_reduce
I0520 00:19:35.361457 30568 net.cpp:170] Top shape: 3 128 60 60 (1382400)
I0520 00:19:35.361495 30568 layer_factory.hpp:74] Creating layer conv3_2_1x1_reduce/bn
I0520 00:19:35.361515 30568 net.cpp:99] Creating Layer conv3_2_1x1_reduce/bn
I0520 00:19:35.361522 30568 net.cpp:481] conv3_2_1x1_reduce/bn <- conv3_2_1x1_reduce
I0520 00:19:35.361531 30568 net.cpp:130] This layer is inheriting previous layer's sync mode: 1
I0520 00:19:35.361542 30568 net.cpp:437] conv3_2_1x1_reduce/bn -> conv3_2_1x1_reduce/bn
I0520 00:19:35.361557 30568 net.cpp:163] Setting up conv3_2_1x1_reduce/bn
I0520 00:19:35.361584 30568 net.cpp:170] Top shape: 3 128 60 60 (1382400)
I0520 00:19:35.361603 30568 layer_factory.hpp:74] Creating layer conv3_2_1x1_reduce/relu
I0520 00:19:35.361618 30568 net.cpp:99] Creating Layer conv3_2_1x1_reduce/relu
I0520 00:19:35.361624 30568 net.cpp:481] conv3_2_1x1_reduce/relu <- conv3_2_1x1_reduce/bn
I0520 00:19:35.361631 30568 net.cpp:130] This layer is inheriting previous layer's sync mode: 1
I0520 00:19:35.361639 30568 net.cpp:426] conv3_2_1x1_reduce/relu -> conv3_2_1x1_reduce/bn (in-place)
I0520 00:19:35.361649 30568 net.cpp:163] Setting up conv3_2_1x1_reduce/relu
I0520 00:19:35.362067 30568 net.cpp:170] Top shape: 3 128 60 60 (1382400)
I0520 00:19:35.362087 30568 layer_factory.hpp:74] Creating layer conv3_2_3x3
I0520 00:19:35.362133 30568 net.cpp:99] Creating Layer conv3_2_3x3
I0520 00:19:35.362141 30568 net.cpp:481] conv3_2_3x3 <- conv3_2_1x1_reduce/bn
I0520 00:19:35.362149 30568 net.cpp:130] This layer is inheriting previous layer's sync mode: 1
I0520 00:19:35.362159 30568 net.cpp:437] conv3_2_3x3 -> conv3_2_3x3
I0520 00:19:35.362172 30568 net.cpp:163] Setting up conv3_2_3x3
I0520 00:19:35.452940 30568 net.cpp:170] Top shape: 3 128 60 60 (1382400)
I0520 00:19:35.452973 30568 layer_factory.hpp:74] Creating layer conv3_2_3x3/bn
I0520 00:19:35.452991 30568 net.cpp:99] Creating Layer conv3_2_3x3/bn
I0520 00:19:35.452999 30568 net.cpp:481] conv3_2_3x3/bn <- conv3_2_3x3
I0520 00:19:35.453006 30568 net.cpp:130] This layer is inheriting previous layer's sync mode: 1
I0520 00:19:35.453058 30568 net.cpp:437] conv3_2_3x3/bn -> conv3_2_3x3/bn
I0520 00:19:35.453073 30568 net.cpp:163] Setting up conv3_2_3x3/bn
I0520 00:19:35.453100 30568 net.cpp:170] Top shape: 3 128 60 60 (1382400)
I0520 00:19:35.453117 30568 layer_factory.hpp:74] Creating layer conv3_2_3x3/relu
I0520 00:19:35.453127 30568 net.cpp:99] Creating Layer conv3_2_3x3/relu
I0520 00:19:35.453132 30568 net.cpp:481] conv3_2_3x3/relu <- conv3_2_3x3/bn
I0520 00:19:35.453140 30568 net.cpp:130] This layer is inheriting previous layer's sync mode: 1
I0520 00:19:35.453145 30568 net.cpp:426] conv3_2_3x3/relu -> conv3_2_3x3/bn (in-place)
I0520 00:19:35.453153 30568 net.cpp:163] Setting up conv3_2_3x3/relu
I0520 00:19:35.454469 30568 net.cpp:170] Top shape: 3 128 60 60 (1382400)
I0520 00:19:35.454494 30568 layer_factory.hpp:74] Creating layer conv3_2_1x1_increase
I0520 00:19:35.454512 30568 net.cpp:99] Creating Layer conv3_2_1x1_increase
I0520 00:19:35.454519 30568 net.cpp:481] conv3_2_1x1_increase <- conv3_2_3x3/bn
I0520 00:19:35.454527 30568 net.cpp:130] This layer is inheriting previous layer's sync mode: 1
I0520 00:19:35.454535 30568 net.cpp:437] conv3_2_1x1_increase -> conv3_2_1x1_increase
I0520 00:19:35.454550 30568 net.cpp:163] Setting up conv3_2_1x1_increase
I0520 00:19:35.604236 30568 net.cpp:170] Top shape: 3 512 60 60 (5529600)
I0520 00:19:35.604269 30568 layer_factory.hpp:74] Creating layer conv3_2_1x1_increase/bn
I0520 00:19:35.604290 30568 net.cpp:99] Creating Layer conv3_2_1x1_increase/bn
I0520 00:19:35.604297 30568 net.cpp:481] conv3_2_1x1_increase/bn <- conv3_2_1x1_increase
I0520 00:19:35.604306 30568 net.cpp:130] This layer is inheriting previous layer's sync mode: 1
I0520 00:19:35.604317 30568 net.cpp:437] conv3_2_1x1_increase/bn -> conv3_2_1x1_increase/bn
I0520 00:19:35.604332 30568 net.cpp:163] Setting up conv3_2_1x1_increase/bn
I0520 00:19:35.604365 30568 net.cpp:170] Top shape: 3 512 60 60 (5529600)
I0520 00:19:35.604383 30568 layer_factory.hpp:74] Creating layer conv3_2
I0520 00:19:35.604393 30568 net.cpp:99] Creating Layer conv3_2
I0520 00:19:35.604399 30568 net.cpp:481] conv3_2 <- conv3_1_conv3_1/relu_0_split_1
I0520 00:19:35.604409 30568 net.cpp:481] conv3_2 <- conv3_2_1x1_increase/bn
I0520 00:19:35.604415 30568 net.cpp:130] This layer is inheriting previous layer's sync mode: 1
I0520 00:19:35.604423 30568 net.cpp:437] conv3_2 -> conv3_2
I0520 00:19:35.604437 30568 net.cpp:163] Setting up conv3_2
I0520 00:19:35.604447 30568 net.cpp:170] Top shape: 3 512 60 60 (5529600)
I0520 00:19:35.604452 30568 layer_factory.hpp:74] Creating layer conv3_2/relu
I0520 00:19:35.604461 30568 net.cpp:99] Creating Layer conv3_2/relu
I0520 00:19:35.604466 30568 net.cpp:481] conv3_2/relu <- conv3_2
I0520 00:19:35.604472 30568 net.cpp:130] This layer is inheriting previous layer's sync mode: 1
I0520 00:19:35.604478 30568 net.cpp:426] conv3_2/relu -> conv3_2 (in-place)
I0520 00:19:35.604486 30568 net.cpp:163] Setting up conv3_2/relu
I0520 00:19:35.604887 30568 net.cpp:170] Top shape: 3 512 60 60 (5529600)
I0520 00:19:35.604907 30568 layer_factory.hpp:74] Creating layer conv3_2_conv3_2/relu_0_split
I0520 00:19:35.604918 30568 net.cpp:99] Creating Layer conv3_2_conv3_2/relu_0_split
I0520 00:19:35.604924 30568 net.cpp:481] conv3_2_conv3_2/relu_0_split <- conv3_2
I0520 00:19:35.604933 30568 net.cpp:130] This layer is inheriting previous layer's sync mode: 1
I0520 00:19:35.604945 30568 net.cpp:437] conv3_2_conv3_2/relu_0_split -> conv3_2_conv3_2/relu_0_split_0
I0520 00:19:35.604959 30568 net.cpp:437] conv3_2_conv3_2/relu_0_split -> conv3_2_conv3_2/relu_0_split_1
I0520 00:19:35.604969 30568 net.cpp:163] Setting up conv3_2_conv3_2/relu_0_split
I0520 00:19:35.604979 30568 net.cpp:170] Top shape: 3 512 60 60 (5529600)
I0520 00:19:35.604986 30568 net.cpp:170] Top shape: 3 512 60 60 (5529600)
I0520 00:19:35.604993 30568 layer_factory.hpp:74] Creating layer conv3_3_1x1_reduce
I0520 00:19:35.605010 30568 net.cpp:99] Creating Layer conv3_3_1x1_reduce
I0520 00:19:35.605015 30568 net.cpp:481] conv3_3_1x1_reduce <- conv3_2_conv3_2/relu_0_split_0
I0520 00:19:35.605048 30568 net.cpp:130] This layer is inheriting previous layer's sync mode: 1
I0520 00:19:35.605059 30568 net.cpp:437] conv3_3_1x1_reduce -> conv3_3_1x1_reduce
I0520 00:19:35.605103 30568 net.cpp:163] Setting up conv3_3_1x1_reduce
I0520 00:19:35.748731 30568 net.cpp:170] Top shape: 3 128 60 60 (1382400)
I0520 00:19:35.748764 30568 layer_factory.hpp:74] Creating layer conv3_3_1x1_reduce/bn
I0520 00:19:35.748780 30568 net.cpp:99] Creating Layer conv3_3_1x1_reduce/bn
I0520 00:19:35.748786 30568 net.cpp:481] conv3_3_1x1_reduce/bn <- conv3_3_1x1_reduce
I0520 00:19:35.748795 30568 net.cpp:130] This layer is inheriting previous layer's sync mode: 1
I0520 00:19:35.748805 30568 net.cpp:437] conv3_3_1x1_reduce/bn -> conv3_3_1x1_reduce/bn
I0520 00:19:35.748818 30568 net.cpp:163] Setting up conv3_3_1x1_reduce/bn
I0520 00:19:35.748847 30568 net.cpp:170] Top shape: 3 128 60 60 (1382400)
I0520 00:19:35.748862 30568 layer_factory.hpp:74] Creating layer conv3_3_1x1_reduce/relu
I0520 00:19:35.748872 30568 net.cpp:99] Creating Layer conv3_3_1x1_reduce/relu
I0520 00:19:35.748879 30568 net.cpp:481] conv3_3_1x1_reduce/relu <- conv3_3_1x1_reduce/bn
I0520 00:19:35.748890 30568 net.cpp:130] This layer is inheriting previous layer's sync mode: 1
I0520 00:19:35.748901 30568 net.cpp:426] conv3_3_1x1_reduce/relu -> conv3_3_1x1_reduce/bn (in-place)
I0520 00:19:35.748916 30568 net.cpp:163] Setting up conv3_3_1x1_reduce/relu
I0520 00:19:35.749295 30568 net.cpp:170] Top shape: 3 128 60 60 (1382400)
I0520 00:19:35.749320 30568 layer_factory.hpp:74] Creating layer conv3_3_3x3
I0520 00:19:35.749341 30568 net.cpp:99] Creating Layer conv3_3_3x3
I0520 00:19:35.749348 30568 net.cpp:481] conv3_3_3x3 <- conv3_3_1x1_reduce/bn
I0520 00:19:35.749356 30568 net.cpp:130] This layer is inheriting previous layer's sync mode: 1
I0520 00:19:35.749363 30568 net.cpp:437] conv3_3_3x3 -> conv3_3_3x3
I0520 00:19:35.749375 30568 net.cpp:163] Setting up conv3_3_3x3
I0520 00:19:35.841684 30568 net.cpp:170] Top shape: 3 128 60 60 (1382400)
I0520 00:19:35.841717 30568 layer_factory.hpp:74] Creating layer conv3_3_3x3/bn
I0520 00:19:35.841734 30568 net.cpp:99] Creating Layer conv3_3_3x3/bn
I0520 00:19:35.841742 30568 net.cpp:481] conv3_3_3x3/bn <- conv3_3_3x3
I0520 00:19:35.841750 30568 net.cpp:130] This layer is inheriting previous layer's sync mode: 1
I0520 00:19:35.841763 30568 net.cpp:437] conv3_3_3x3/bn -> conv3_3_3x3/bn
I0520 00:19:35.841776 30568 net.cpp:163] Setting up conv3_3_3x3/bn
I0520 00:19:35.841804 30568 net.cpp:170] Top shape: 3 128 60 60 (1382400)
I0520 00:19:35.841822 30568 layer_factory.hpp:74] Creating layer conv3_3_3x3/relu
I0520 00:19:35.841838 30568 net.cpp:99] Creating Layer conv3_3_3x3/relu
I0520 00:19:35.841850 30568 net.cpp:481] conv3_3_3x3/relu <- conv3_3_3x3/bn
I0520 00:19:35.841863 30568 net.cpp:130] This layer is inheriting previous layer's sync mode: 1
I0520 00:19:35.841876 30568 net.cpp:426] conv3_3_3x3/relu -> conv3_3_3x3/bn (in-place)
I0520 00:19:35.841892 30568 net.cpp:163] Setting up conv3_3_3x3/relu
I0520 00:19:35.843407 30568 net.cpp:170] Top shape: 3 128 60 60 (1382400)
I0520 00:19:35.843439 30568 layer_factory.hpp:74] Creating layer conv3_3_1x1_increase
I0520 00:19:35.843461 30568 net.cpp:99] Creating Layer conv3_3_1x1_increase
I0520 00:19:35.843469 30568 net.cpp:481] conv3_3_1x1_increase <- conv3_3_3x3/bn
I0520 00:19:35.843477 30568 net.cpp:130] This layer is inheriting previous layer's sync mode: 1
I0520 00:19:35.843487 30568 net.cpp:437] conv3_3_1x1_increase -> conv3_3_1x1_increase
I0520 00:19:35.843500 30568 net.cpp:163] Setting up conv3_3_1x1_increase
I0520 00:19:35.996636 30568 net.cpp:170] Top shape: 3 512 60 60 (5529600)
I0520 00:19:35.996670 30568 layer_factory.hpp:74] Creating layer conv3_3_1x1_increase/bn
I0520 00:19:35.996687 30568 net.cpp:99] Creating Layer conv3_3_1x1_increase/bn
I0520 00:19:35.996695 30568 net.cpp:481] conv3_3_1x1_increase/bn <- conv3_3_1x1_increase
I0520 00:19:35.996706 30568 net.cpp:130] This layer is inheriting previous layer's sync mode: 1
I0520 00:19:35.996748 30568 net.cpp:437] conv3_3_1x1_increase/bn -> conv3_3_1x1_increase/bn
I0520 00:19:35.996765 30568 net.cpp:163] Setting up conv3_3_1x1_increase/bn
I0520 00:19:35.996801 30568 net.cpp:170] Top shape: 3 512 60 60 (5529600)
I0520 00:19:35.996827 30568 layer_factory.hpp:74] Creating layer conv3_3
I0520 00:19:35.996840 30568 net.cpp:99] Creating Layer conv3_3
I0520 00:19:35.996846 30568 net.cpp:481] conv3_3 <- conv3_2_conv3_2/relu_0_split_1
I0520 00:19:35.996855 30568 net.cpp:481] conv3_3 <- conv3_3_1x1_increase/bn
I0520 00:19:35.996865 30568 net.cpp:130] This layer is inheriting previous layer's sync mode: 1
I0520 00:19:35.996877 30568 net.cpp:437] conv3_3 -> conv3_3
I0520 00:19:35.996892 30568 net.cpp:163] Setting up conv3_3
I0520 00:19:35.996903 30568 net.cpp:170] Top shape: 3 512 60 60 (5529600)
I0520 00:19:35.996909 30568 layer_factory.hpp:74] Creating layer conv3_3/relu
I0520 00:19:35.996920 30568 net.cpp:99] Creating Layer conv3_3/relu
I0520 00:19:35.996925 30568 net.cpp:481] conv3_3/relu <- conv3_3
I0520 00:19:35.996932 30568 net.cpp:130] This layer is inheriting previous layer's sync mode: 1
I0520 00:19:35.996937 30568 net.cpp:426] conv3_3/relu -> conv3_3 (in-place)
I0520 00:19:35.996945 30568 net.cpp:163] Setting up conv3_3/relu
I0520 00:19:35.997355 30568 net.cpp:170] Top shape: 3 512 60 60 (5529600)
I0520 00:19:35.997373 30568 layer_factory.hpp:74] Creating layer conv3_3_conv3_3/relu_0_split
I0520 00:19:35.997385 30568 net.cpp:99] Creating Layer conv3_3_conv3_3/relu_0_split
I0520 00:19:35.997391 30568 net.cpp:481] conv3_3_conv3_3/relu_0_split <- conv3_3
I0520 00:19:35.997398 30568 net.cpp:130] This layer is inheriting previous layer's sync mode: 1
I0520 00:19:35.997406 30568 net.cpp:437] conv3_3_conv3_3/relu_0_split -> conv3_3_conv3_3/relu_0_split_0
I0520 00:19:35.997422 30568 net.cpp:437] conv3_3_conv3_3/relu_0_split -> conv3_3_conv3_3/relu_0_split_1
I0520 00:19:35.997432 30568 net.cpp:163] Setting up conv3_3_conv3_3/relu_0_split
I0520 00:19:35.997444 30568 net.cpp:170] Top shape: 3 512 60 60 (5529600)
I0520 00:19:35.997452 30568 net.cpp:170] Top shape: 3 512 60 60 (5529600)
I0520 00:19:35.997457 30568 layer_factory.hpp:74] Creating layer conv3_4_1x1_reduce
I0520 00:19:35.997472 30568 net.cpp:99] Creating Layer conv3_4_1x1_reduce
I0520 00:19:35.997478 30568 net.cpp:481] conv3_4_1x1_reduce <- conv3_3_conv3_3/relu_0_split_0
I0520 00:19:35.997484 30568 net.cpp:130] This layer is inheriting previous layer's sync mode: 1
I0520 00:19:35.997491 30568 net.cpp:437] conv3_4_1x1_reduce -> conv3_4_1x1_reduce
I0520 00:19:35.997508 30568 net.cpp:163] Setting up conv3_4_1x1_reduce
I0520 00:19:36.147860 30568 net.cpp:170] Top shape: 3 128 60 60 (1382400)
I0520 00:19:36.147893 30568 layer_factory.hpp:74] Creating layer conv3_4_1x1_reduce/bn
I0520 00:19:36.147912 30568 net.cpp:99] Creating Layer conv3_4_1x1_reduce/bn
I0520 00:19:36.147918 30568 net.cpp:481] conv3_4_1x1_reduce/bn <- conv3_4_1x1_reduce
I0520 00:19:36.147927 30568 net.cpp:130] This layer is inheriting previous layer's sync mode: 1
I0520 00:19:36.147938 30568 net.cpp:437] conv3_4_1x1_reduce/bn -> conv3_4_1x1_reduce/bn
I0520 00:19:36.147953 30568 net.cpp:163] Setting up conv3_4_1x1_reduce/bn
I0520 00:19:36.147979 30568 net.cpp:170] Top shape: 3 128 60 60 (1382400)
I0520 00:19:36.148012 30568 layer_factory.hpp:74] Creating layer conv3_4_1x1_reduce/relu
I0520 00:19:36.148025 30568 net.cpp:99] Creating Layer conv3_4_1x1_reduce/relu
I0520 00:19:36.148035 30568 net.cpp:481] conv3_4_1x1_reduce/relu <- conv3_4_1x1_reduce/bn
I0520 00:19:36.148044 30568 net.cpp:130] This layer is inheriting previous layer's sync mode: 1
I0520 00:19:36.148058 30568 net.cpp:426] conv3_4_1x1_reduce/relu -> conv3_4_1x1_reduce/bn (in-place)
I0520 00:19:36.148072 30568 net.cpp:163] Setting up conv3_4_1x1_reduce/relu
I0520 00:19:36.148494 30568 net.cpp:170] Top shape: 3 128 60 60 (1382400)
I0520 00:19:36.148514 30568 layer_factory.hpp:74] Creating layer conv3_4_3x3
I0520 00:19:36.148530 30568 net.cpp:99] Creating Layer conv3_4_3x3
I0520 00:19:36.148537 30568 net.cpp:481] conv3_4_3x3 <- conv3_4_1x1_reduce/bn
I0520 00:19:36.148568 30568 net.cpp:130] This layer is inheriting previous layer's sync mode: 1
I0520 00:19:36.148578 30568 net.cpp:437] conv3_4_3x3 -> conv3_4_3x3
I0520 00:19:36.148594 30568 net.cpp:163] Setting up conv3_4_3x3
I0520 00:19:36.249542 30568 net.cpp:170] Top shape: 3 128 60 60 (1382400)
I0520 00:19:36.249577 30568 layer_factory.hpp:74] Creating layer conv3_4_3x3/bn
I0520 00:19:36.249595 30568 net.cpp:99] Creating Layer conv3_4_3x3/bn
I0520 00:19:36.249603 30568 net.cpp:481] conv3_4_3x3/bn <- conv3_4_3x3
I0520 00:19:36.249613 30568 net.cpp:130] This layer is inheriting previous layer's sync mode: 1
I0520 00:19:36.249622 30568 net.cpp:437] conv3_4_3x3/bn -> conv3_4_3x3/bn
I0520 00:19:36.249636 30568 net.cpp:163] Setting up conv3_4_3x3/bn
I0520 00:19:36.249665 30568 net.cpp:170] Top shape: 3 128 60 60 (1382400)
I0520 00:19:36.249686 30568 layer_factory.hpp:74] Creating layer conv3_4_3x3/relu
I0520 00:19:36.249701 30568 net.cpp:99] Creating Layer conv3_4_3x3/relu
I0520 00:19:36.249712 30568 net.cpp:481] conv3_4_3x3/relu <- conv3_4_3x3/bn
I0520 00:19:36.249723 30568 net.cpp:130] This layer is inheriting previous layer's sync mode: 1
I0520 00:19:36.249735 30568 net.cpp:426] conv3_4_3x3/relu -> conv3_4_3x3/bn (in-place)
I0520 00:19:36.249749 30568 net.cpp:163] Setting up conv3_4_3x3/relu
I0520 00:19:36.251217 30568 net.cpp:170] Top shape: 3 128 60 60 (1382400)
I0520 00:19:36.251243 30568 layer_factory.hpp:74] Creating layer conv3_4_1x1_increase
I0520 00:19:36.251262 30568 net.cpp:99] Creating Layer conv3_4_1x1_increase
I0520 00:19:36.251271 30568 net.cpp:481] conv3_4_1x1_increase <- conv3_4_3x3/bn
I0520 00:19:36.251279 30568 net.cpp:130] This layer is inheriting previous layer's sync mode: 1
I0520 00:19:36.251291 30568 net.cpp:437] conv3_4_1x1_increase -> conv3_4_1x1_increase
I0520 00:19:36.251304 30568 net.cpp:163] Setting up conv3_4_1x1_increase
I0520 00:19:36.400218 30568 net.cpp:170] Top shape: 3 512 60 60 (5529600)
I0520 00:19:36.400254 30568 layer_factory.hpp:74] Creating layer conv3_4_1x1_increase/bn
I0520 00:19:36.400272 30568 net.cpp:99] Creating Layer conv3_4_1x1_increase/bn
I0520 00:19:36.400280 30568 net.cpp:481] conv3_4_1x1_increase/bn <- conv3_4_1x1_increase
I0520 00:19:36.400290 30568 net.cpp:130] This layer is inheriting previous layer's sync mode: 1
I0520 00:19:36.400301 30568 net.cpp:437] conv3_4_1x1_increase/bn -> conv3_4_1x1_increase/bn
I0520 00:19:36.400317 30568 net.cpp:163] Setting up conv3_4_1x1_increase/bn
I0520 00:19:36.400357 30568 net.cpp:170] Top shape: 3 512 60 60 (5529600)
I0520 00:19:36.400423 30568 layer_factory.hpp:74] Creating layer conv3_4
I0520 00:19:36.400440 30568 net.cpp:99] Creating Layer conv3_4
I0520 00:19:36.400447 30568 net.cpp:481] conv3_4 <- conv3_3_conv3_3/relu_0_split_1
I0520 00:19:36.400457 30568 net.cpp:481] conv3_4 <- conv3_4_1x1_increase/bn
I0520 00:19:36.400465 30568 net.cpp:130] This layer is inheriting previous layer's sync mode: 1
I0520 00:19:36.400483 30568 net.cpp:437] conv3_4 -> conv3_4
I0520 00:19:36.400496 30568 net.cpp:163] Setting up conv3_4
I0520 00:19:36.400507 30568 net.cpp:170] Top shape: 3 512 60 60 (5529600)
I0520 00:19:36.400513 30568 layer_factory.hpp:74] Creating layer conv3_4/relu
I0520 00:19:36.400523 30568 net.cpp:99] Creating Layer conv3_4/relu
I0520 00:19:36.400529 30568 net.cpp:481] conv3_4/relu <- conv3_4
I0520 00:19:36.400537 30568 net.cpp:130] This layer is inheriting previous layer's sync mode: 1
I0520 00:19:36.400547 30568 net.cpp:426] conv3_4/relu -> conv3_4 (in-place)
I0520 00:19:36.400557 30568 net.cpp:163] Setting up conv3_4/relu
I0520 00:19:36.401005 30568 net.cpp:170] Top shape: 3 512 60 60 (5529600)
I0520 00:19:36.401029 30568 layer_factory.hpp:74] Creating layer conv3_4_conv3_4/relu_0_split
I0520 00:19:36.401041 30568 net.cpp:99] Creating Layer conv3_4_conv3_4/relu_0_split
I0520 00:19:36.401048 30568 net.cpp:481] conv3_4_conv3_4/relu_0_split <- conv3_4
I0520 00:19:36.401059 30568 net.cpp:130] This layer is inheriting previous layer's sync mode: 1
I0520 00:19:36.401072 30568 net.cpp:437] conv3_4_conv3_4/relu_0_split -> conv3_4_conv3_4/relu_0_split_0
I0520 00:19:36.401114 30568 net.cpp:437] conv3_4_conv3_4/relu_0_split -> conv3_4_conv3_4/relu_0_split_1
I0520 00:19:36.401126 30568 net.cpp:163] Setting up conv3_4_conv3_4/relu_0_split
I0520 00:19:36.401139 30568 net.cpp:170] Top shape: 3 512 60 60 (5529600)
I0520 00:19:36.401146 30568 net.cpp:170] Top shape: 3 512 60 60 (5529600)
I0520 00:19:36.401155 30568 layer_factory.hpp:74] Creating layer conv4_1_1x1_reduce
I0520 00:19:36.401171 30568 net.cpp:99] Creating Layer conv4_1_1x1_reduce
I0520 00:19:36.401182 30568 net.cpp:481] conv4_1_1x1_reduce <- conv3_4_conv3_4/relu_0_split_0
I0520 00:19:36.401190 30568 net.cpp:130] This layer is inheriting previous layer's sync mode: 1
I0520 00:19:36.401201 30568 net.cpp:437] conv4_1_1x1_reduce -> conv4_1_1x1_reduce
I0520 00:19:36.401213 30568 net.cpp:163] Setting up conv4_1_1x1_reduce
I0520 00:19:36.668292 30568 net.cpp:170] Top shape: 3 256 60 60 (2764800)
I0520 00:19:36.668344 30568 layer_factory.hpp:74] Creating layer conv4_1_1x1_reduce/bn
I0520 00:19:36.668371 30568 net.cpp:99] Creating Layer conv4_1_1x1_reduce/bn
I0520 00:19:36.668385 30568 net.cpp:481] conv4_1_1x1_reduce/bn <- conv4_1_1x1_reduce
I0520 00:19:36.668401 30568 net.cpp:130] This layer is inheriting previous layer's sync mode: 1
I0520 00:19:36.668411 30568 net.cpp:437] conv4_1_1x1_reduce/bn -> conv4_1_1x1_reduce/bn
I0520 00:19:36.668428 30568 net.cpp:163] Setting up conv4_1_1x1_reduce/bn
I0520 00:19:36.668462 30568 net.cpp:170] Top shape: 3 256 60 60 (2764800)
I0520 00:19:36.668480 30568 layer_factory.hpp:74] Creating layer conv4_1_1x1_reduce/relu
I0520 00:19:36.668494 30568 net.cpp:99] Creating Layer conv4_1_1x1_reduce/relu
I0520 00:19:36.668501 30568 net.cpp:481] conv4_1_1x1_reduce/relu <- conv4_1_1x1_reduce/bn
I0520 00:19:36.668511 30568 net.cpp:130] This layer is inheriting previous layer's sync mode: 1
I0520 00:19:36.668519 30568 net.cpp:426] conv4_1_1x1_reduce/relu -> conv4_1_1x1_reduce/bn (in-place)
I0520 00:19:36.668529 30568 net.cpp:163] Setting up conv4_1_1x1_reduce/relu
I0520 00:19:36.669016 30568 net.cpp:170] Top shape: 3 256 60 60 (2764800)
I0520 00:19:36.669036 30568 layer_factory.hpp:74] Creating layer conv4_1_3x3
I0520 00:19:36.669056 30568 net.cpp:99] Creating Layer conv4_1_3x3
I0520 00:19:36.669064 30568 net.cpp:481] conv4_1_3x3 <- conv4_1_1x1_reduce/bn
I0520 00:19:36.669071 30568 net.cpp:130] This layer is inheriting previous layer's sync mode: 1
I0520 00:19:36.669083 30568 net.cpp:437] conv4_1_3x3 -> conv4_1_3x3
I0520 00:19:36.669097 30568 net.cpp:163] Setting up conv4_1_3x3
I0520 00:19:36.683262 30568 net.cpp:170] Top shape: 3 256 60 60 (2764800)
I0520 00:19:36.683291 30568 layer_factory.hpp:74] Creating layer conv4_1_3x3/bn
I0520 00:19:36.683305 30568 net.cpp:99] Creating Layer conv4_1_3x3/bn
I0520 00:19:36.683311 30568 net.cpp:481] conv4_1_3x3/bn <- conv4_1_3x3
I0520 00:19:36.683318 30568 net.cpp:130] This layer is inheriting previous layer's sync mode: 1
I0520 00:19:36.683333 30568 net.cpp:437] conv4_1_3x3/bn -> conv4_1_3x3/bn
I0520 00:19:36.683344 30568 net.cpp:163] Setting up conv4_1_3x3/bn
I0520 00:19:36.683372 30568 net.cpp:170] Top shape: 3 256 60 60 (2764800)
I0520 00:19:36.683389 30568 layer_factory.hpp:74] Creating layer conv4_1_3x3/relu
I0520 00:19:36.683398 30568 net.cpp:99] Creating Layer conv4_1_3x3/relu
I0520 00:19:36.683404 30568 net.cpp:481] conv4_1_3x3/relu <- conv4_1_3x3/bn
I0520 00:19:36.683413 30568 net.cpp:130] This layer is inheriting previous layer's sync mode: 1
I0520 00:19:36.683429 30568 net.cpp:426] conv4_1_3x3/relu -> conv4_1_3x3/bn (in-place)
I0520 00:19:36.683447 30568 net.cpp:163] Setting up conv4_1_3x3/relu
I0520 00:19:36.684888 30568 net.cpp:170] Top shape: 3 256 60 60 (2764800)
I0520 00:19:36.684912 30568 layer_factory.hpp:74] Creating layer conv4_1_1x1_increase
I0520 00:19:36.684943 30568 net.cpp:99] Creating Layer conv4_1_1x1_increase
I0520 00:19:36.684950 30568 net.cpp:481] conv4_1_1x1_increase <- conv4_1_3x3/bn
I0520 00:19:36.684969 30568 net.cpp:130] This layer is inheriting previous layer's sync mode: 1
I0520 00:19:36.685009 30568 net.cpp:437] conv4_1_1x1_increase -> conv4_1_1x1_increase
I0520 00:19:36.685026 30568 net.cpp:163] Setting up conv4_1_1x1_increase
I0520 00:19:37.161554 30568 net.cpp:170] Top shape: 3 1024 60 60 (11059200)
I0520 00:19:37.161597 30568 layer_factory.hpp:74] Creating layer conv4_1_1x1_increase/bn
I0520 00:19:37.161618 30568 net.cpp:99] Creating Layer conv4_1_1x1_increase/bn
I0520 00:19:37.161628 30568 net.cpp:481] conv4_1_1x1_increase/bn <- conv4_1_1x1_increase
I0520 00:19:37.161643 30568 net.cpp:130] This layer is inheriting previous layer's sync mode: 1
I0520 00:19:37.161654 30568 net.cpp:437] conv4_1_1x1_increase/bn -> conv4_1_1x1_increase/bn
I0520 00:19:37.161670 30568 net.cpp:163] Setting up conv4_1_1x1_increase/bn
I0520 00:19:37.161718 30568 net.cpp:170] Top shape: 3 1024 60 60 (11059200)
I0520 00:19:37.161738 30568 layer_factory.hpp:74] Creating layer conv4_1_1x1_proj
I0520 00:19:37.161765 30568 net.cpp:99] Creating Layer conv4_1_1x1_proj
I0520 00:19:37.161772 30568 net.cpp:481] conv4_1_1x1_proj <- conv3_4_conv3_4/relu_0_split_1
I0520 00:19:37.161780 30568 net.cpp:130] This layer is inheriting previous layer's sync mode: 1
I0520 00:19:37.161799 30568 net.cpp:437] conv4_1_1x1_proj -> conv4_1_1x1_proj
I0520 00:19:37.161814 30568 net.cpp:163] Setting up conv4_1_1x1_proj
I0520 00:19:37.572626 30568 net.cpp:170] Top shape: 3 1024 60 60 (11059200)
I0520 00:19:37.572651 30568 layer_factory.hpp:74] Creating layer conv4_1_1x1_proj/bn
I0520 00:19:37.572664 30568 net.cpp:99] Creating Layer conv4_1_1x1_proj/bn
I0520 00:19:37.572669 30568 net.cpp:481] conv4_1_1x1_proj/bn <- conv4_1_1x1_proj
I0520 00:19:37.572675 30568 net.cpp:130] This layer is inheriting previous layer's sync mode: 1
I0520 00:19:37.572682 30568 net.cpp:437] conv4_1_1x1_proj/bn -> conv4_1_1x1_proj/bn
I0520 00:19:37.572691 30568 net.cpp:163] Setting up conv4_1_1x1_proj/bn
I0520 00:19:37.572720 30568 net.cpp:170] Top shape: 3 1024 60 60 (11059200)
I0520 00:19:37.572731 30568 layer_factory.hpp:74] Creating layer conv4_1
I0520 00:19:37.572739 30568 net.cpp:99] Creating Layer conv4_1
I0520 00:19:37.572743 30568 net.cpp:481] conv4_1 <- conv4_1_1x1_proj/bn
I0520 00:19:37.572747 30568 net.cpp:481] conv4_1 <- conv4_1_1x1_increase/bn
I0520 00:19:37.572752 30568 net.cpp:130] This layer is inheriting previous layer's sync mode: 1
I0520 00:19:37.572760 30568 net.cpp:437] conv4_1 -> conv4_1
I0520 00:19:37.572768 30568 net.cpp:163] Setting up conv4_1
I0520 00:19:37.572775 30568 net.cpp:170] Top shape: 3 1024 60 60 (11059200)
I0520 00:19:37.572779 30568 layer_factory.hpp:74] Creating layer conv4_1/relu
I0520 00:19:37.572785 30568 net.cpp:99] Creating Layer conv4_1/relu
I0520 00:19:37.572789 30568 net.cpp:481] conv4_1/relu <- conv4_1
I0520 00:19:37.572793 30568 net.cpp:130] This layer is inheriting previous layer's sync mode: 1
I0520 00:19:37.572799 30568 net.cpp:426] conv4_1/relu -> conv4_1 (in-place)
I0520 00:19:37.572804 30568 net.cpp:163] Setting up conv4_1/relu
I0520 00:19:37.573053 30568 net.cpp:170] Top shape: 3 1024 60 60 (11059200)
I0520 00:19:37.573071 30568 layer_factory.hpp:74] Creating layer conv4_1_conv4_1/relu_0_split
I0520 00:19:37.573078 30568 net.cpp:99] Creating Layer conv4_1_conv4_1/relu_0_split
I0520 00:19:37.573082 30568 net.cpp:481] conv4_1_conv4_1/relu_0_split <- conv4_1
I0520 00:19:37.573087 30568 net.cpp:130] This layer is inheriting previous layer's sync mode: 1
I0520 00:19:37.573094 30568 net.cpp:437] conv4_1_conv4_1/relu_0_split -> conv4_1_conv4_1/relu_0_split_0
I0520 00:19:37.573103 30568 net.cpp:437] conv4_1_conv4_1/relu_0_split -> conv4_1_conv4_1/relu_0_split_1
I0520 00:19:37.573109 30568 net.cpp:163] Setting up conv4_1_conv4_1/relu_0_split
I0520 00:19:37.573117 30568 net.cpp:170] Top shape: 3 1024 60 60 (11059200)
I0520 00:19:37.573120 30568 net.cpp:170] Top shape: 3 1024 60 60 (11059200)
I0520 00:19:37.573125 30568 layer_factory.hpp:74] Creating layer conv4_2_1x1_reduce
I0520 00:19:37.573137 30568 net.cpp:99] Creating Layer conv4_2_1x1_reduce
I0520 00:19:37.573139 30568 net.cpp:481] conv4_2_1x1_reduce <- conv4_1_conv4_1/relu_0_split_0
I0520 00:19:37.573165 30568 net.cpp:130] This layer is inheriting previous layer's sync mode: 1
I0520 00:19:37.573175 30568 net.cpp:437] conv4_2_1x1_reduce -> conv4_2_1x1_reduce
I0520 00:19:37.573184 30568 net.cpp:163] Setting up conv4_2_1x1_reduce
I0520 00:19:38.058393 30568 net.cpp:170] Top shape: 3 256 60 60 (2764800)
I0520 00:19:38.058430 30568 layer_factory.hpp:74] Creating layer conv4_2_1x1_reduce/bn
I0520 00:19:38.058450 30568 net.cpp:99] Creating Layer conv4_2_1x1_reduce/bn
I0520 00:19:38.058459 30568 net.cpp:481] conv4_2_1x1_reduce/bn <- conv4_2_1x1_reduce
I0520 00:19:38.058468 30568 net.cpp:130] This layer is inheriting previous layer's sync mode: 1
I0520 00:19:38.058480 30568 net.cpp:437] conv4_2_1x1_reduce/bn -> conv4_2_1x1_reduce/bn
I0520 00:19:38.058495 30568 net.cpp:163] Setting up conv4_2_1x1_reduce/bn
I0520 00:19:38.058527 30568 net.cpp:170] Top shape: 3 256 60 60 (2764800)
I0520 00:19:38.058547 30568 layer_factory.hpp:74] Creating layer conv4_2_1x1_reduce/relu
I0520 00:19:38.058557 30568 net.cpp:99] Creating Layer conv4_2_1x1_reduce/relu
I0520 00:19:38.058564 30568 net.cpp:481] conv4_2_1x1_reduce/relu <- conv4_2_1x1_reduce/bn
I0520 00:19:38.058574 30568 net.cpp:130] This layer is inheriting previous layer's sync mode: 1
I0520 00:19:38.058585 30568 net.cpp:426] conv4_2_1x1_reduce/relu -> conv4_2_1x1_reduce/bn (in-place)
I0520 00:19:38.058595 30568 net.cpp:163] Setting up conv4_2_1x1_reduce/relu
I0520 00:19:38.059059 30568 net.cpp:170] Top shape: 3 256 60 60 (2764800)
I0520 00:19:38.059082 30568 layer_factory.hpp:74] Creating layer conv4_2_3x3
I0520 00:19:38.059103 30568 net.cpp:99] Creating Layer conv4_2_3x3
I0520 00:19:38.059111 30568 net.cpp:481] conv4_2_3x3 <- conv4_2_1x1_reduce/bn
I0520 00:19:38.059119 30568 net.cpp:130] This layer is inheriting previous layer's sync mode: 1
I0520 00:19:38.059128 30568 net.cpp:437] conv4_2_3x3 -> conv4_2_3x3
I0520 00:19:38.059141 30568 net.cpp:163] Setting up conv4_2_3x3
I0520 00:19:38.076493 30568 net.cpp:170] Top shape: 3 256 60 60 (2764800)
I0520 00:19:38.076529 30568 layer_factory.hpp:74] Creating layer conv4_2_3x3/bn
I0520 00:19:38.076545 30568 net.cpp:99] Creating Layer conv4_2_3x3/bn
I0520 00:19:38.076551 30568 net.cpp:481] conv4_2_3x3/bn <- conv4_2_3x3
I0520 00:19:38.076562 30568 net.cpp:130] This layer is inheriting previous layer's sync mode: 1
I0520 00:19:38.076575 30568 net.cpp:437] conv4_2_3x3/bn -> conv4_2_3x3/bn
I0520 00:19:38.076587 30568 net.cpp:163] Setting up conv4_2_3x3/bn
I0520 00:19:38.076620 30568 net.cpp:170] Top shape: 3 256 60 60 (2764800)
I0520 00:19:38.076637 30568 layer_factory.hpp:74] Creating layer conv4_2_3x3/relu
I0520 00:19:38.076647 30568 net.cpp:99] Creating Layer conv4_2_3x3/relu
I0520 00:19:38.076653 30568 net.cpp:481] conv4_2_3x3/relu <- conv4_2_3x3/bn
I0520 00:19:38.076658 30568 net.cpp:130] This layer is inheriting previous layer's sync mode: 1
I0520 00:19:38.076664 30568 net.cpp:426] conv4_2_3x3/relu -> conv4_2_3x3/bn (in-place)
I0520 00:19:38.076676 30568 net.cpp:163] Setting up conv4_2_3x3/relu
I0520 00:19:38.078306 30568 net.cpp:170] Top shape: 3 256 60 60 (2764800)
I0520 00:19:38.078333 30568 layer_factory.hpp:74] Creating layer conv4_2_1x1_increase
I0520 00:19:38.078356 30568 net.cpp:99] Creating Layer conv4_2_1x1_increase
I0520 00:19:38.078363 30568 net.cpp:481] conv4_2_1x1_increase <- conv4_2_3x3/bn
I0520 00:19:38.078373 30568 net.cpp:130] This layer is inheriting previous layer's sync mode: 1
I0520 00:19:38.078385 30568 net.cpp:437] conv4_2_1x1_increase -> conv4_2_1x1_increase
I0520 00:19:38.078398 30568 net.cpp:163] Setting up conv4_2_1x1_increase
I0520 00:19:38.595707 30568 net.cpp:170] Top shape: 3 1024 60 60 (11059200)
I0520 00:19:38.595744 30568 layer_factory.hpp:74] Creating layer conv4_2_1x1_increase/bn
I0520 00:19:38.595763 30568 net.cpp:99] Creating Layer conv4_2_1x1_increase/bn
I0520 00:19:38.595773 30568 net.cpp:481] conv4_2_1x1_increase/bn <- conv4_2_1x1_increase
I0520 00:19:38.595782 30568 net.cpp:130] This layer is inheriting previous layer's sync mode: 1
I0520 00:19:38.595794 30568 net.cpp:437] conv4_2_1x1_increase/bn -> conv4_2_1x1_increase/bn
I0520 00:19:38.595851 30568 net.cpp:163] Setting up conv4_2_1x1_increase/bn
I0520 00:19:38.595899 30568 net.cpp:170] Top shape: 3 1024 60 60 (11059200)
I0520 00:19:38.595926 30568 layer_factory.hpp:74] Creating layer conv4_2
I0520 00:19:38.595947 30568 net.cpp:99] Creating Layer conv4_2
I0520 00:19:38.595958 30568 net.cpp:481] conv4_2 <- conv4_1_conv4_1/relu_0_split_1
I0520 00:19:38.595970 30568 net.cpp:481] conv4_2 <- conv4_2_1x1_increase/bn
I0520 00:19:38.595980 30568 net.cpp:130] This layer is inheriting previous layer's sync mode: 1
I0520 00:19:38.595993 30568 net.cpp:437] conv4_2 -> conv4_2
I0520 00:19:38.596009 30568 net.cpp:163] Setting up conv4_2
I0520 00:19:38.596031 30568 net.cpp:170] Top shape: 3 1024 60 60 (11059200)
I0520 00:19:38.596042 30568 layer_factory.hpp:74] Creating layer conv4_2/relu
I0520 00:19:38.596057 30568 net.cpp:99] Creating Layer conv4_2/relu
I0520 00:19:38.596065 30568 net.cpp:481] conv4_2/relu <- conv4_2
I0520 00:19:38.596076 30568 net.cpp:130] This layer is inheriting previous layer's sync mode: 1
I0520 00:19:38.596086 30568 net.cpp:426] conv4_2/relu -> conv4_2 (in-place)
I0520 00:19:38.596098 30568 net.cpp:163] Setting up conv4_2/relu
I0520 00:19:38.596544 30568 net.cpp:170] Top shape: 3 1024 60 60 (11059200)
I0520 00:19:38.596568 30568 layer_factory.hpp:74] Creating layer conv4_2_conv4_2/relu_0_split
I0520 00:19:38.596583 30568 net.cpp:99] Creating Layer conv4_2_conv4_2/relu_0_split
I0520 00:19:38.596590 30568 net.cpp:481] conv4_2_conv4_2/relu_0_split <- conv4_2
I0520 00:19:38.596601 30568 net.cpp:130] This layer is inheriting previous layer's sync mode: 1
I0520 00:19:38.596611 30568 net.cpp:437] conv4_2_conv4_2/relu_0_split -> conv4_2_conv4_2/relu_0_split_0
I0520 00:19:38.596624 30568 net.cpp:437] conv4_2_conv4_2/relu_0_split -> conv4_2_conv4_2/relu_0_split_1
I0520 00:19:38.596638 30568 net.cpp:163] Setting up conv4_2_conv4_2/relu_0_split
I0520 00:19:38.596657 30568 net.cpp:170] Top shape: 3 1024 60 60 (11059200)
I0520 00:19:38.596669 30568 net.cpp:170] Top shape: 3 1024 60 60 (11059200)
I0520 00:19:38.596679 30568 layer_factory.hpp:74] Creating layer conv4_3_1x1_reduce
I0520 00:19:38.596696 30568 net.cpp:99] Creating Layer conv4_3_1x1_reduce
I0520 00:19:38.596706 30568 net.cpp:481] conv4_3_1x1_reduce <- conv4_2_conv4_2/relu_0_split_0
I0520 00:19:38.596719 30568 net.cpp:130] This layer is inheriting previous layer's sync mode: 1
I0520 00:19:38.596734 30568 net.cpp:437] conv4_3_1x1_reduce -> conv4_3_1x1_reduce
I0520 00:19:38.596750 30568 net.cpp:163] Setting up conv4_3_1x1_reduce
I0520 00:19:39.084664 30568 net.cpp:170] Top shape: 3 256 60 60 (2764800)
I0520 00:19:39.084698 30568 layer_factory.hpp:74] Creating layer conv4_3_1x1_reduce/bn
I0520 00:19:39.084717 30568 net.cpp:99] Creating Layer conv4_3_1x1_reduce/bn
I0520 00:19:39.084725 30568 net.cpp:481] conv4_3_1x1_reduce/bn <- conv4_3_1x1_reduce
I0520 00:19:39.084738 30568 net.cpp:130] This layer is inheriting previous layer's sync mode: 1
I0520 00:19:39.084750 30568 net.cpp:437] conv4_3_1x1_reduce/bn -> conv4_3_1x1_reduce/bn
I0520 00:19:39.084765 30568 net.cpp:163] Setting up conv4_3_1x1_reduce/bn
I0520 00:19:39.084794 30568 net.cpp:170] Top shape: 3 256 60 60 (2764800)
I0520 00:19:39.084815 30568 layer_factory.hpp:74] Creating layer conv4_3_1x1_reduce/relu
I0520 00:19:39.084839 30568 net.cpp:99] Creating Layer conv4_3_1x1_reduce/relu
I0520 00:19:39.084856 30568 net.cpp:481] conv4_3_1x1_reduce/relu <- conv4_3_1x1_reduce/bn
I0520 00:19:39.084864 30568 net.cpp:130] This layer is inheriting previous layer's sync mode: 1
I0520 00:19:39.084872 30568 net.cpp:426] conv4_3_1x1_reduce/relu -> conv4_3_1x1_reduce/bn (in-place)
I0520 00:19:39.084883 30568 net.cpp:163] Setting up conv4_3_1x1_reduce/relu
I0520 00:19:39.086397 30568 net.cpp:170] Top shape: 3 256 60 60 (2764800)
I0520 00:19:39.086423 30568 layer_factory.hpp:74] Creating layer conv4_3_3x3
I0520 00:19:39.086443 30568 net.cpp:99] Creating Layer conv4_3_3x3
I0520 00:19:39.086452 30568 net.cpp:481] conv4_3_3x3 <- conv4_3_1x1_reduce/bn
I0520 00:19:39.086486 30568 net.cpp:130] This layer is inheriting previous layer's sync mode: 1
I0520 00:19:39.086498 30568 net.cpp:437] conv4_3_3x3 -> conv4_3_3x3
I0520 00:19:39.086511 30568 net.cpp:163] Setting up conv4_3_3x3
I0520 00:19:39.099678 30568 net.cpp:170] Top shape: 3 256 60 60 (2764800)
I0520 00:19:39.099700 30568 layer_factory.hpp:74] Creating layer conv4_3_3x3/bn
I0520 00:19:39.099714 30568 net.cpp:99] Creating Layer conv4_3_3x3/bn
I0520 00:19:39.099720 30568 net.cpp:481] conv4_3_3x3/bn <- conv4_3_3x3
I0520 00:19:39.099728 30568 net.cpp:130] This layer is inheriting previous layer's sync mode: 1
I0520 00:19:39.099736 30568 net.cpp:437] conv4_3_3x3/bn -> conv4_3_3x3/bn
I0520 00:19:39.099747 30568 net.cpp:163] Setting up conv4_3_3x3/bn
I0520 00:19:39.099768 30568 net.cpp:170] Top shape: 3 256 60 60 (2764800)
I0520 00:19:39.099782 30568 layer_factory.hpp:74] Creating layer conv4_3_3x3/relu
I0520 00:19:39.099792 30568 net.cpp:99] Creating Layer conv4_3_3x3/relu
I0520 00:19:39.099798 30568 net.cpp:481] conv4_3_3x3/relu <- conv4_3_3x3/bn
I0520 00:19:39.099807 30568 net.cpp:130] This layer is inheriting previous layer's sync mode: 1
I0520 00:19:39.099812 30568 net.cpp:426] conv4_3_3x3/relu -> conv4_3_3x3/bn (in-place)
I0520 00:19:39.099820 30568 net.cpp:163] Setting up conv4_3_3x3/relu
I0520 00:19:39.101197 30568 net.cpp:170] Top shape: 3 256 60 60 (2764800)
I0520 00:19:39.101220 30568 layer_factory.hpp:74] Creating layer conv4_3_1x1_increase
I0520 00:19:39.101235 30568 net.cpp:99] Creating Layer conv4_3_1x1_increase
I0520 00:19:39.101243 30568 net.cpp:481] conv4_3_1x1_increase <- conv4_3_3x3/bn
I0520 00:19:39.101250 30568 net.cpp:130] This layer is inheriting previous layer's sync mode: 1
I0520 00:19:39.101263 30568 net.cpp:437] conv4_3_1x1_increase -> conv4_3_1x1_increase
I0520 00:19:39.101275 30568 net.cpp:163] Setting up conv4_3_1x1_increase
I0520 00:19:39.589735 30568 net.cpp:170] Top shape: 3 1024 60 60 (11059200)
I0520 00:19:39.589774 30568 layer_factory.hpp:74] Creating layer conv4_3_1x1_increase/bn
I0520 00:19:39.589794 30568 net.cpp:99] Creating Layer conv4_3_1x1_increase/bn
I0520 00:19:39.589803 30568 net.cpp:481] conv4_3_1x1_increase/bn <- conv4_3_1x1_increase
I0520 00:19:39.589817 30568 net.cpp:130] This layer is inheriting previous layer's sync mode: 1
I0520 00:19:39.589828 30568 net.cpp:437] conv4_3_1x1_increase/bn -> conv4_3_1x1_increase/bn
I0520 00:19:39.589845 30568 net.cpp:163] Setting up conv4_3_1x1_increase/bn
I0520 00:19:39.589890 30568 net.cpp:170] Top shape: 3 1024 60 60 (11059200)
I0520 00:19:39.589923 30568 layer_factory.hpp:74] Creating layer conv4_3
I0520 00:19:39.589949 30568 net.cpp:99] Creating Layer conv4_3
I0520 00:19:39.589958 30568 net.cpp:481] conv4_3 <- conv4_2_conv4_2/relu_0_split_1
I0520 00:19:39.589968 30568 net.cpp:481] conv4_3 <- conv4_3_1x1_increase/bn
I0520 00:19:39.589980 30568 net.cpp:130] This layer is inheriting previous layer's sync mode: 1
I0520 00:19:39.589996 30568 net.cpp:437] conv4_3 -> conv4_3
I0520 00:19:39.590013 30568 net.cpp:163] Setting up conv4_3
I0520 00:19:39.590030 30568 net.cpp:170] Top shape: 3 1024 60 60 (11059200)
I0520 00:19:39.590041 30568 layer_factory.hpp:74] Creating layer conv4_3/relu
I0520 00:19:39.590055 30568 net.cpp:99] Creating Layer conv4_3/relu
I0520 00:19:39.590073 30568 net.cpp:481] conv4_3/relu <- conv4_3
I0520 00:19:39.590087 30568 net.cpp:130] This layer is inheriting previous layer's sync mode: 1
I0520 00:19:39.590097 30568 net.cpp:426] conv4_3/relu -> conv4_3 (in-place)
I0520 00:19:39.590112 30568 net.cpp:163] Setting up conv4_3/relu
I0520 00:19:39.590564 30568 net.cpp:170] Top shape: 3 1024 60 60 (11059200)
I0520 00:19:39.590589 30568 layer_factory.hpp:74] Creating layer conv4_3_conv4_3/relu_0_split
I0520 00:19:39.590685 30568 net.cpp:99] Creating Layer conv4_3_conv4_3/relu_0_split
I0520 00:19:39.590698 30568 net.cpp:481] conv4_3_conv4_3/relu_0_split <- conv4_3
I0520 00:19:39.590706 30568 net.cpp:130] This layer is inheriting previous layer's sync mode: 1
I0520 00:19:39.590744 30568 net.cpp:437] conv4_3_conv4_3/relu_0_split -> conv4_3_conv4_3/relu_0_split_0
I0520 00:19:39.590802 30568 net.cpp:437] conv4_3_conv4_3/relu_0_split -> conv4_3_conv4_3/relu_0_split_1
I0520 00:19:39.590816 30568 net.cpp:163] Setting up conv4_3_conv4_3/relu_0_split
I0520 00:19:39.590829 30568 net.cpp:170] Top shape: 3 1024 60 60 (11059200)
I0520 00:19:39.590837 30568 net.cpp:170] Top shape: 3 1024 60 60 (11059200)
I0520 00:19:39.590844 30568 layer_factory.hpp:74] Creating layer conv4_4_1x1_reduce
I0520 00:19:39.590860 30568 net.cpp:99] Creating Layer conv4_4_1x1_reduce
I0520 00:19:39.590867 30568 net.cpp:481] conv4_4_1x1_reduce <- conv4_3_conv4_3/relu_0_split_0
I0520 00:19:39.590874 30568 net.cpp:130] This layer is inheriting previous layer's sync mode: 1
I0520 00:19:39.590883 30568 net.cpp:437] conv4_4_1x1_reduce -> conv4_4_1x1_reduce
I0520 00:19:39.590895 30568 net.cpp:163] Setting up conv4_4_1x1_reduce
I0520 00:19:40.063017 30568 net.cpp:170] Top shape: 3 256 60 60 (2764800)
I0520 00:19:40.063066 30568 layer_factory.hpp:74] Creating layer conv4_4_1x1_reduce/bn
I0520 00:19:40.063086 30568 net.cpp:99] Creating Layer conv4_4_1x1_reduce/bn
I0520 00:19:40.063104 30568 net.cpp:481] conv4_4_1x1_reduce/bn <- conv4_4_1x1_reduce
I0520 00:19:40.063115 30568 net.cpp:130] This layer is inheriting previous layer's sync mode: 1
I0520 00:19:40.063127 30568 net.cpp:437] conv4_4_1x1_reduce/bn -> conv4_4_1x1_reduce/bn
I0520 00:19:40.063144 30568 net.cpp:163] Setting up conv4_4_1x1_reduce/bn
I0520 00:19:40.063175 30568 net.cpp:170] Top shape: 3 256 60 60 (2764800)
I0520 00:19:40.063195 30568 layer_factory.hpp:74] Creating layer conv4_4_1x1_reduce/relu
I0520 00:19:40.063206 30568 net.cpp:99] Creating Layer conv4_4_1x1_reduce/relu
I0520 00:19:40.063212 30568 net.cpp:481] conv4_4_1x1_reduce/relu <- conv4_4_1x1_reduce/bn
I0520 00:19:40.063220 30568 net.cpp:130] This layer is inheriting previous layer's sync mode: 1
I0520 00:19:40.063230 30568 net.cpp:426] conv4_4_1x1_reduce/relu -> conv4_4_1x1_reduce/bn (in-place)
I0520 00:19:40.063241 30568 net.cpp:163] Setting up conv4_4_1x1_reduce/relu
I0520 00:19:40.064862 30568 net.cpp:170] Top shape: 3 256 60 60 (2764800)
I0520 00:19:40.064889 30568 layer_factory.hpp:74] Creating layer conv4_4_3x3
I0520 00:19:40.064908 30568 net.cpp:99] Creating Layer conv4_4_3x3
I0520 00:19:40.064916 30568 net.cpp:481] conv4_4_3x3 <- conv4_4_1x1_reduce/bn
I0520 00:19:40.064925 30568 net.cpp:130] This layer is inheriting previous layer's sync mode: 1
I0520 00:19:40.064935 30568 net.cpp:437] conv4_4_3x3 -> conv4_4_3x3
I0520 00:19:40.064951 30568 net.cpp:163] Setting up conv4_4_3x3
I0520 00:19:40.078693 30568 net.cpp:170] Top shape: 3 256 60 60 (2764800)
I0520 00:19:40.078721 30568 layer_factory.hpp:74] Creating layer conv4_4_3x3/bn
I0520 00:19:40.078734 30568 net.cpp:99] Creating Layer conv4_4_3x3/bn
I0520 00:19:40.078742 30568 net.cpp:481] conv4_4_3x3/bn <- conv4_4_3x3
I0520 00:19:40.078748 30568 net.cpp:130] This layer is inheriting previous layer's sync mode: 1
I0520 00:19:40.078759 30568 net.cpp:437] conv4_4_3x3/bn -> conv4_4_3x3/bn
I0520 00:19:40.078771 30568 net.cpp:163] Setting up conv4_4_3x3/bn
I0520 00:19:40.078800 30568 net.cpp:170] Top shape: 3 256 60 60 (2764800)
I0520 00:19:40.078827 30568 layer_factory.hpp:74] Creating layer conv4_4_3x3/relu
I0520 00:19:40.078836 30568 net.cpp:99] Creating Layer conv4_4_3x3/relu
I0520 00:19:40.078842 30568 net.cpp:481] conv4_4_3x3/relu <- conv4_4_3x3/bn
I0520 00:19:40.078848 30568 net.cpp:130] This layer is inheriting previous layer's sync mode: 1
I0520 00:19:40.078855 30568 net.cpp:426] conv4_4_3x3/relu -> conv4_4_3x3/bn (in-place)
I0520 00:19:40.078863 30568 net.cpp:163] Setting up conv4_4_3x3/relu
I0520 00:19:40.079270 30568 net.cpp:170] Top shape: 3 256 60 60 (2764800)
I0520 00:19:40.079288 30568 layer_factory.hpp:74] Creating layer conv4_4_1x1_increase
I0520 00:19:40.079301 30568 net.cpp:99] Creating Layer conv4_4_1x1_increase
I0520 00:19:40.079308 30568 net.cpp:481] conv4_4_1x1_increase <- conv4_4_3x3/bn
I0520 00:19:40.079315 30568 net.cpp:130] This layer is inheriting previous layer's sync mode: 1
I0520 00:19:40.079327 30568 net.cpp:437] conv4_4_1x1_increase -> conv4_4_1x1_increase
I0520 00:19:40.079367 30568 net.cpp:163] Setting up conv4_4_1x1_increase
I0520 00:19:40.567080 30568 net.cpp:170] Top shape: 3 1024 60 60 (11059200)
I0520 00:19:40.567121 30568 layer_factory.hpp:74] Creating layer conv4_4_1x1_increase/bn
I0520 00:19:40.567142 30568 net.cpp:99] Creating Layer conv4_4_1x1_increase/bn
I0520 00:19:40.567150 30568 net.cpp:481] conv4_4_1x1_increase/bn <- conv4_4_1x1_increase
I0520 00:19:40.567159 30568 net.cpp:130] This layer is inheriting previous layer's sync mode: 1
I0520 00:19:40.567170 30568 net.cpp:437] conv4_4_1x1_increase/bn -> conv4_4_1x1_increase/bn
I0520 00:19:40.567186 30568 net.cpp:163] Setting up conv4_4_1x1_increase/bn
I0520 00:19:40.567229 30568 net.cpp:170] Top shape: 3 1024 60 60 (11059200)
I0520 00:19:40.567261 30568 layer_factory.hpp:74] Creating layer conv4_4
I0520 00:19:40.567277 30568 net.cpp:99] Creating Layer conv4_4
I0520 00:19:40.567288 30568 net.cpp:481] conv4_4 <- conv4_3_conv4_3/relu_0_split_1
I0520 00:19:40.567303 30568 net.cpp:481] conv4_4 <- conv4_4_1x1_increase/bn
I0520 00:19:40.567313 30568 net.cpp:130] This layer is inheriting previous layer's sync mode: 1
I0520 00:19:40.567328 30568 net.cpp:437] conv4_4 -> conv4_4
I0520 00:19:40.567343 30568 net.cpp:163] Setting up conv4_4
I0520 00:19:40.567363 30568 net.cpp:170] Top shape: 3 1024 60 60 (11059200)
I0520 00:19:40.567378 30568 layer_factory.hpp:74] Creating layer conv4_4/relu
I0520 00:19:40.567392 30568 net.cpp:99] Creating Layer conv4_4/relu
I0520 00:19:40.567399 30568 net.cpp:481] conv4_4/relu <- conv4_4
I0520 00:19:40.567411 30568 net.cpp:130] This layer is inheriting previous layer's sync mode: 1
I0520 00:19:40.567423 30568 net.cpp:426] conv4_4/relu -> conv4_4 (in-place)
I0520 00:19:40.567436 30568 net.cpp:163] Setting up conv4_4/relu
I0520 00:19:40.568976 30568 net.cpp:170] Top shape: 3 1024 60 60 (11059200)
I0520 00:19:40.569001 30568 layer_factory.hpp:74] Creating layer conv4_4_conv4_4/relu_0_split
I0520 00:19:40.569020 30568 net.cpp:99] Creating Layer conv4_4_conv4_4/relu_0_split
I0520 00:19:40.569028 30568 net.cpp:481] conv4_4_conv4_4/relu_0_split <- conv4_4
I0520 00:19:40.569037 30568 net.cpp:130] This layer is inheriting previous layer's sync mode: 1
I0520 00:19:40.569046 30568 net.cpp:437] conv4_4_conv4_4/relu_0_split -> conv4_4_conv4_4/relu_0_split_0
I0520 00:19:40.569063 30568 net.cpp:437] conv4_4_conv4_4/relu_0_split -> conv4_4_conv4_4/relu_0_split_1
I0520 00:19:40.569074 30568 net.cpp:163] Setting up conv4_4_conv4_4/relu_0_split
I0520 00:19:40.569087 30568 net.cpp:170] Top shape: 3 1024 60 60 (11059200)
I0520 00:19:40.569093 30568 net.cpp:170] Top shape: 3 1024 60 60 (11059200)
I0520 00:19:40.569099 30568 layer_factory.hpp:74] Creating layer conv4_5_1x1_reduce
I0520 00:19:40.569124 30568 net.cpp:99] Creating Layer conv4_5_1x1_reduce
I0520 00:19:40.569140 30568 net.cpp:481] conv4_5_1x1_reduce <- conv4_4_conv4_4/relu_0_split_0
I0520 00:19:40.569149 30568 net.cpp:130] This layer is inheriting previous layer's sync mode: 1
I0520 00:19:40.569161 30568 net.cpp:437] conv4_5_1x1_reduce -> conv4_5_1x1_reduce
I0520 00:19:40.569174 30568 net.cpp:163] Setting up conv4_5_1x1_reduce
I0520 00:19:41.041517 30568 net.cpp:170] Top shape: 3 256 60 60 (2764800)
I0520 00:19:41.041551 30568 layer_factory.hpp:74] Creating layer conv4_5_1x1_reduce/bn
I0520 00:19:41.041570 30568 net.cpp:99] Creating Layer conv4_5_1x1_reduce/bn
I0520 00:19:41.041579 30568 net.cpp:481] conv4_5_1x1_reduce/bn <- conv4_5_1x1_reduce
I0520 00:19:41.041589 30568 net.cpp:130] This layer is inheriting previous layer's sync mode: 1
I0520 00:19:41.041600 30568 net.cpp:437] conv4_5_1x1_reduce/bn -> conv4_5_1x1_reduce/bn
I0520 00:19:41.041615 30568 net.cpp:163] Setting up conv4_5_1x1_reduce/bn
I0520 00:19:41.041646 30568 net.cpp:170] Top shape: 3 256 60 60 (2764800)
I0520 00:19:41.041666 30568 layer_factory.hpp:74] Creating layer conv4_5_1x1_reduce/relu
I0520 00:19:41.041677 30568 net.cpp:99] Creating Layer conv4_5_1x1_reduce/relu
I0520 00:19:41.041683 30568 net.cpp:481] conv4_5_1x1_reduce/relu <- conv4_5_1x1_reduce/bn
I0520 00:19:41.041736 30568 net.cpp:130] This layer is inheriting previous layer's sync mode: 1
I0520 00:19:41.041749 30568 net.cpp:426] conv4_5_1x1_reduce/relu -> conv4_5_1x1_reduce/bn (in-place)
I0520 00:19:41.041760 30568 net.cpp:163] Setting up conv4_5_1x1_reduce/relu
I0520 00:19:41.043315 30568 net.cpp:170] Top shape: 3 256 60 60 (2764800)
I0520 00:19:41.043345 30568 layer_factory.hpp:74] Creating layer conv4_5_3x3
I0520 00:19:41.043362 30568 net.cpp:99] Creating Layer conv4_5_3x3
I0520 00:19:41.043371 30568 net.cpp:481] conv4_5_3x3 <- conv4_5_1x1_reduce/bn
I0520 00:19:41.043380 30568 net.cpp:130] This layer is inheriting previous layer's sync mode: 1
I0520 00:19:41.043393 30568 net.cpp:437] conv4_5_3x3 -> conv4_5_3x3
I0520 00:19:41.043408 30568 net.cpp:163] Setting up conv4_5_3x3
I0520 00:19:41.057386 30568 net.cpp:170] Top shape: 3 256 60 60 (2764800)
I0520 00:19:41.057409 30568 layer_factory.hpp:74] Creating layer conv4_5_3x3/bn
I0520 00:19:41.057425 30568 net.cpp:99] Creating Layer conv4_5_3x3/bn
I0520 00:19:41.057431 30568 net.cpp:481] conv4_5_3x3/bn <- conv4_5_3x3
I0520 00:19:41.057438 30568 net.cpp:130] This layer is inheriting previous layer's sync mode: 1
I0520 00:19:41.057447 30568 net.cpp:437] conv4_5_3x3/bn -> conv4_5_3x3/bn
I0520 00:19:41.057458 30568 net.cpp:163] Setting up conv4_5_3x3/bn
I0520 00:19:41.057488 30568 net.cpp:170] Top shape: 3 256 60 60 (2764800)
I0520 00:19:41.057505 30568 layer_factory.hpp:74] Creating layer conv4_5_3x3/relu
I0520 00:19:41.057515 30568 net.cpp:99] Creating Layer conv4_5_3x3/relu
I0520 00:19:41.057524 30568 net.cpp:481] conv4_5_3x3/relu <- conv4_5_3x3/bn
I0520 00:19:41.057535 30568 net.cpp:130] This layer is inheriting previous layer's sync mode: 1
I0520 00:19:41.057550 30568 net.cpp:426] conv4_5_3x3/relu -> conv4_5_3x3/bn (in-place)
I0520 00:19:41.057565 30568 net.cpp:163] Setting up conv4_5_3x3/relu
I0520 00:19:41.058991 30568 net.cpp:170] Top shape: 3 256 60 60 (2764800)
I0520 00:19:41.059021 30568 layer_factory.hpp:74] Creating layer conv4_5_1x1_increase
I0520 00:19:41.059048 30568 net.cpp:99] Creating Layer conv4_5_1x1_increase
I0520 00:19:41.059056 30568 net.cpp:481] conv4_5_1x1_increase <- conv4_5_3x3/bn
I0520 00:19:41.059063 30568 net.cpp:130] This layer is inheriting previous layer's sync mode: 1
I0520 00:19:41.059072 30568 net.cpp:437] conv4_5_1x1_increase -> conv4_5_1x1_increase
I0520 00:19:41.059087 30568 net.cpp:163] Setting up conv4_5_1x1_increase
I0520 00:19:41.539868 30568 net.cpp:170] Top shape: 3 1024 60 60 (11059200)
I0520 00:19:41.539906 30568 layer_factory.hpp:74] Creating layer conv4_5_1x1_increase/bn
I0520 00:19:41.539927 30568 net.cpp:99] Creating Layer conv4_5_1x1_increase/bn
I0520 00:19:41.539935 30568 net.cpp:481] conv4_5_1x1_increase/bn <- conv4_5_1x1_increase
I0520 00:19:41.539945 30568 net.cpp:130] This layer is inheriting previous layer's sync mode: 1
I0520 00:19:41.539958 30568 net.cpp:437] conv4_5_1x1_increase/bn -> conv4_5_1x1_increase/bn
I0520 00:19:41.539973 30568 net.cpp:163] Setting up conv4_5_1x1_increase/bn
I0520 00:19:41.540021 30568 net.cpp:170] Top shape: 3 1024 60 60 (11059200)
I0520 00:19:41.540048 30568 layer_factory.hpp:74] Creating layer conv4_5
I0520 00:19:41.540069 30568 net.cpp:99] Creating Layer conv4_5
I0520 00:19:41.540079 30568 net.cpp:481] conv4_5 <- conv4_4_conv4_4/relu_0_split_1
I0520 00:19:41.540102 30568 net.cpp:481] conv4_5 <- conv4_5_1x1_increase/bn
I0520 00:19:41.540112 30568 net.cpp:130] This layer is inheriting previous layer's sync mode: 1
I0520 00:19:41.540123 30568 net.cpp:437] conv4_5 -> conv4_5
I0520 00:19:41.540140 30568 net.cpp:163] Setting up conv4_5
I0520 00:19:41.540158 30568 net.cpp:170] Top shape: 3 1024 60 60 (11059200)
I0520 00:19:41.540170 30568 layer_factory.hpp:74] Creating layer conv4_5/relu
I0520 00:19:41.540186 30568 net.cpp:99] Creating Layer conv4_5/relu
I0520 00:19:41.540194 30568 net.cpp:481] conv4_5/relu <- conv4_5
I0520 00:19:41.540204 30568 net.cpp:130] This layer is inheriting previous layer's sync mode: 1
I0520 00:19:41.540220 30568 net.cpp:426] conv4_5/relu -> conv4_5 (in-place)
I0520 00:19:41.540277 30568 net.cpp:163] Setting up conv4_5/relu
I0520 00:19:41.541815 30568 net.cpp:170] Top shape: 3 1024 60 60 (11059200)
I0520 00:19:41.541841 30568 layer_factory.hpp:74] Creating layer conv4_5_conv4_5/relu_0_split
I0520 00:19:41.541856 30568 net.cpp:99] Creating Layer conv4_5_conv4_5/relu_0_split
I0520 00:19:41.541862 30568 net.cpp:481] conv4_5_conv4_5/relu_0_split <- conv4_5
I0520 00:19:41.541872 30568 net.cpp:130] This layer is inheriting previous layer's sync mode: 1
I0520 00:19:41.541883 30568 net.cpp:437] conv4_5_conv4_5/relu_0_split -> conv4_5_conv4_5/relu_0_split_0
I0520 00:19:41.541898 30568 net.cpp:437] conv4_5_conv4_5/relu_0_split -> conv4_5_conv4_5/relu_0_split_1
I0520 00:19:41.542057 30568 net.cpp:163] Setting up conv4_5_conv4_5/relu_0_split
I0520 00:19:41.542078 30568 net.cpp:170] Top shape: 3 1024 60 60 (11059200)
I0520 00:19:41.542088 30568 net.cpp:170] Top shape: 3 1024 60 60 (11059200)
I0520 00:19:41.542093 30568 layer_factory.hpp:74] Creating layer conv4_6_1x1_reduce
I0520 00:19:41.542111 30568 net.cpp:99] Creating Layer conv4_6_1x1_reduce
I0520 00:19:41.542124 30568 net.cpp:481] conv4_6_1x1_reduce <- conv4_5_conv4_5/relu_0_split_0
I0520 00:19:41.542136 30568 net.cpp:130] This layer is inheriting previous layer's sync mode: 1
I0520 00:19:41.542151 30568 net.cpp:437] conv4_6_1x1_reduce -> conv4_6_1x1_reduce
I0520 00:19:41.542170 30568 net.cpp:163] Setting up conv4_6_1x1_reduce
I0520 00:19:42.014595 30568 net.cpp:170] Top shape: 3 256 60 60 (2764800)
I0520 00:19:42.014631 30568 layer_factory.hpp:74] Creating layer conv4_6_1x1_reduce/bn
I0520 00:19:42.014652 30568 net.cpp:99] Creating Layer conv4_6_1x1_reduce/bn
I0520 00:19:42.014662 30568 net.cpp:481] conv4_6_1x1_reduce/bn <- conv4_6_1x1_reduce
I0520 00:19:42.014670 30568 net.cpp:130] This layer is inheriting previous layer's sync mode: 1
I0520 00:19:42.014683 30568 net.cpp:437] conv4_6_1x1_reduce/bn -> conv4_6_1x1_reduce/bn
I0520 00:19:42.014698 30568 net.cpp:163] Setting up conv4_6_1x1_reduce/bn
I0520 00:19:42.014753 30568 net.cpp:170] Top shape: 3 256 60 60 (2764800)
I0520 00:19:42.014786 30568 layer_factory.hpp:74] Creating layer conv4_6_1x1_reduce/relu
I0520 00:19:42.014806 30568 net.cpp:99] Creating Layer conv4_6_1x1_reduce/relu
I0520 00:19:42.014816 30568 net.cpp:481] conv4_6_1x1_reduce/relu <- conv4_6_1x1_reduce/bn
I0520 00:19:42.014828 30568 net.cpp:130] This layer is inheriting previous layer's sync mode: 1
I0520 00:19:42.014842 30568 net.cpp:426] conv4_6_1x1_reduce/relu -> conv4_6_1x1_reduce/bn (in-place)
I0520 00:19:42.014858 30568 net.cpp:163] Setting up conv4_6_1x1_reduce/relu
I0520 00:19:42.015312 30568 net.cpp:170] Top shape: 3 256 60 60 (2764800)
I0520 00:19:42.015341 30568 layer_factory.hpp:74] Creating layer conv4_6_3x3
I0520 00:19:42.015357 30568 net.cpp:99] Creating Layer conv4_6_3x3
I0520 00:19:42.015364 30568 net.cpp:481] conv4_6_3x3 <- conv4_6_1x1_reduce/bn
I0520 00:19:42.015372 30568 net.cpp:130] This layer is inheriting previous layer's sync mode: 1
I0520 00:19:42.015384 30568 net.cpp:437] conv4_6_3x3 -> conv4_6_3x3
I0520 00:19:42.015398 30568 net.cpp:163] Setting up conv4_6_3x3
I0520 00:19:42.028553 30568 net.cpp:170] Top shape: 3 256 60 60 (2764800)
I0520 00:19:42.028573 30568 layer_factory.hpp:74] Creating layer conv4_6_3x3/bn
I0520 00:19:42.028589 30568 net.cpp:99] Creating Layer conv4_6_3x3/bn
I0520 00:19:42.028594 30568 net.cpp:481] conv4_6_3x3/bn <- conv4_6_3x3
I0520 00:19:42.028602 30568 net.cpp:130] This layer is inheriting previous layer's sync mode: 1
I0520 00:19:42.028612 30568 net.cpp:437] conv4_6_3x3/bn -> conv4_6_3x3/bn
I0520 00:19:42.028623 30568 net.cpp:163] Setting up conv4_6_3x3/bn
I0520 00:19:42.028645 30568 net.cpp:170] Top shape: 3 256 60 60 (2764800)
I0520 00:19:42.028659 30568 layer_factory.hpp:74] Creating layer conv4_6_3x3/relu
I0520 00:19:42.028667 30568 net.cpp:99] Creating Layer conv4_6_3x3/relu
I0520 00:19:42.028673 30568 net.cpp:481] conv4_6_3x3/relu <- conv4_6_3x3/bn
I0520 00:19:42.028679 30568 net.cpp:130] This layer is inheriting previous layer's sync mode: 1
I0520 00:19:42.028720 30568 net.cpp:426] conv4_6_3x3/relu -> conv4_6_3x3/bn (in-place)
I0520 00:19:42.028731 30568 net.cpp:163] Setting up conv4_6_3x3/relu
I0520 00:19:42.030119 30568 net.cpp:170] Top shape: 3 256 60 60 (2764800)
I0520 00:19:42.030143 30568 layer_factory.hpp:74] Creating layer conv4_6_1x1_increase
I0520 00:19:42.030158 30568 net.cpp:99] Creating Layer conv4_6_1x1_increase
I0520 00:19:42.030165 30568 net.cpp:481] conv4_6_1x1_increase <- conv4_6_3x3/bn
I0520 00:19:42.030174 30568 net.cpp:130] This layer is inheriting previous layer's sync mode: 1
I0520 00:19:42.030182 30568 net.cpp:437] conv4_6_1x1_increase -> conv4_6_1x1_increase
I0520 00:19:42.030196 30568 net.cpp:163] Setting up conv4_6_1x1_increase
I0520 00:19:42.511662 30568 net.cpp:170] Top shape: 3 1024 60 60 (11059200)
I0520 00:19:42.511699 30568 layer_factory.hpp:74] Creating layer conv4_6_1x1_increase/bn
I0520 00:19:42.511718 30568 net.cpp:99] Creating Layer conv4_6_1x1_increase/bn
I0520 00:19:42.511728 30568 net.cpp:481] conv4_6_1x1_increase/bn <- conv4_6_1x1_increase
I0520 00:19:42.511737 30568 net.cpp:130] This layer is inheriting previous layer's sync mode: 1
I0520 00:19:42.511749 30568 net.cpp:437] conv4_6_1x1_increase/bn -> conv4_6_1x1_increase/bn
I0520 00:19:42.511765 30568 net.cpp:163] Setting up conv4_6_1x1_increase/bn
I0520 00:19:42.511831 30568 net.cpp:170] Top shape: 3 1024 60 60 (11059200)
I0520 00:19:42.511862 30568 layer_factory.hpp:74] Creating layer conv4_6
I0520 00:19:42.511878 30568 net.cpp:99] Creating Layer conv4_6
I0520 00:19:42.511889 30568 net.cpp:481] conv4_6 <- conv4_5_conv4_5/relu_0_split_1
I0520 00:19:42.511901 30568 net.cpp:481] conv4_6 <- conv4_6_1x1_increase/bn
I0520 00:19:42.511910 30568 net.cpp:130] This layer is inheriting previous layer's sync mode: 1
I0520 00:19:42.511924 30568 net.cpp:437] conv4_6 -> conv4_6
I0520 00:19:42.511939 30568 net.cpp:163] Setting up conv4_6
I0520 00:19:42.511956 30568 net.cpp:170] Top shape: 3 1024 60 60 (11059200)
I0520 00:19:42.511967 30568 layer_factory.hpp:74] Creating layer conv4_6/relu
I0520 00:19:42.511981 30568 net.cpp:99] Creating Layer conv4_6/relu
I0520 00:19:42.511991 30568 net.cpp:481] conv4_6/relu <- conv4_6
I0520 00:19:42.512001 30568 net.cpp:130] This layer is inheriting previous layer's sync mode: 1
I0520 00:19:42.512012 30568 net.cpp:426] conv4_6/relu -> conv4_6 (in-place)
I0520 00:19:42.512033 30568 net.cpp:163] Setting up conv4_6/relu
I0520 00:19:42.512490 30568 net.cpp:170] Top shape: 3 1024 60 60 (11059200)
I0520 00:19:42.512511 30568 layer_factory.hpp:74] Creating layer conv4_6_conv4_6/relu_0_split
I0520 00:19:42.512523 30568 net.cpp:99] Creating Layer conv4_6_conv4_6/relu_0_split
I0520 00:19:42.512531 30568 net.cpp:481] conv4_6_conv4_6/relu_0_split <- conv4_6
I0520 00:19:42.512538 30568 net.cpp:130] This layer is inheriting previous layer's sync mode: 1
I0520 00:19:42.512552 30568 net.cpp:437] conv4_6_conv4_6/relu_0_split -> conv4_6_conv4_6/relu_0_split_0
I0520 00:19:42.512567 30568 net.cpp:437] conv4_6_conv4_6/relu_0_split -> conv4_6_conv4_6/relu_0_split_1
I0520 00:19:42.512578 30568 net.cpp:163] Setting up conv4_6_conv4_6/relu_0_split
I0520 00:19:42.512590 30568 net.cpp:170] Top shape: 3 1024 60 60 (11059200)
I0520 00:19:42.512603 30568 net.cpp:170] Top shape: 3 1024 60 60 (11059200)
I0520 00:19:42.512616 30568 layer_factory.hpp:74] Creating layer conv4_7_1x1_reduce
I0520 00:19:42.512639 30568 net.cpp:99] Creating Layer conv4_7_1x1_reduce
I0520 00:19:42.512650 30568 net.cpp:481] conv4_7_1x1_reduce <- conv4_6_conv4_6/relu_0_split_0
I0520 00:19:42.512661 30568 net.cpp:130] This layer is inheriting previous layer's sync mode: 1
I0520 00:19:42.512676 30568 net.cpp:437] conv4_7_1x1_reduce -> conv4_7_1x1_reduce
I0520 00:19:42.512693 30568 net.cpp:163] Setting up conv4_7_1x1_reduce
I0520 00:19:42.985088 30568 net.cpp:170] Top shape: 3 256 60 60 (2764800)
I0520 00:19:42.985123 30568 layer_factory.hpp:74] Creating layer conv4_7_1x1_reduce/bn
I0520 00:19:42.985142 30568 net.cpp:99] Creating Layer conv4_7_1x1_reduce/bn
I0520 00:19:42.985150 30568 net.cpp:481] conv4_7_1x1_reduce/bn <- conv4_7_1x1_reduce
I0520 00:19:42.985190 30568 net.cpp:130] This layer is inheriting previous layer's sync mode: 1
I0520 00:19:42.985204 30568 net.cpp:437] conv4_7_1x1_reduce/bn -> conv4_7_1x1_reduce/bn
I0520 00:19:42.985221 30568 net.cpp:163] Setting up conv4_7_1x1_reduce/bn
I0520 00:19:42.985252 30568 net.cpp:170] Top shape: 3 256 60 60 (2764800)
I0520 00:19:42.985272 30568 layer_factory.hpp:74] Creating layer conv4_7_1x1_reduce/relu
I0520 00:19:42.985283 30568 net.cpp:99] Creating Layer conv4_7_1x1_reduce/relu
I0520 00:19:42.985291 30568 net.cpp:481] conv4_7_1x1_reduce/relu <- conv4_7_1x1_reduce/bn
I0520 00:19:42.985297 30568 net.cpp:130] This layer is inheriting previous layer's sync mode: 1
I0520 00:19:42.985309 30568 net.cpp:426] conv4_7_1x1_reduce/relu -> conv4_7_1x1_reduce/bn (in-place)
I0520 00:19:42.985319 30568 net.cpp:163] Setting up conv4_7_1x1_reduce/relu
I0520 00:19:42.985779 30568 net.cpp:170] Top shape: 3 256 60 60 (2764800)
I0520 00:19:42.985802 30568 layer_factory.hpp:74] Creating layer conv4_7_3x3
I0520 00:19:42.985821 30568 net.cpp:99] Creating Layer conv4_7_3x3
I0520 00:19:42.985828 30568 net.cpp:481] conv4_7_3x3 <- conv4_7_1x1_reduce/bn
I0520 00:19:42.985837 30568 net.cpp:130] This layer is inheriting previous layer's sync mode: 1
I0520 00:19:42.985846 30568 net.cpp:437] conv4_7_3x3 -> conv4_7_3x3
I0520 00:19:42.985862 30568 net.cpp:163] Setting up conv4_7_3x3
I0520 00:19:42.999945 30568 net.cpp:170] Top shape: 3 256 60 60 (2764800)
I0520 00:19:42.999967 30568 layer_factory.hpp:74] Creating layer conv4_7_3x3/bn
I0520 00:19:42.999980 30568 net.cpp:99] Creating Layer conv4_7_3x3/bn
I0520 00:19:42.999987 30568 net.cpp:481] conv4_7_3x3/bn <- conv4_7_3x3
I0520 00:19:42.999994 30568 net.cpp:130] This layer is inheriting previous layer's sync mode: 1
I0520 00:19:43.000006 30568 net.cpp:437] conv4_7_3x3/bn -> conv4_7_3x3/bn
I0520 00:19:43.000018 30568 net.cpp:163] Setting up conv4_7_3x3/bn
I0520 00:19:43.000049 30568 net.cpp:170] Top shape: 3 256 60 60 (2764800)
I0520 00:19:43.000066 30568 layer_factory.hpp:74] Creating layer conv4_7_3x3/relu
I0520 00:19:43.000077 30568 net.cpp:99] Creating Layer conv4_7_3x3/relu
I0520 00:19:43.000085 30568 net.cpp:481] conv4_7_3x3/relu <- conv4_7_3x3/bn
I0520 00:19:43.000097 30568 net.cpp:130] This layer is inheriting previous layer's sync mode: 1
I0520 00:19:43.000108 30568 net.cpp:426] conv4_7_3x3/relu -> conv4_7_3x3/bn (in-place)
I0520 00:19:43.000118 30568 net.cpp:163] Setting up conv4_7_3x3/relu
I0520 00:19:43.001545 30568 net.cpp:170] Top shape: 3 256 60 60 (2764800)
I0520 00:19:43.001579 30568 layer_factory.hpp:74] Creating layer conv4_7_1x1_increase
I0520 00:19:43.001597 30568 net.cpp:99] Creating Layer conv4_7_1x1_increase
I0520 00:19:43.001605 30568 net.cpp:481] conv4_7_1x1_increase <- conv4_7_3x3/bn
I0520 00:19:43.001613 30568 net.cpp:130] This layer is inheriting previous layer's sync mode: 1
I0520 00:19:43.001626 30568 net.cpp:437] conv4_7_1x1_increase -> conv4_7_1x1_increase
I0520 00:19:43.001638 30568 net.cpp:163] Setting up conv4_7_1x1_increase
I0520 00:19:43.481732 30568 net.cpp:170] Top shape: 3 1024 60 60 (11059200)
I0520 00:19:43.481779 30568 layer_factory.hpp:74] Creating layer conv4_7_1x1_increase/bn
I0520 00:19:43.481801 30568 net.cpp:99] Creating Layer conv4_7_1x1_increase/bn
I0520 00:19:43.481812 30568 net.cpp:481] conv4_7_1x1_increase/bn <- conv4_7_1x1_increase
I0520 00:19:43.481820 30568 net.cpp:130] This layer is inheriting previous layer's sync mode: 1
I0520 00:19:43.481832 30568 net.cpp:437] conv4_7_1x1_increase/bn -> conv4_7_1x1_increase/bn
I0520 00:19:43.481849 30568 net.cpp:163] Setting up conv4_7_1x1_increase/bn
I0520 00:19:43.481894 30568 net.cpp:170] Top shape: 3 1024 60 60 (11059200)
I0520 00:19:43.481925 30568 layer_factory.hpp:74] Creating layer conv4_7
I0520 00:19:43.481941 30568 net.cpp:99] Creating Layer conv4_7
I0520 00:19:43.481952 30568 net.cpp:481] conv4_7 <- conv4_6_conv4_6/relu_0_split_1
I0520 00:19:43.481963 30568 net.cpp:481] conv4_7 <- conv4_7_1x1_increase/bn
I0520 00:19:43.481974 30568 net.cpp:130] This layer is inheriting previous layer's sync mode: 1
I0520 00:19:43.482024 30568 net.cpp:437] conv4_7 -> conv4_7
I0520 00:19:43.482043 30568 net.cpp:163] Setting up conv4_7
I0520 00:19:43.482064 30568 net.cpp:170] Top shape: 3 1024 60 60 (11059200)
I0520 00:19:43.482071 30568 layer_factory.hpp:74] Creating layer conv4_7/relu
I0520 00:19:43.482082 30568 net.cpp:99] Creating Layer conv4_7/relu
I0520 00:19:43.482092 30568 net.cpp:481] conv4_7/relu <- conv4_7
I0520 00:19:43.482102 30568 net.cpp:130] This layer is inheriting previous layer's sync mode: 1
I0520 00:19:43.482113 30568 net.cpp:426] conv4_7/relu -> conv4_7 (in-place)
I0520 00:19:43.482125 30568 net.cpp:163] Setting up conv4_7/relu
I0520 00:19:43.482594 30568 net.cpp:170] Top shape: 3 1024 60 60 (11059200)
I0520 00:19:43.482619 30568 layer_factory.hpp:74] Creating layer conv4_7_conv4_7/relu_0_split
I0520 00:19:43.482631 30568 net.cpp:99] Creating Layer conv4_7_conv4_7/relu_0_split
I0520 00:19:43.482638 30568 net.cpp:481] conv4_7_conv4_7/relu_0_split <- conv4_7
I0520 00:19:43.482646 30568 net.cpp:130] This layer is inheriting previous layer's sync mode: 1
I0520 00:19:43.482656 30568 net.cpp:437] conv4_7_conv4_7/relu_0_split -> conv4_7_conv4_7/relu_0_split_0
I0520 00:19:43.482673 30568 net.cpp:437] conv4_7_conv4_7/relu_0_split -> conv4_7_conv4_7/relu_0_split_1
I0520 00:19:43.482683 30568 net.cpp:163] Setting up conv4_7_conv4_7/relu_0_split
I0520 00:19:43.482699 30568 net.cpp:170] Top shape: 3 1024 60 60 (11059200)
I0520 00:19:43.482743 30568 net.cpp:170] Top shape: 3 1024 60 60 (11059200)
I0520 00:19:43.482756 30568 layer_factory.hpp:74] Creating layer conv4_8_1x1_reduce
I0520 00:19:43.482781 30568 net.cpp:99] Creating Layer conv4_8_1x1_reduce
I0520 00:19:43.482794 30568 net.cpp:481] conv4_8_1x1_reduce <- conv4_7_conv4_7/relu_0_split_0
I0520 00:19:43.482802 30568 net.cpp:130] This layer is inheriting previous layer's sync mode: 1
I0520 00:19:43.482811 30568 net.cpp:437] conv4_8_1x1_reduce -> conv4_8_1x1_reduce
I0520 00:19:43.482831 30568 net.cpp:163] Setting up conv4_8_1x1_reduce
I0520 00:19:43.953758 30568 net.cpp:170] Top shape: 3 256 60 60 (2764800)
I0520 00:19:43.953793 30568 layer_factory.hpp:74] Creating layer conv4_8_1x1_reduce/bn
I0520 00:19:43.953810 30568 net.cpp:99] Creating Layer conv4_8_1x1_reduce/bn
I0520 00:19:43.953819 30568 net.cpp:481] conv4_8_1x1_reduce/bn <- conv4_8_1x1_reduce
I0520 00:19:43.953827 30568 net.cpp:130] This layer is inheriting previous layer's sync mode: 1
I0520 00:19:43.953840 30568 net.cpp:437] conv4_8_1x1_reduce/bn -> conv4_8_1x1_reduce/bn
I0520 00:19:43.953855 30568 net.cpp:163] Setting up conv4_8_1x1_reduce/bn
I0520 00:19:43.953886 30568 net.cpp:170] Top shape: 3 256 60 60 (2764800)
I0520 00:19:43.953908 30568 layer_factory.hpp:74] Creating layer conv4_8_1x1_reduce/relu
I0520 00:19:43.953919 30568 net.cpp:99] Creating Layer conv4_8_1x1_reduce/relu
I0520 00:19:43.953925 30568 net.cpp:481] conv4_8_1x1_reduce/relu <- conv4_8_1x1_reduce/bn
I0520 00:19:43.953933 30568 net.cpp:130] This layer is inheriting previous layer's sync mode: 1
I0520 00:19:43.953943 30568 net.cpp:426] conv4_8_1x1_reduce/relu -> conv4_8_1x1_reduce/bn (in-place)
I0520 00:19:43.953953 30568 net.cpp:163] Setting up conv4_8_1x1_reduce/relu
I0520 00:19:43.955898 30568 net.cpp:170] Top shape: 3 256 60 60 (2764800)
I0520 00:19:43.955924 30568 layer_factory.hpp:74] Creating layer conv4_8_3x3
I0520 00:19:43.955941 30568 net.cpp:99] Creating Layer conv4_8_3x3
I0520 00:19:43.955950 30568 net.cpp:481] conv4_8_3x3 <- conv4_8_1x1_reduce/bn
I0520 00:19:43.955958 30568 net.cpp:130] This layer is inheriting previous layer's sync mode: 1
I0520 00:19:43.955971 30568 net.cpp:437] conv4_8_3x3 -> conv4_8_3x3
I0520 00:19:43.955986 30568 net.cpp:163] Setting up conv4_8_3x3
I0520 00:19:43.969933 30568 net.cpp:170] Top shape: 3 256 60 60 (2764800)
I0520 00:19:43.969952 30568 layer_factory.hpp:74] Creating layer conv4_8_3x3/bn
I0520 00:19:43.969969 30568 net.cpp:99] Creating Layer conv4_8_3x3/bn
I0520 00:19:43.969975 30568 net.cpp:481] conv4_8_3x3/bn <- conv4_8_3x3
I0520 00:19:43.970010 30568 net.cpp:130] This layer is inheriting previous layer's sync mode: 1
I0520 00:19:43.970021 30568 net.cpp:437] conv4_8_3x3/bn -> conv4_8_3x3/bn
I0520 00:19:43.970036 30568 net.cpp:163] Setting up conv4_8_3x3/bn
I0520 00:19:43.970064 30568 net.cpp:170] Top shape: 3 256 60 60 (2764800)
I0520 00:19:43.970080 30568 layer_factory.hpp:74] Creating layer conv4_8_3x3/relu
I0520 00:19:43.970091 30568 net.cpp:99] Creating Layer conv4_8_3x3/relu
I0520 00:19:43.970098 30568 net.cpp:481] conv4_8_3x3/relu <- conv4_8_3x3/bn
I0520 00:19:43.970103 30568 net.cpp:130] This layer is inheriting previous layer's sync mode: 1
I0520 00:19:43.970113 30568 net.cpp:426] conv4_8_3x3/relu -> conv4_8_3x3/bn (in-place)
I0520 00:19:43.970121 30568 net.cpp:163] Setting up conv4_8_3x3/relu
I0520 00:19:43.970523 30568 net.cpp:170] Top shape: 3 256 60 60 (2764800)
I0520 00:19:43.970542 30568 layer_factory.hpp:74] Creating layer conv4_8_1x1_increase
I0520 00:19:43.970558 30568 net.cpp:99] Creating Layer conv4_8_1x1_increase
I0520 00:19:43.970566 30568 net.cpp:481] conv4_8_1x1_increase <- conv4_8_3x3/bn
I0520 00:19:43.970572 30568 net.cpp:130] This layer is inheriting previous layer's sync mode: 1
I0520 00:19:43.970583 30568 net.cpp:437] conv4_8_1x1_increase -> conv4_8_1x1_increase
I0520 00:19:43.970597 30568 net.cpp:163] Setting up conv4_8_1x1_increase
I0520 00:19:44.447643 30568 net.cpp:170] Top shape: 3 1024 60 60 (11059200)
I0520 00:19:44.447679 30568 layer_factory.hpp:74] Creating layer conv4_8_1x1_increase/bn
I0520 00:19:44.447696 30568 net.cpp:99] Creating Layer conv4_8_1x1_increase/bn
I0520 00:19:44.447705 30568 net.cpp:481] conv4_8_1x1_increase/bn <- conv4_8_1x1_increase
I0520 00:19:44.447715 30568 net.cpp:130] This layer is inheriting previous layer's sync mode: 1
I0520 00:19:44.447726 30568 net.cpp:437] conv4_8_1x1_increase/bn -> conv4_8_1x1_increase/bn
I0520 00:19:44.447741 30568 net.cpp:163] Setting up conv4_8_1x1_increase/bn
I0520 00:19:44.447782 30568 net.cpp:170] Top shape: 3 1024 60 60 (11059200)
I0520 00:19:44.447801 30568 layer_factory.hpp:74] Creating layer conv4_8
I0520 00:19:44.447814 30568 net.cpp:99] Creating Layer conv4_8
I0520 00:19:44.447824 30568 net.cpp:481] conv4_8 <- conv4_7_conv4_7/relu_0_split_1
I0520 00:19:44.447834 30568 net.cpp:481] conv4_8 <- conv4_8_1x1_increase/bn
I0520 00:19:44.447839 30568 net.cpp:130] This layer is inheriting previous layer's sync mode: 1
I0520 00:19:44.447849 30568 net.cpp:437] conv4_8 -> conv4_8
I0520 00:19:44.447860 30568 net.cpp:163] Setting up conv4_8
I0520 00:19:44.447871 30568 net.cpp:170] Top shape: 3 1024 60 60 (11059200)
I0520 00:19:44.447880 30568 layer_factory.hpp:74] Creating layer conv4_8/relu
I0520 00:19:44.447890 30568 net.cpp:99] Creating Layer conv4_8/relu
I0520 00:19:44.447896 30568 net.cpp:481] conv4_8/relu <- conv4_8
I0520 00:19:44.447904 30568 net.cpp:130] This layer is inheriting previous layer's sync mode: 1
I0520 00:19:44.447914 30568 net.cpp:426] conv4_8/relu -> conv4_8 (in-place)
I0520 00:19:44.447924 30568 net.cpp:163] Setting up conv4_8/relu
I0520 00:19:44.448364 30568 net.cpp:170] Top shape: 3 1024 60 60 (11059200)
I0520 00:19:44.448385 30568 layer_factory.hpp:74] Creating layer conv4_8_conv4_8/relu_0_split
I0520 00:19:44.448396 30568 net.cpp:99] Creating Layer conv4_8_conv4_8/relu_0_split
I0520 00:19:44.448403 30568 net.cpp:481] conv4_8_conv4_8/relu_0_split <- conv4_8
I0520 00:19:44.448411 30568 net.cpp:130] This layer is inheriting previous layer's sync mode: 1
I0520 00:19:44.448426 30568 net.cpp:437] conv4_8_conv4_8/relu_0_split -> conv4_8_conv4_8/relu_0_split_0
I0520 00:19:44.448441 30568 net.cpp:437] conv4_8_conv4_8/relu_0_split -> conv4_8_conv4_8/relu_0_split_1
I0520 00:19:44.448451 30568 net.cpp:163] Setting up conv4_8_conv4_8/relu_0_split
I0520 00:19:44.448462 30568 net.cpp:170] Top shape: 3 1024 60 60 (11059200)
I0520 00:19:44.448470 30568 net.cpp:170] Top shape: 3 1024 60 60 (11059200)
I0520 00:19:44.448477 30568 layer_factory.hpp:74] Creating layer conv4_9_1x1_reduce
I0520 00:19:44.448493 30568 net.cpp:99] Creating Layer conv4_9_1x1_reduce
I0520 00:19:44.448535 30568 net.cpp:481] conv4_9_1x1_reduce <- conv4_8_conv4_8/relu_0_split_0
I0520 00:19:44.448550 30568 net.cpp:130] This layer is inheriting previous layer's sync mode: 1
I0520 00:19:44.448575 30568 net.cpp:437] conv4_9_1x1_reduce -> conv4_9_1x1_reduce
I0520 00:19:44.448595 30568 net.cpp:163] Setting up conv4_9_1x1_reduce
I0520 00:19:44.920572 30568 net.cpp:170] Top shape: 3 256 60 60 (2764800)
I0520 00:19:44.920609 30568 layer_factory.hpp:74] Creating layer conv4_9_1x1_reduce/bn
I0520 00:19:44.920627 30568 net.cpp:99] Creating Layer conv4_9_1x1_reduce/bn
I0520 00:19:44.920636 30568 net.cpp:481] conv4_9_1x1_reduce/bn <- conv4_9_1x1_reduce
I0520 00:19:44.920645 30568 net.cpp:130] This layer is inheriting previous layer's sync mode: 1
I0520 00:19:44.920657 30568 net.cpp:437] conv4_9_1x1_reduce/bn -> conv4_9_1x1_reduce/bn
I0520 00:19:44.920672 30568 net.cpp:163] Setting up conv4_9_1x1_reduce/bn
I0520 00:19:44.920704 30568 net.cpp:170] Top shape: 3 256 60 60 (2764800)
I0520 00:19:44.920850 30568 layer_factory.hpp:74] Creating layer conv4_9_1x1_reduce/relu
I0520 00:19:44.920871 30568 net.cpp:99] Creating Layer conv4_9_1x1_reduce/relu
I0520 00:19:44.920877 30568 net.cpp:481] conv4_9_1x1_reduce/relu <- conv4_9_1x1_reduce/bn
I0520 00:19:44.920886 30568 net.cpp:130] This layer is inheriting previous layer's sync mode: 1
I0520 00:19:44.920894 30568 net.cpp:426] conv4_9_1x1_reduce/relu -> conv4_9_1x1_reduce/bn (in-place)
I0520 00:19:44.920912 30568 net.cpp:163] Setting up conv4_9_1x1_reduce/relu
I0520 00:19:44.922452 30568 net.cpp:170] Top shape: 3 256 60 60 (2764800)
I0520 00:19:44.922479 30568 layer_factory.hpp:74] Creating layer conv4_9_3x3
I0520 00:19:44.922495 30568 net.cpp:99] Creating Layer conv4_9_3x3
I0520 00:19:44.922503 30568 net.cpp:481] conv4_9_3x3 <- conv4_9_1x1_reduce/bn
I0520 00:19:44.922513 30568 net.cpp:130] This layer is inheriting previous layer's sync mode: 1
I0520 00:19:44.922525 30568 net.cpp:437] conv4_9_3x3 -> conv4_9_3x3
I0520 00:19:44.922539 30568 net.cpp:163] Setting up conv4_9_3x3
I0520 00:19:44.936568 30568 net.cpp:170] Top shape: 3 256 60 60 (2764800)
I0520 00:19:44.936589 30568 layer_factory.hpp:74] Creating layer conv4_9_3x3/bn
I0520 00:19:44.936609 30568 net.cpp:99] Creating Layer conv4_9_3x3/bn
I0520 00:19:44.936615 30568 net.cpp:481] conv4_9_3x3/bn <- conv4_9_3x3
I0520 00:19:44.936622 30568 net.cpp:130] This layer is inheriting previous layer's sync mode: 1
I0520 00:19:44.936631 30568 net.cpp:437] conv4_9_3x3/bn -> conv4_9_3x3/bn
I0520 00:19:44.936645 30568 net.cpp:163] Setting up conv4_9_3x3/bn
I0520 00:19:44.936677 30568 net.cpp:170] Top shape: 3 256 60 60 (2764800)
I0520 00:19:44.936691 30568 layer_factory.hpp:74] Creating layer conv4_9_3x3/relu
I0520 00:19:44.936699 30568 net.cpp:99] Creating Layer conv4_9_3x3/relu
I0520 00:19:44.936708 30568 net.cpp:481] conv4_9_3x3/relu <- conv4_9_3x3/bn
I0520 00:19:44.936714 30568 net.cpp:130] This layer is inheriting previous layer's sync mode: 1
I0520 00:19:44.936720 30568 net.cpp:426] conv4_9_3x3/relu -> conv4_9_3x3/bn (in-place)
I0520 00:19:44.936728 30568 net.cpp:163] Setting up conv4_9_3x3/relu
I0520 00:19:44.937129 30568 net.cpp:170] Top shape: 3 256 60 60 (2764800)
I0520 00:19:44.937147 30568 layer_factory.hpp:74] Creating layer conv4_9_1x1_increase
I0520 00:19:44.937162 30568 net.cpp:99] Creating Layer conv4_9_1x1_increase
I0520 00:19:44.937170 30568 net.cpp:481] conv4_9_1x1_increase <- conv4_9_3x3/bn
I0520 00:19:44.937176 30568 net.cpp:130] This layer is inheriting previous layer's sync mode: 1
I0520 00:19:44.937188 30568 net.cpp:437] conv4_9_1x1_increase -> conv4_9_1x1_increase
I0520 00:19:44.937201 30568 net.cpp:163] Setting up conv4_9_1x1_increase
I0520 00:19:45.413100 30568 net.cpp:170] Top shape: 3 1024 60 60 (11059200)
I0520 00:19:45.413136 30568 layer_factory.hpp:74] Creating layer conv4_9_1x1_increase/bn
I0520 00:19:45.413157 30568 net.cpp:99] Creating Layer conv4_9_1x1_increase/bn
I0520 00:19:45.413167 30568 net.cpp:481] conv4_9_1x1_increase/bn <- conv4_9_1x1_increase
I0520 00:19:45.413183 30568 net.cpp:130] This layer is inheriting previous layer's sync mode: 1
I0520 00:19:45.413229 30568 net.cpp:437] conv4_9_1x1_increase/bn -> conv4_9_1x1_increase/bn
I0520 00:19:45.413247 30568 net.cpp:163] Setting up conv4_9_1x1_increase/bn
I0520 00:19:45.413293 30568 net.cpp:170] Top shape: 3 1024 60 60 (11059200)
I0520 00:19:45.413321 30568 layer_factory.hpp:74] Creating layer conv4_9
I0520 00:19:45.413337 30568 net.cpp:99] Creating Layer conv4_9
I0520 00:19:45.413348 30568 net.cpp:481] conv4_9 <- conv4_8_conv4_8/relu_0_split_1
I0520 00:19:45.413362 30568 net.cpp:481] conv4_9 <- conv4_9_1x1_increase/bn
I0520 00:19:45.413372 30568 net.cpp:130] This layer is inheriting previous layer's sync mode: 1
I0520 00:19:45.413383 30568 net.cpp:437] conv4_9 -> conv4_9
I0520 00:19:45.413398 30568 net.cpp:163] Setting up conv4_9
I0520 00:19:45.413414 30568 net.cpp:170] Top shape: 3 1024 60 60 (11059200)
I0520 00:19:45.413422 30568 layer_factory.hpp:74] Creating layer conv4_9/relu
I0520 00:19:45.413437 30568 net.cpp:99] Creating Layer conv4_9/relu
I0520 00:19:45.413444 30568 net.cpp:481] conv4_9/relu <- conv4_9
I0520 00:19:45.413451 30568 net.cpp:130] This layer is inheriting previous layer's sync mode: 1
I0520 00:19:45.413461 30568 net.cpp:426] conv4_9/relu -> conv4_9 (in-place)
I0520 00:19:45.413471 30568 net.cpp:163] Setting up conv4_9/relu
I0520 00:19:45.414937 30568 net.cpp:170] Top shape: 3 1024 60 60 (11059200)
I0520 00:19:45.414964 30568 layer_factory.hpp:74] Creating layer conv4_9_conv4_9/relu_0_split
I0520 00:19:45.414983 30568 net.cpp:99] Creating Layer conv4_9_conv4_9/relu_0_split
I0520 00:19:45.414991 30568 net.cpp:481] conv4_9_conv4_9/relu_0_split <- conv4_9
I0520 00:19:45.415000 30568 net.cpp:130] This layer is inheriting previous layer's sync mode: 1
I0520 00:19:45.415009 30568 net.cpp:437] conv4_9_conv4_9/relu_0_split -> conv4_9_conv4_9/relu_0_split_0
I0520 00:19:45.415024 30568 net.cpp:437] conv4_9_conv4_9/relu_0_split -> conv4_9_conv4_9/relu_0_split_1
I0520 00:19:45.415035 30568 net.cpp:163] Setting up conv4_9_conv4_9/relu_0_split
I0520 00:19:45.415051 30568 net.cpp:170] Top shape: 3 1024 60 60 (11059200)
I0520 00:19:45.415065 30568 net.cpp:170] Top shape: 3 1024 60 60 (11059200)
I0520 00:19:45.415076 30568 layer_factory.hpp:74] Creating layer conv4_10_1x1_reduce
I0520 00:19:45.415097 30568 net.cpp:99] Creating Layer conv4_10_1x1_reduce
I0520 00:19:45.415107 30568 net.cpp:481] conv4_10_1x1_reduce <- conv4_9_conv4_9/relu_0_split_0
I0520 00:19:45.415119 30568 net.cpp:130] This layer is inheriting previous layer's sync mode: 1
I0520 00:19:45.415138 30568 net.cpp:437] conv4_10_1x1_reduce -> conv4_10_1x1_reduce
I0520 00:19:45.415155 30568 net.cpp:163] Setting up conv4_10_1x1_reduce
I0520 00:19:45.887140 30568 net.cpp:170] Top shape: 3 256 60 60 (2764800)
I0520 00:19:45.887174 30568 layer_factory.hpp:74] Creating layer conv4_10_1x1_reduce/bn
I0520 00:19:45.887192 30568 net.cpp:99] Creating Layer conv4_10_1x1_reduce/bn
I0520 00:19:45.887200 30568 net.cpp:481] conv4_10_1x1_reduce/bn <- conv4_10_1x1_reduce
I0520 00:19:45.887219 30568 net.cpp:130] This layer is inheriting previous layer's sync mode: 1
I0520 00:19:45.887231 30568 net.cpp:437] conv4_10_1x1_reduce/bn -> conv4_10_1x1_reduce/bn
I0520 00:19:45.887246 30568 net.cpp:163] Setting up conv4_10_1x1_reduce/bn
I0520 00:19:45.887279 30568 net.cpp:170] Top shape: 3 256 60 60 (2764800)
I0520 00:19:45.887301 30568 layer_factory.hpp:74] Creating layer conv4_10_1x1_reduce/relu
I0520 00:19:45.887320 30568 net.cpp:99] Creating Layer conv4_10_1x1_reduce/relu
I0520 00:19:45.887331 30568 net.cpp:481] conv4_10_1x1_reduce/relu <- conv4_10_1x1_reduce/bn
I0520 00:19:45.887339 30568 net.cpp:130] This layer is inheriting previous layer's sync mode: 1
I0520 00:19:45.887351 30568 net.cpp:426] conv4_10_1x1_reduce/relu -> conv4_10_1x1_reduce/bn (in-place)
I0520 00:19:45.887364 30568 net.cpp:163] Setting up conv4_10_1x1_reduce/relu
I0520 00:19:45.888890 30568 net.cpp:170] Top shape: 3 256 60 60 (2764800)
I0520 00:19:45.888916 30568 layer_factory.hpp:74] Creating layer conv4_10_3x3
I0520 00:19:45.888942 30568 net.cpp:99] Creating Layer conv4_10_3x3
I0520 00:19:45.888972 30568 net.cpp:481] conv4_10_3x3 <- conv4_10_1x1_reduce/bn
I0520 00:19:45.888984 30568 net.cpp:130] This layer is inheriting previous layer's sync mode: 1
I0520 00:19:45.888998 30568 net.cpp:437] conv4_10_3x3 -> conv4_10_3x3
I0520 00:19:45.889011 30568 net.cpp:163] Setting up conv4_10_3x3
I0520 00:19:45.902833 30568 net.cpp:170] Top shape: 3 256 60 60 (2764800)
I0520 00:19:45.902855 30568 layer_factory.hpp:74] Creating layer conv4_10_3x3/bn
I0520 00:19:45.902869 30568 net.cpp:99] Creating Layer conv4_10_3x3/bn
I0520 00:19:45.902876 30568 net.cpp:481] conv4_10_3x3/bn <- conv4_10_3x3
I0520 00:19:45.902884 30568 net.cpp:130] This layer is inheriting previous layer's sync mode: 1
I0520 00:19:45.902895 30568 net.cpp:437] conv4_10_3x3/bn -> conv4_10_3x3/bn
I0520 00:19:45.902907 30568 net.cpp:163] Setting up conv4_10_3x3/bn
I0520 00:19:45.902937 30568 net.cpp:170] Top shape: 3 256 60 60 (2764800)
I0520 00:19:45.902954 30568 layer_factory.hpp:74] Creating layer conv4_10_3x3/relu
I0520 00:19:45.902964 30568 net.cpp:99] Creating Layer conv4_10_3x3/relu
I0520 00:19:45.902973 30568 net.cpp:481] conv4_10_3x3/relu <- conv4_10_3x3/bn
I0520 00:19:45.902984 30568 net.cpp:130] This layer is inheriting previous layer's sync mode: 1
I0520 00:19:45.902995 30568 net.cpp:426] conv4_10_3x3/relu -> conv4_10_3x3/bn (in-place)
I0520 00:19:45.903008 30568 net.cpp:163] Setting up conv4_10_3x3/relu
I0520 00:19:45.904436 30568 net.cpp:170] Top shape: 3 256 60 60 (2764800)
I0520 00:19:45.904462 30568 layer_factory.hpp:74] Creating layer conv4_10_1x1_increase
I0520 00:19:45.904484 30568 net.cpp:99] Creating Layer conv4_10_1x1_increase
I0520 00:19:45.904492 30568 net.cpp:481] conv4_10_1x1_increase <- conv4_10_3x3/bn
I0520 00:19:45.904500 30568 net.cpp:130] This layer is inheriting previous layer's sync mode: 1
I0520 00:19:45.904511 30568 net.cpp:437] conv4_10_1x1_increase -> conv4_10_1x1_increase
I0520 00:19:45.904525 30568 net.cpp:163] Setting up conv4_10_1x1_increase
I0520 00:19:46.387620 30568 net.cpp:170] Top shape: 3 1024 60 60 (11059200)
I0520 00:19:46.387665 30568 layer_factory.hpp:74] Creating layer conv4_10_1x1_increase/bn
I0520 00:19:46.387686 30568 net.cpp:99] Creating Layer conv4_10_1x1_increase/bn
I0520 00:19:46.387696 30568 net.cpp:481] conv4_10_1x1_increase/bn <- conv4_10_1x1_increase
I0520 00:19:46.387704 30568 net.cpp:130] This layer is inheriting previous layer's sync mode: 1
I0520 00:19:46.387715 30568 net.cpp:437] conv4_10_1x1_increase/bn -> conv4_10_1x1_increase/bn
I0520 00:19:46.387732 30568 net.cpp:163] Setting up conv4_10_1x1_increase/bn
I0520 00:19:46.387783 30568 net.cpp:170] Top shape: 3 1024 60 60 (11059200)
I0520 00:19:46.387801 30568 layer_factory.hpp:74] Creating layer conv4_10
I0520 00:19:46.387815 30568 net.cpp:99] Creating Layer conv4_10
I0520 00:19:46.387825 30568 net.cpp:481] conv4_10 <- conv4_9_conv4_9/relu_0_split_1
I0520 00:19:46.387833 30568 net.cpp:481] conv4_10 <- conv4_10_1x1_increase/bn
I0520 00:19:46.387840 30568 net.cpp:130] This layer is inheriting previous layer's sync mode: 1
I0520 00:19:46.387852 30568 net.cpp:437] conv4_10 -> conv4_10
I0520 00:19:46.387864 30568 net.cpp:163] Setting up conv4_10
I0520 00:19:46.387887 30568 net.cpp:170] Top shape: 3 1024 60 60 (11059200)
I0520 00:19:46.387893 30568 layer_factory.hpp:74] Creating layer conv4_10/relu
…
I0520 00:19:57.616685 30568 net.cpp:426] conv4_22_3x3/relu -> conv4_22_3x3/bn (in-place)
I0520 00:19:57.616694 30568 net.cpp:163] Setting up conv4_22_3x3/relu
I0520 00:19:57.618165 30568 net.cpp:170] Top shape: 3 256 60 60 (2764800)
I0520 00:19:57.618190 30568 layer_factory.hpp:74] Creating layer conv4_22_1x1_increase
I0520 00:19:57.618212 30568 net.cpp:99] Creating Layer conv4_22_1x1_increase
I0520 00:19:57.618221 30568 net.cpp:481] conv4_22_1x1_increase <- conv4_22_3x3/bn
I0520 00:19:57.618227 30568 net.cpp:130] This layer is inheriting previous layer's sync mode: 1
I0520 00:19:57.618239 30568 net.cpp:437] conv4_22_1x1_increase -> conv4_22_1x1_increase
I0520 00:19:57.618258 30568 net.cpp:163] Setting up conv4_22_1x1_increase
I0520 00:19:58.103178 30568 net.cpp:170] Top shape: 3 1024 60 60 (11059200)
I0520 00:19:58.103226 30568 layer_factory.hpp:74] Creating layer conv4_22_1x1_increase/bn
I0520 00:19:58.103250 30568 net.cpp:99] Creating Layer conv4_22_1x1_increase/bn
I0520 00:19:58.103260 30568 net.cpp:481] conv4_22_1x1_increase/bn <- conv4_22_1x1_increase
I0520 00:19:58.103269 30568 net.cpp:130] This layer is inheriting previous layer's sync mode: 1
I0520 00:19:58.103281 30568 net.cpp:437] conv4_22_1x1_increase/bn -> conv4_22_1x1_increase/bn
I0520 00:19:58.103297 30568 net.cpp:163] Setting up conv4_22_1x1_increase/bn
I0520 00:19:58.103339 30568 net.cpp:170] Top shape: 3 1024 60 60 (11059200)
I0520 00:19:58.103359 30568 layer_factory.hpp:74] Creating layer conv4_22
I0520 00:19:58.103373 30568 net.cpp:99] Creating Layer conv4_22
I0520 00:19:58.103379 30568 net.cpp:481] conv4_22 <- conv4_21_conv4_21/relu_0_split_1
I0520 00:19:58.103387 30568 net.cpp:481] conv4_22 <- conv4_22_1x1_increase/bn
I0520 00:19:58.103394 30568 net.cpp:130] This layer is inheriting previous layer's sync mode: 1
I0520 00:19:58.103405 30568 net.cpp:437] conv4_22 -> conv4_22
I0520 00:19:58.103417 30568 net.cpp:163] Setting up conv4_22
I0520 00:19:58.103430 30568 net.cpp:170] Top shape: 3 1024 60 60 (11059200)
I0520 00:19:58.103435 30568 layer_factory.hpp:74] Creating layer conv4_22/relu
I0520 00:19:58.103444 30568 net.cpp:99] Creating Layer conv4_22/relu
I0520 00:19:58.103451 30568 net.cpp:481] conv4_22/relu <- conv4_22
I0520 00:19:58.103456 30568 net.cpp:130] This layer is inheriting previous layer's sync mode: 1
I0520 00:19:58.103463 30568 net.cpp:426] conv4_22/relu -> conv4_22 (in-place)
I0520 00:19:58.103472 30568 net.cpp:163] Setting up conv4_22/relu
I0520 00:19:58.104005 30568 net.cpp:170] Top shape: 3 1024 60 60 (11059200)
I0520 00:19:58.104027 30568 layer_factory.hpp:74] Creating layer conv4_22_conv4_22/relu_0_split
I0520 00:19:58.104039 30568 net.cpp:99] Creating Layer conv4_22_conv4_22/relu_0_split
I0520 00:19:58.104046 30568 net.cpp:481] conv4_22_conv4_22/relu_0_split <- conv4_22
I0520 00:19:58.104054 30568 net.cpp:130] This layer is inheriting previous layer's sync mode: 1
I0520 00:19:58.104068 30568 net.cpp:437] conv4_22_conv4_22/relu_0_split -> conv4_22_conv4_22/relu_0_split_0
I0520 00:19:58.104081 30568 net.cpp:437] conv4_22_conv4_22/relu_0_split -> conv4_22_conv4_22/relu_0_split_1
I0520 00:19:58.104091 30568 net.cpp:163] Setting up conv4_22_conv4_22/relu_0_split
I0520 00:19:58.104104 30568 net.cpp:170] Top shape: 3 1024 60 60 (11059200)
I0520 00:19:58.104110 30568 net.cpp:170] Top shape: 3 1024 60 60 (11059200)
I0520 00:19:58.104120 30568 layer_factory.hpp:74] Creating layer conv4_23_1x1_reduce
I0520 00:19:58.104136 30568 net.cpp:99] Creating Layer conv4_23_1x1_reduce
I0520 00:19:58.104142 30568 net.cpp:481] conv4_23_1x1_reduce <- conv4_22_conv4_22/relu_0_split_0
I0520 00:19:58.104151 30568 net.cpp:130] This layer is inheriting previous layer's sync mode: 1
I0520 00:19:58.104158 30568 net.cpp:437] conv4_23_1x1_reduce -> conv4_23_1x1_reduce
I0520 00:19:58.104173 30568 net.cpp:163] Setting up conv4_23_1x1_reduce
I0520 00:19:58.580368 30568 net.cpp:170] Top shape: 3 256 60 60 (2764800)
I0520 00:19:58.580405 30568 layer_factory.hpp:74] Creating layer conv4_23_1x1_reduce/bn
I0520 00:19:58.580425 30568 net.cpp:99] Creating Layer conv4_23_1x1_reduce/bn
I0520 00:19:58.580432 30568 net.cpp:481] conv4_23_1x1_reduce/bn <- conv4_23_1x1_reduce
I0520 00:19:58.580442 30568 net.cpp:130] This layer is inheriting previous layer's sync mode: 1
I0520 00:19:58.580453 30568 net.cpp:437] conv4_23_1x1_reduce/bn -> conv4_23_1x1_reduce/bn
I0520 00:19:58.580469 30568 net.cpp:163] Setting up conv4_23_1x1_reduce/bn
I0520 00:19:58.580497 30568 net.cpp:170] Top shape: 3 256 60 60 (2764800)
I0520 00:19:58.580516 30568 layer_factory.hpp:74] Creating layer conv4_23_1x1_reduce/relu
I0520 00:19:58.580533 30568 net.cpp:99] Creating Layer conv4_23_1x1_reduce/relu
I0520 00:19:58.580539 30568 net.cpp:481] conv4_23_1x1_reduce/relu <- conv4_23_1x1_reduce/bn
I0520 00:19:58.580546 30568 net.cpp:130] This layer is inheriting previous layer's sync mode: 1
I0520 00:19:58.580556 30568 net.cpp:426] conv4_23_1x1_reduce/relu -> conv4_23_1x1_reduce/bn (in-place)
I0520 00:19:58.580566 30568 net.cpp:163] Setting up conv4_23_1x1_reduce/relu
I0520 00:19:58.582144 30568 net.cpp:170] Top shape: 3 256 60 60 (2764800)
I0520 00:19:58.582172 30568 layer_factory.hpp:74] Creating layer conv4_23_3x3
I0520 00:19:58.582190 30568 net.cpp:99] Creating Layer conv4_23_3x3
I0520 00:19:58.582197 30568 net.cpp:481] conv4_23_3x3 <- conv4_23_1x1_reduce/bn
I0520 00:19:58.582206 30568 net.cpp:130] This layer is inheriting previous layer's sync mode: 1
I0520 00:19:58.582218 30568 net.cpp:437] conv4_23_3x3 -> conv4_23_3x3
I0520 00:19:58.582232 30568 net.cpp:163] Setting up conv4_23_3x3
I0520 00:19:58.596280 30568 net.cpp:170] Top shape: 3 256 60 60 (2764800)
I0520 00:19:58.596302 30568 layer_factory.hpp:74] Creating layer conv4_23_3x3/bn
I0520 00:19:58.596318 30568 net.cpp:99] Creating Layer conv4_23_3x3/bn
I0520 00:19:58.596325 30568 net.cpp:481] conv4_23_3x3/bn <- conv4_23_3x3
I0520 00:19:58.596333 30568 net.cpp:130] This layer is inheriting previous layer's sync mode: 1
I0520 00:19:58.596341 30568 net.cpp:437] conv4_23_3x3/bn -> conv4_23_3x3/bn
I0520 00:19:58.596354 30568 net.cpp:163] Setting up conv4_23_3x3/bn
I0520 00:19:58.596381 30568 net.cpp:170] Top shape: 3 256 60 60 (2764800)
I0520 00:19:58.596398 30568 layer_factory.hpp:74] Creating layer conv4_23_3x3/relu
I0520 00:19:58.596407 30568 net.cpp:99] Creating Layer conv4_23_3x3/relu
I0520 00:19:58.596413 30568 net.cpp:481] conv4_23_3x3/relu <- conv4_23_3x3/bn
I0520 00:19:58.596421 30568 net.cpp:130] This layer is inheriting previous layer's sync mode: 1
I0520 00:19:58.596429 30568 net.cpp:426] conv4_23_3x3/relu -> conv4_23_3x3/bn (in-place)
I0520 00:19:58.596469 30568 net.cpp:163] Setting up conv4_23_3x3/relu
I0520 00:19:58.596899 30568 net.cpp:170] Top shape: 3 256 60 60 (2764800)
I0520 00:19:58.596917 30568 layer_factory.hpp:74] Creating layer conv4_23_1x1_increase
I0520 00:19:58.596936 30568 net.cpp:99] Creating Layer conv4_23_1x1_increase
I0520 00:19:58.596943 30568 net.cpp:481] conv4_23_1x1_increase <- conv4_23_3x3/bn
I0520 00:19:58.596951 30568 net.cpp:130] This layer is inheriting previous layer's sync mode: 1
I0520 00:19:58.596962 30568 net.cpp:437] conv4_23_1x1_increase -> conv4_23_1x1_increase
I0520 00:19:58.596974 30568 net.cpp:163] Setting up conv4_23_1x1_increase
I0520 00:19:59.077659 30568 net.cpp:170] Top shape: 3 1024 60 60 (11059200)
I0520 00:19:59.077699 30568 layer_factory.hpp:74] Creating layer conv4_23_1x1_increase/bn
I0520 00:19:59.077719 30568 net.cpp:99] Creating Layer conv4_23_1x1_increase/bn
I0520 00:19:59.077729 30568 net.cpp:481] conv4_23_1x1_increase/bn <- conv4_23_1x1_increase
I0520 00:19:59.077739 30568 net.cpp:130] This layer is inheriting previous layer's sync mode: 1
I0520 00:19:59.077750 30568 net.cpp:437] conv4_23_1x1_increase/bn -> conv4_23_1x1_increase/bn
I0520 00:19:59.077766 30568 net.cpp:163] Setting up conv4_23_1x1_increase/bn
I0520 00:19:59.077811 30568 net.cpp:170] Top shape: 3 1024 60 60 (11059200)
I0520 00:19:59.077831 30568 layer_factory.hpp:74] Creating layer conv4_23
I0520 00:19:59.077842 30568 net.cpp:99] Creating Layer conv4_23
I0520 00:19:59.077849 30568 net.cpp:481] conv4_23 <- conv4_22_conv4_22/relu_0_split_1
I0520 00:19:59.077858 30568 net.cpp:481] conv4_23 <- conv4_23_1x1_increase/bn
I0520 00:19:59.077865 30568 net.cpp:130] This layer is inheriting previous layer's sync mode: 1
I0520 00:19:59.077873 30568 net.cpp:437] conv4_23 -> conv4_23
I0520 00:19:59.077883 30568 net.cpp:163] Setting up conv4_23
I0520 00:19:59.077895 30568 net.cpp:170] Top shape: 3 1024 60 60 (11059200)
I0520 00:19:59.077901 30568 layer_factory.hpp:74] Creating layer conv4_23/relu
I0520 00:19:59.077914 30568 net.cpp:99] Creating Layer conv4_23/relu
I0520 00:19:59.077920 30568 net.cpp:481] conv4_23/relu <- conv4_23
I0520 00:19:59.077927 30568 net.cpp:130] This layer is inheriting previous layer's sync mode: 1
I0520 00:19:59.077936 30568 net.cpp:426] conv4_23/relu -> conv4_23 (in-place)
I0520 00:19:59.077946 30568 net.cpp:163] Setting up conv4_23/relu
I0520 00:19:59.078421 30568 net.cpp:170] Top shape: 3 1024 60 60 (11059200)
I0520 00:19:59.078443 30568 layer_factory.hpp:74] Creating layer conv4_23_conv4_23/relu_0_split
I0520 00:19:59.078457 30568 net.cpp:99] Creating Layer conv4_23_conv4_23/relu_0_split
I0520 00:19:59.078465 30568 net.cpp:481] conv4_23_conv4_23/relu_0_split <- conv4_23
I0520 00:19:59.078474 30568 net.cpp:130] This layer is inheriting previous layer's sync mode: 1
I0520 00:19:59.078483 30568 net.cpp:437] conv4_23_conv4_23/relu_0_split -> conv4_23_conv4_23/relu_0_split_0
I0520 00:19:59.078501 30568 net.cpp:437] conv4_23_conv4_23/relu_0_split -> conv4_23_conv4_23/relu_0_split_1
I0520 00:19:59.078513 30568 net.cpp:437] conv4_23_conv4_23/relu_0_split -> conv4_23_conv4_23/relu_0_split_2
I0520 00:19:59.078523 30568 net.cpp:163] Setting up conv4_23_conv4_23/relu_0_split
I0520 00:19:59.078536 30568 net.cpp:170] Top shape: 3 1024 60 60 (11059200)
I0520 00:19:59.078543 30568 net.cpp:170] Top shape: 3 1024 60 60 (11059200)
I0520 00:19:59.078550 30568 net.cpp:170] Top shape: 3 1024 60 60 (11059200)
I0520 00:19:59.078557 30568 layer_factory.hpp:74] Creating layer conv_4_23/dropout
I0520 00:19:59.078568 30568 net.cpp:99] Creating Layer conv_4_23/dropout
I0520 00:19:59.078574 30568 net.cpp:481] conv_4_23/dropout <- conv4_23_conv4_23/relu_0_split_0
I0520 00:19:59.078583 30568 net.cpp:130] This layer is inheriting previous layer's sync mode: 1
I0520 00:19:59.078598 30568 net.cpp:437] conv_4_23/dropout -> aux_drop
I0520 00:19:59.078613 30568 net.cpp:163] Setting up conv_4_23/dropout
I0520 00:19:59.078629 30568 net.cpp:170] Top shape: 3 1024 60 60 (11059200)
I0520 00:19:59.078635 30568 layer_factory.hpp:74] Creating layer conv_aux
I0520 00:19:59.078686 30568 net.cpp:99] Creating Layer conv_aux
I0520 00:19:59.078694 30568 net.cpp:481] conv_aux <- aux_drop
I0520 00:19:59.078701 30568 net.cpp:130] This layer is inheriting previous layer's sync mode: 1
I0520 00:19:59.078745 30568 net.cpp:437] conv_aux -> conv_aux
I0520 00:19:59.078763 30568 net.cpp:163] Setting up conv_aux
I0520 00:19:59.185318 30568 net.cpp:170] Top shape: 3 19 60 60 (205200)
I0520 00:19:59.185356 30568 layer_factory.hpp:74] Creating layer conv_aux_interp
I0520 00:19:59.185376 30568 net.cpp:99] Creating Layer conv_aux_interp
I0520 00:19:59.185384 30568 net.cpp:481] conv_aux_interp <- conv_aux
I0520 00:19:59.185392 30568 net.cpp:130] This layer is inheriting previous layer's sync mode: 1
I0520 00:19:59.185400 30568 net.cpp:437] conv_aux_interp -> conv_aux_interp
I0520 00:19:59.185418 30568 net.cpp:163] Setting up conv_aux_interp
I0520 00:19:59.185433 30568 net.cpp:170] Top shape: 3 19 473 473 (12752553)
I0520 00:19:59.185441 30568 layer_factory.hpp:74] Creating layer softmax_loss_aux
I0520 00:19:59.185454 30568 net.cpp:99] Creating Layer softmax_loss_aux
I0520 00:19:59.185461 30568 net.cpp:481] softmax_loss_aux <- conv_aux_interp
I0520 00:19:59.185472 30568 net.cpp:481] softmax_loss_aux <- label_data_1_split_0
I0520 00:19:59.185482 30568 net.cpp:130] This layer is inheriting previous layer's sync mode: 1
I0520 00:19:59.185489 30568 net.cpp:437] softmax_loss_aux -> aux_loss
I0520 00:19:59.185503 30568 net.cpp:163] Setting up softmax_loss_aux
I0520 00:19:59.185514 30568 layer_factory.hpp:74] Creating layer softmax_loss_aux
I0520 00:19:59.210481 30568 net.cpp:170] Top shape: (1)
I0520 00:19:59.210517 30568 net.cpp:172]     with loss weight 0.4
I0520 00:19:59.210577 30568 layer_factory.hpp:74] Creating layer conv5_1_1x1_reduce
I0520 00:19:59.210602 30568 net.cpp:99] Creating Layer conv5_1_1x1_reduce
I0520 00:19:59.210613 30568 net.cpp:481] conv5_1_1x1_reduce <- conv4_23_conv4_23/relu_0_split_1
I0520 00:19:59.210624 30568 net.cpp:130] This layer is inheriting previous layer's sync mode: 1
I0520 00:19:59.210635 30568 net.cpp:437] conv5_1_1x1_reduce -> conv5_1_1x1_reduce
I0520 00:19:59.210654 30568 net.cpp:163] Setting up conv5_1_1x1_reduce
I0520 00:19:59.626180 30568 net.cpp:170] Top shape: 3 512 60 60 (5529600)
I0520 00:19:59.626226 30568 layer_factory.hpp:74] Creating layer conv5_1_1x1_reduce/bn
I0520 00:19:59.626252 30568 net.cpp:99] Creating Layer conv5_1_1x1_reduce/bn
I0520 00:19:59.626263 30568 net.cpp:481] conv5_1_1x1_reduce/bn <- conv5_1_1x1_reduce
I0520 00:19:59.626273 30568 net.cpp:130] This layer is inheriting previous layer's sync mode: 1
I0520 00:19:59.626284 30568 net.cpp:437] conv5_1_1x1_reduce/bn -> conv5_1_1x1_reduce/bn
I0520 00:19:59.626302 30568 net.cpp:163] Setting up conv5_1_1x1_reduce/bn
I0520 00:19:59.626339 30568 net.cpp:170] Top shape: 3 512 60 60 (5529600)
I0520 00:19:59.626354 30568 layer_factory.hpp:74] Creating layer conv5_1_1x1_reduce/relu
I0520 00:19:59.626366 30568 net.cpp:99] Creating Layer conv5_1_1x1_reduce/relu
I0520 00:19:59.626372 30568 net.cpp:481] conv5_1_1x1_reduce/relu <- conv5_1_1x1_reduce/bn
I0520 00:19:59.626379 30568 net.cpp:130] This layer is inheriting previous layer's sync mode: 1
I0520 00:19:59.626385 30568 net.cpp:426] conv5_1_1x1_reduce/relu -> conv5_1_1x1_reduce/bn (in-place)
I0520 00:19:59.626396 30568 net.cpp:163] Setting up conv5_1_1x1_reduce/relu
I0520 00:19:59.628008 30568 net.cpp:170] Top shape: 3 512 60 60 (5529600)
I0520 00:19:59.628036 30568 layer_factory.hpp:74] Creating layer conv5_1_3x3
I0520 00:19:59.628057 30568 net.cpp:99] Creating Layer conv5_1_3x3
I0520 00:19:59.628067 30568 net.cpp:481] conv5_1_3x3 <- conv5_1_1x1_reduce/bn
I0520 00:19:59.628075 30568 net.cpp:130] This layer is inheriting previous layer's sync mode: 1
I0520 00:19:59.628088 30568 net.cpp:437] conv5_1_3x3 -> conv5_1_3x3
I0520 00:19:59.628101 30568 net.cpp:163] Setting up conv5_1_3x3
I0520 00:19:59.675688 30568 net.cpp:170] Top shape: 3 512 60 60 (5529600)
I0520 00:19:59.675712 30568 layer_factory.hpp:74] Creating layer conv5_1_3x3/bn
I0520 00:19:59.675750 30568 net.cpp:99] Creating Layer conv5_1_3x3/bn
I0520 00:19:59.675758 30568 net.cpp:481] conv5_1_3x3/bn <- conv5_1_3x3
I0520 00:19:59.675765 30568 net.cpp:130] This layer is inheriting previous layer's sync mode: 1
I0520 00:19:59.675775 30568 net.cpp:437] conv5_1_3x3/bn -> conv5_1_3x3/bn
I0520 00:19:59.675784 30568 net.cpp:163] Setting up conv5_1_3x3/bn
I0520 00:19:59.675812 30568 net.cpp:170] Top shape: 3 512 60 60 (5529600)
I0520 00:19:59.675829 30568 layer_factory.hpp:74] Creating layer conv5_1_3x3/relu
I0520 00:19:59.675838 30568 net.cpp:99] Creating Layer conv5_1_3x3/relu
I0520 00:19:59.675843 30568 net.cpp:481] conv5_1_3x3/relu <- conv5_1_3x3/bn
I0520 00:19:59.675848 30568 net.cpp:130] This layer is inheriting previous layer's sync mode: 1
I0520 00:19:59.675855 30568 net.cpp:426] conv5_1_3x3/relu -> conv5_1_3x3/bn (in-place)
I0520 00:19:59.675863 30568 net.cpp:163] Setting up conv5_1_3x3/relu
I0520 00:19:59.704319 30568 net.cpp:170] Top shape: 3 512 60 60 (5529600)
I0520 00:19:59.704344 30568 layer_factory.hpp:74] Creating layer conv5_1_1x1_increase
I0520 00:19:59.704362 30568 net.cpp:99] Creating Layer conv5_1_1x1_increase
I0520 00:19:59.704370 30568 net.cpp:481] conv5_1_1x1_increase <- conv5_1_3x3/bn
I0520 00:19:59.704376 30568 net.cpp:130] This layer is inheriting previous layer's sync mode: 1
I0520 00:19:59.704385 30568 net.cpp:437] conv5_1_1x1_increase -> conv5_1_1x1_increase
I0520 00:19:59.704396 30568 net.cpp:163] Setting up conv5_1_1x1_increase
I0520 00:20:00.341259 30568 net.cpp:170] Top shape: 3 2048 60 60 (22118400)
I0520 00:20:00.341320 30568 layer_factory.hpp:74] Creating layer conv5_1_1x1_increase/bn
I0520 00:20:00.341343 30568 net.cpp:99] Creating Layer conv5_1_1x1_increase/bn
I0520 00:20:00.341354 30568 net.cpp:481] conv5_1_1x1_increase/bn <- conv5_1_1x1_increase
I0520 00:20:00.341364 30568 net.cpp:130] This layer is inheriting previous layer's sync mode: 1
I0520 00:20:00.341377 30568 net.cpp:437] conv5_1_1x1_increase/bn -> conv5_1_1x1_increase/bn
I0520 00:20:00.341392 30568 net.cpp:163] Setting up conv5_1_1x1_increase/bn
I0520 00:20:00.341447 30568 net.cpp:170] Top shape: 3 2048 60 60 (22118400)
I0520 00:20:00.341470 30568 layer_factory.hpp:74] Creating layer conv5_1_1x1_proj
I0520 00:20:00.341485 30568 net.cpp:99] Creating Layer conv5_1_1x1_proj
I0520 00:20:00.341496 30568 net.cpp:481] conv5_1_1x1_proj <- conv4_23_conv4_23/relu_0_split_2
I0520 00:20:00.341505 30568 net.cpp:130] This layer is inheriting previous layer's sync mode: 1
I0520 00:20:00.341513 30568 net.cpp:437] conv5_1_1x1_proj -> conv5_1_1x1_proj
I0520 00:20:00.341524 30568 net.cpp:163] Setting up conv5_1_1x1_proj
I0520 00:20:01.549039 30568 net.cpp:170] Top shape: 3 2048 60 60 (22118400)
I0520 00:20:01.549096 30568 layer_factory.hpp:74] Creating layer conv5_1_1x1_proj/bn
I0520 00:20:01.549125 30568 net.cpp:99] Creating Layer conv5_1_1x1_proj/bn
I0520 00:20:01.549137 30568 net.cpp:481] conv5_1_1x1_proj/bn <- conv5_1_1x1_proj
I0520 00:20:01.549149 30568 net.cpp:130] This layer is inheriting previous layer's sync mode: 1
I0520 00:20:01.549161 30568 net.cpp:437] conv5_1_1x1_proj/bn -> conv5_1_1x1_proj/bn
I0520 00:20:01.549182 30568 net.cpp:163] Setting up conv5_1_1x1_proj/bn
I0520 00:20:01.549242 30568 net.cpp:170] Top shape: 3 2048 60 60 (22118400)
I0520 00:20:01.549263 30568 layer_factory.hpp:74] Creating layer conv5_1
I0520 00:20:01.549275 30568 net.cpp:99] Creating Layer conv5_1
I0520 00:20:01.549283 30568 net.cpp:481] conv5_1 <- conv5_1_1x1_proj/bn
I0520 00:20:01.549293 30568 net.cpp:481] conv5_1 <- conv5_1_1x1_increase/bn
I0520 00:20:01.549300 30568 net.cpp:130] This layer is inheriting previous layer's sync mode: 1
I0520 00:20:01.549309 30568 net.cpp:437] conv5_1 -> conv5_1
I0520 00:20:01.549319 30568 net.cpp:163] Setting up conv5_1
I0520 00:20:01.549334 30568 net.cpp:170] Top shape: 3 2048 60 60 (22118400)
I0520 00:20:01.549340 30568 layer_factory.hpp:74] Creating layer conv5_1/relu
I0520 00:20:01.549353 30568 net.cpp:99] Creating Layer conv5_1/relu
I0520 00:20:01.549360 30568 net.cpp:481] conv5_1/relu <- conv5_1
I0520 00:20:01.549402 30568 net.cpp:130] This layer is inheriting previous layer's sync mode: 1
I0520 00:20:01.549412 30568 net.cpp:426] conv5_1/relu -> conv5_1 (in-place)
I0520 00:20:01.549422 30568 net.cpp:163] Setting up conv5_1/relu
I0520 00:20:01.552927 30568 net.cpp:170] Top shape: 3 2048 60 60 (22118400)
I0520 00:20:01.552961 30568 layer_factory.hpp:74] Creating layer conv5_1_conv5_1/relu_0_split
I0520 00:20:01.552981 30568 net.cpp:99] Creating Layer conv5_1_conv5_1/relu_0_split
I0520 00:20:01.552990 30568 net.cpp:481] conv5_1_conv5_1/relu_0_split <- conv5_1
I0520 00:20:01.552999 30568 net.cpp:130] This layer is inheriting previous layer's sync mode: 1
I0520 00:20:01.553009 30568 net.cpp:437] conv5_1_conv5_1/relu_0_split -> conv5_1_conv5_1/relu_0_split_0
I0520 00:20:01.553025 30568 net.cpp:437] conv5_1_conv5_1/relu_0_split -> conv5_1_conv5_1/relu_0_split_1
I0520 00:20:01.553036 30568 net.cpp:163] Setting up conv5_1_conv5_1/relu_0_split
I0520 00:20:01.553048 30568 net.cpp:170] Top shape: 3 2048 60 60 (22118400)
I0520 00:20:01.553056 30568 net.cpp:170] Top shape: 3 2048 60 60 (22118400)
I0520 00:20:01.553062 30568 layer_factory.hpp:74] Creating layer conv5_2_1x1_reduce
I0520 00:20:01.553083 30568 net.cpp:99] Creating Layer conv5_2_1x1_reduce
I0520 00:20:01.553091 30568 net.cpp:481] conv5_2_1x1_reduce <- conv5_1_conv5_1/relu_0_split_0
I0520 00:20:01.553098 30568 net.cpp:130] This layer is inheriting previous layer's sync mode: 1
I0520 00:20:01.553109 30568 net.cpp:437] conv5_2_1x1_reduce -> conv5_2_1x1_reduce
I0520 00:20:01.553122 30568 net.cpp:163] Setting up conv5_2_1x1_reduce
I0520 00:20:02.181869 30568 net.cpp:170] Top shape: 3 512 60 60 (5529600)
I0520 00:20:02.181948 30568 layer_factory.hpp:74] Creating layer conv5_2_1x1_reduce/bn
I0520 00:20:02.181977 30568 net.cpp:99] Creating Layer conv5_2_1x1_reduce/bn
I0520 00:20:02.181991 30568 net.cpp:481] conv5_2_1x1_reduce/bn <- conv5_2_1x1_reduce
I0520 00:20:02.182014 30568 net.cpp:130] This layer is inheriting previous layer's sync mode: 1
I0520 00:20:02.182025 30568 net.cpp:437] conv5_2_1x1_reduce/bn -> conv5_2_1x1_reduce/bn
I0520 00:20:02.182041 30568 net.cpp:163] Setting up conv5_2_1x1_reduce/bn
I0520 00:20:02.182087 30568 net.cpp:170] Top shape: 3 512 60 60 (5529600)
I0520 00:20:02.182106 30568 layer_factory.hpp:74] Creating layer conv5_2_1x1_reduce/relu
I0520 00:20:02.182119 30568 net.cpp:99] Creating Layer conv5_2_1x1_reduce/relu
I0520 00:20:02.182126 30568 net.cpp:481] conv5_2_1x1_reduce/relu <- conv5_2_1x1_reduce/bn
I0520 00:20:02.182133 30568 net.cpp:130] This layer is inheriting previous layer's sync mode: 1
I0520 00:20:02.182152 30568 net.cpp:426] conv5_2_1x1_reduce/relu -> conv5_2_1x1_reduce/bn (in-place)
I0520 00:20:02.182162 30568 net.cpp:163] Setting up conv5_2_1x1_reduce/relu
I0520 00:20:02.182627 30568 net.cpp:170] Top shape: 3 512 60 60 (5529600)
I0520 00:20:02.182647 30568 layer_factory.hpp:74] Creating layer conv5_2_3x3
I0520 00:20:02.182665 30568 net.cpp:99] Creating Layer conv5_2_3x3
I0520 00:20:02.182672 30568 net.cpp:481] conv5_2_3x3 <- conv5_2_1x1_reduce/bn
I0520 00:20:02.182678 30568 net.cpp:130] This layer is inheriting previous layer's sync mode: 1
I0520 00:20:02.182687 30568 net.cpp:437] conv5_2_3x3 -> conv5_2_3x3
I0520 00:20:02.182747 30568 net.cpp:163] Setting up conv5_2_3x3
I0520 00:20:02.231385 30568 net.cpp:170] Top shape: 3 512 60 60 (5529600)
I0520 00:20:02.231420 30568 layer_factory.hpp:74] Creating layer conv5_2_3x3/bn
I0520 00:20:02.231433 30568 net.cpp:99] Creating Layer conv5_2_3x3/bn
I0520 00:20:02.231439 30568 net.cpp:481] conv5_2_3x3/bn <- conv5_2_3x3
I0520 00:20:02.231446 30568 net.cpp:130] This layer is inheriting previous layer's sync mode: 1
I0520 00:20:02.231456 30568 net.cpp:437] conv5_2_3x3/bn -> conv5_2_3x3/bn
I0520 00:20:02.231465 30568 net.cpp:163] Setting up conv5_2_3x3/bn
I0520 00:20:02.231492 30568 net.cpp:170] Top shape: 3 512 60 60 (5529600)
I0520 00:20:02.231505 30568 layer_factory.hpp:74] Creating layer conv5_2_3x3/relu
I0520 00:20:02.231526 30568 net.cpp:99] Creating Layer conv5_2_3x3/relu
I0520 00:20:02.231572 30568 net.cpp:481] conv5_2_3x3/relu <- conv5_2_3x3/bn
I0520 00:20:02.231580 30568 net.cpp:130] This layer is inheriting previous layer's sync mode: 1
I0520 00:20:02.231585 30568 net.cpp:426] conv5_2_3x3/relu -> conv5_2_3x3/bn (in-place)
I0520 00:20:02.231593 30568 net.cpp:163] Setting up conv5_2_3x3/relu
I0520 00:20:02.232988 30568 net.cpp:170] Top shape: 3 512 60 60 (5529600)
I0520 00:20:02.233009 30568 layer_factory.hpp:74] Creating layer conv5_2_1x1_increase
I0520 00:20:02.233022 30568 net.cpp:99] Creating Layer conv5_2_1x1_increase
I0520 00:20:02.233028 30568 net.cpp:481] conv5_2_1x1_increase <- conv5_2_3x3/bn
I0520 00:20:02.233034 30568 net.cpp:130] This layer is inheriting previous layer's sync mode: 1
I0520 00:20:02.233044 30568 net.cpp:437] conv5_2_1x1_increase -> conv5_2_1x1_increase
I0520 00:20:02.233055 30568 net.cpp:163] Setting up conv5_2_1x1_increase
I0520 00:20:02.892670 30568 net.cpp:170] Top shape: 3 2048 60 60 (22118400)
I0520 00:20:02.892932 30568 layer_factory.hpp:74] Creating layer conv5_2_1x1_increase/bn
I0520 00:20:02.892962 30568 net.cpp:99] Creating Layer conv5_2_1x1_increase/bn
I0520 00:20:02.892976 30568 net.cpp:481] conv5_2_1x1_increase/bn <- conv5_2_1x1_increase
I0520 00:20:02.892985 30568 net.cpp:130] This layer is inheriting previous layer's sync mode: 1
I0520 00:20:02.892997 30568 net.cpp:437] conv5_2_1x1_increase/bn -> conv5_2_1x1_increase/bn
I0520 00:20:02.893015 30568 net.cpp:163] Setting up conv5_2_1x1_increase/bn
I0520 00:20:02.893072 30568 net.cpp:170] Top shape: 3 2048 60 60 (22118400)
I0520 00:20:02.893092 30568 layer_factory.hpp:74] Creating layer conv5_2
I0520 00:20:02.893106 30568 net.cpp:99] Creating Layer conv5_2
I0520 00:20:02.893113 30568 net.cpp:481] conv5_2 <- conv5_1_conv5_1/relu_0_split_1
I0520 00:20:02.893123 30568 net.cpp:481] conv5_2 <- conv5_2_1x1_increase/bn
I0520 00:20:02.893131 30568 net.cpp:130] This layer is inheriting previous layer's sync mode: 1
I0520 00:20:02.893139 30568 net.cpp:437] conv5_2 -> conv5_2
I0520 00:20:02.893151 30568 net.cpp:163] Setting up conv5_2
I0520 00:20:02.893164 30568 net.cpp:170] Top shape: 3 2048 60 60 (22118400)
I0520 00:20:02.893172 30568 layer_factory.hpp:74] Creating layer conv5_2/relu
I0520 00:20:02.893183 30568 net.cpp:99] Creating Layer conv5_2/relu
I0520 00:20:02.893190 30568 net.cpp:481] conv5_2/relu <- conv5_2
I0520 00:20:02.893198 30568 net.cpp:130] This layer is inheriting previous layer's sync mode: 1
I0520 00:20:02.893204 30568 net.cpp:426] conv5_2/relu -> conv5_2 (in-place)
I0520 00:20:02.893213 30568 net.cpp:163] Setting up conv5_2/relu
I0520 00:20:02.896358 30568 net.cpp:170] Top shape: 3 2048 60 60 (22118400)
I0520 00:20:02.896391 30568 layer_factory.hpp:74] Creating layer conv5_2_conv5_2/relu_0_split
I0520 00:20:02.896410 30568 net.cpp:99] Creating Layer conv5_2_conv5_2/relu_0_split
I0520 00:20:02.896420 30568 net.cpp:481] conv5_2_conv5_2/relu_0_split <- conv5_2
I0520 00:20:02.896428 30568 net.cpp:130] This layer is inheriting previous layer's sync mode: 1
I0520 00:20:02.896438 30568 net.cpp:437] conv5_2_conv5_2/relu_0_split -> conv5_2_conv5_2/relu_0_split_0
I0520 00:20:02.896453 30568 net.cpp:437] conv5_2_conv5_2/relu_0_split -> conv5_2_conv5_2/relu_0_split_1
I0520 00:20:02.896468 30568 net.cpp:163] Setting up conv5_2_conv5_2/relu_0_split
I0520 00:20:02.896481 30568 net.cpp:170] Top shape: 3 2048 60 60 (22118400)
I0520 00:20:02.896489 30568 net.cpp:170] Top shape: 3 2048 60 60 (22118400)
I0520 00:20:02.896495 30568 layer_factory.hpp:74] Creating layer conv5_3_1x1_reduce
I0520 00:20:02.896513 30568 net.cpp:99] Creating Layer conv5_3_1x1_reduce
I0520 00:20:02.896520 30568 net.cpp:481] conv5_3_1x1_reduce <- conv5_2_conv5_2/relu_0_split_0
I0520 00:20:02.896528 30568 net.cpp:130] This layer is inheriting previous layer's sync mode: 1
I0520 00:20:02.896539 30568 net.cpp:437] conv5_3_1x1_reduce -> conv5_3_1x1_reduce
I0520 00:20:02.896553 30568 net.cpp:163] Setting up conv5_3_1x1_reduce
I0520 00:20:03.559501 30568 net.cpp:170] Top shape: 3 512 60 60 (5529600)
I0520 00:20:03.559545 30568 layer_factory.hpp:74] Creating layer conv5_3_1x1_reduce/bn
I0520 00:20:03.559607 30568 net.cpp:99] Creating Layer conv5_3_1x1_reduce/bn
I0520 00:20:03.559618 30568 net.cpp:481] conv5_3_1x1_reduce/bn <- conv5_3_1x1_reduce
I0520 00:20:03.559628 30568 net.cpp:130] This layer is inheriting previous layer's sync mode: 1
I0520 00:20:03.559640 30568 net.cpp:437] conv5_3_1x1_reduce/bn -> conv5_3_1x1_reduce/bn
I0520 00:20:03.559658 30568 net.cpp:163] Setting up conv5_3_1x1_reduce/bn
I0520 00:20:03.559695 30568 net.cpp:170] Top shape: 3 512 60 60 (5529600)
I0520 00:20:03.559715 30568 layer_factory.hpp:74] Creating layer conv5_3_1x1_reduce/relu
I0520 00:20:03.559727 30568 net.cpp:99] Creating Layer conv5_3_1x1_reduce/relu
I0520 00:20:03.559733 30568 net.cpp:481] conv5_3_1x1_reduce/relu <- conv5_3_1x1_reduce/bn
I0520 00:20:03.559752 30568 net.cpp:130] This layer is inheriting previous layer's sync mode: 1
I0520 00:20:03.559762 30568 net.cpp:426] conv5_3_1x1_reduce/relu -> conv5_3_1x1_reduce/bn (in-place)
I0520 00:20:03.559769 30568 net.cpp:163] Setting up conv5_3_1x1_reduce/relu
I0520 00:20:03.560181 30568 net.cpp:170] Top shape: 3 512 60 60 (5529600)
I0520 00:20:03.560199 30568 layer_factory.hpp:74] Creating layer conv5_3_3x3
I0520 00:20:03.560215 30568 net.cpp:99] Creating Layer conv5_3_3x3
I0520 00:20:03.560222 30568 net.cpp:481] conv5_3_3x3 <- conv5_3_1x1_reduce/bn
I0520 00:20:03.560230 30568 net.cpp:130] This layer is inheriting previous layer's sync mode: 1
I0520 00:20:03.560240 30568 net.cpp:437] conv5_3_3x3 -> conv5_3_3x3
I0520 00:20:03.560250 30568 net.cpp:163] Setting up conv5_3_3x3
I0520 00:20:03.607880 30568 net.cpp:170] Top shape: 3 512 60 60 (5529600)
I0520 00:20:03.607904 30568 layer_factory.hpp:74] Creating layer conv5_3_3x3/bn
I0520 00:20:03.607918 30568 net.cpp:99] Creating Layer conv5_3_3x3/bn
I0520 00:20:03.607931 30568 net.cpp:481] conv5_3_3x3/bn <- conv5_3_3x3
I0520 00:20:03.607939 30568 net.cpp:130] This layer is inheriting previous layer's sync mode: 1
I0520 00:20:03.607949 30568 net.cpp:437] conv5_3_3x3/bn -> conv5_3_3x3/bn
I0520 00:20:03.607960 30568 net.cpp:163] Setting up conv5_3_3x3/bn
I0520 00:20:03.608000 30568 net.cpp:170] Top shape: 3 512 60 60 (5529600)
I0520 00:20:03.608016 30568 layer_factory.hpp:74] Creating layer conv5_3_3x3/relu
I0520 00:20:03.608024 30568 net.cpp:99] Creating Layer conv5_3_3x3/relu
I0520 00:20:03.608029 30568 net.cpp:481] conv5_3_3x3/relu <- conv5_3_3x3/bn
I0520 00:20:03.608034 30568 net.cpp:130] This layer is inheriting previous layer's sync mode: 1
I0520 00:20:03.608039 30568 net.cpp:426] conv5_3_3x3/relu -> conv5_3_3x3/bn (in-place)
I0520 00:20:03.608047 30568 net.cpp:163] Setting up conv5_3_3x3/relu
I0520 00:20:03.609519 30568 net.cpp:170] Top shape: 3 512 60 60 (5529600)
I0520 00:20:03.609542 30568 layer_factory.hpp:74] Creating layer conv5_3_1x1_increase
I0520 00:20:03.609557 30568 net.cpp:99] Creating Layer conv5_3_1x1_increase
I0520 00:20:03.609567 30568 net.cpp:481] conv5_3_1x1_increase <- conv5_3_3x3/bn
I0520 00:20:03.609575 30568 net.cpp:130] This layer is inheriting previous layer's sync mode: 1
I0520 00:20:03.609591 30568 net.cpp:437] conv5_3_1x1_increase -> conv5_3_1x1_increase
I0520 00:20:03.609602 30568 net.cpp:163] Setting up conv5_3_1x1_increase
I0520 00:20:04.258260 30568 net.cpp:170] Top shape: 3 2048 60 60 (22118400)
I0520 00:20:04.258312 30568 layer_factory.hpp:74] Creating layer conv5_3_1x1_increase/bn
I0520 00:20:04.258339 30568 net.cpp:99] Creating Layer conv5_3_1x1_increase/bn
I0520 00:20:04.258352 30568 net.cpp:481] conv5_3_1x1_increase/bn <- conv5_3_1x1_increase
I0520 00:20:04.258361 30568 net.cpp:130] This layer is inheriting previous layer's sync mode: 1
I0520 00:20:04.258373 30568 net.cpp:437] conv5_3_1x1_increase/bn -> conv5_3_1x1_increase/bn
I0520 00:20:04.258393 30568 net.cpp:163] Setting up conv5_3_1x1_increase/bn
I0520 00:20:04.258448 30568 net.cpp:170] Top shape: 3 2048 60 60 (22118400)
I0520 00:20:04.258468 30568 layer_factory.hpp:74] Creating layer conv5_3
I0520 00:20:04.258482 30568 net.cpp:99] Creating Layer conv5_3
I0520 00:20:04.258491 30568 net.cpp:481] conv5_3 <- conv5_2_conv5_2/relu_0_split_1
I0520 00:20:04.258535 30568 net.cpp:481] conv5_3 <- conv5_3_1x1_increase/bn
I0520 00:20:04.258544 30568 net.cpp:130] This layer is inheriting previous layer's sync mode: 1
I0520 00:20:04.258553 30568 net.cpp:437] conv5_3 -> conv5_3
I0520 00:20:04.258564 30568 net.cpp:163] Setting up conv5_3
I0520 00:20:04.258579 30568 net.cpp:170] Top shape: 3 2048 60 60 (22118400)
I0520 00:20:04.258586 30568 layer_factory.hpp:74] Creating layer conv5_3/relu
I0520 00:20:04.258599 30568 net.cpp:99] Creating Layer conv5_3/relu
I0520 00:20:04.258604 30568 net.cpp:481] conv5_3/relu <- conv5_3
I0520 00:20:04.258610 30568 net.cpp:130] This layer is inheriting previous layer's sync mode: 1
I0520 00:20:04.258622 30568 net.cpp:426] conv5_3/relu -> conv5_3 (in-place)
I0520 00:20:04.258631 30568 net.cpp:163] Setting up conv5_3/relu
I0520 00:20:04.259183 30568 net.cpp:170] Top shape: 3 2048 60 60 (22118400)
I0520 00:20:04.259207 30568 layer_factory.hpp:74] Creating layer conv5_3_conv5_3/relu_0_split
I0520 00:20:04.259227 30568 net.cpp:99] Creating Layer conv5_3_conv5_3/relu_0_split
I0520 00:20:04.259234 30568 net.cpp:481] conv5_3_conv5_3/relu_0_split <- conv5_3
I0520 00:20:04.259243 30568 net.cpp:130] This layer is inheriting previous layer's sync mode: 1
I0520 00:20:04.259255 30568 net.cpp:437] conv5_3_conv5_3/relu_0_split -> conv5_3_conv5_3/relu_0_split_0
I0520 00:20:04.259271 30568 net.cpp:437] conv5_3_conv5_3/relu_0_split -> conv5_3_conv5_3/relu_0_split_1
I0520 00:20:04.259284 30568 net.cpp:437] conv5_3_conv5_3/relu_0_split -> conv5_3_conv5_3/relu_0_split_2
I0520 00:20:04.259297 30568 net.cpp:437] conv5_3_conv5_3/relu_0_split -> conv5_3_conv5_3/relu_0_split_3
I0520 00:20:04.259308 30568 net.cpp:437] conv5_3_conv5_3/relu_0_split -> conv5_3_conv5_3/relu_0_split_4
I0520 00:20:04.259323 30568 net.cpp:163] Setting up conv5_3_conv5_3/relu_0_split
I0520 00:20:04.259337 30568 net.cpp:170] Top shape: 3 2048 60 60 (22118400)
I0520 00:20:04.259344 30568 net.cpp:170] Top shape: 3 2048 60 60 (22118400)
I0520 00:20:04.259351 30568 net.cpp:170] Top shape: 3 2048 60 60 (22118400)
I0520 00:20:04.259359 30568 net.cpp:170] Top shape: 3 2048 60 60 (22118400)
I0520 00:20:04.259366 30568 net.cpp:170] Top shape: 3 2048 60 60 (22118400)
I0520 00:20:04.259372 30568 layer_factory.hpp:74] Creating layer conv5_3_pool1
I0520 00:20:04.259384 30568 net.cpp:99] Creating Layer conv5_3_pool1
I0520 00:20:04.259392 30568 net.cpp:481] conv5_3_pool1 <- conv5_3_conv5_3/relu_0_split_0
I0520 00:20:04.259398 30568 net.cpp:130] This layer is inheriting previous layer's sync mode: 1
I0520 00:20:04.259409 30568 net.cpp:437] conv5_3_pool1 -> conv5_3_pool1
I0520 00:20:04.259419 30568 net.cpp:163] Setting up conv5_3_pool1
I0520 00:20:04.297252 30568 net.cpp:170] Top shape: 3 2048 1 1 (6144)
I0520 00:20:04.297282 30568 layer_factory.hpp:74] Creating layer conv5_3_pool1_conv
I0520 00:20:04.297305 30568 net.cpp:99] Creating Layer conv5_3_pool1_conv
I0520 00:20:04.297314 30568 net.cpp:481] conv5_3_pool1_conv <- conv5_3_pool1
I0520 00:20:04.297323 30568 net.cpp:130] This layer is inheriting previous layer's sync mode: 1
I0520 00:20:04.297333 30568 net.cpp:437] conv5_3_pool1_conv -> conv5_3_pool1_conv
I0520 00:20:04.297359 30568 net.cpp:163] Setting up conv5_3_pool1_conv
I0520 00:20:04.633772 30568 net.cpp:170] Top shape: 3 512 1 1 (1536)
I0520 00:20:04.633813 30568 layer_factory.hpp:74] Creating layer conv5_3_pool1_conv/bn
I0520 00:20:04.633846 30568 net.cpp:99] Creating Layer conv5_3_pool1_conv/bn
I0520 00:20:04.633857 30568 net.cpp:481] conv5_3_pool1_conv/bn <- conv5_3_pool1_conv
I0520 00:20:04.633867 30568 net.cpp:130] This layer is inheriting previous layer's sync mode: 1
I0520 00:20:04.633884 30568 net.cpp:437] conv5_3_pool1_conv/bn -> conv5_3_pool1_conv/bn
I0520 00:20:04.633899 30568 net.cpp:163] Setting up conv5_3_pool1_conv/bn
I0520 00:20:04.633934 30568 net.cpp:170] Top shape: 3 512 1 1 (1536)
I0520 00:20:04.633954 30568 layer_factory.hpp:74] Creating layer conv5_3_pool1_conv/relu
I0520 00:20:04.633965 30568 net.cpp:99] Creating Layer conv5_3_pool1_conv/relu
I0520 00:20:04.634016 30568 net.cpp:481] conv5_3_pool1_conv/relu <- conv5_3_pool1_conv/bn
I0520 00:20:04.634032 30568 net.cpp:130] This layer is inheriting previous layer's sync mode: 1
I0520 00:20:04.634038 30568 net.cpp:426] conv5_3_pool1_conv/relu -> conv5_3_pool1_conv/bn (in-place)
I0520 00:20:04.634052 30568 net.cpp:163] Setting up conv5_3_pool1_conv/relu
I0520 00:20:04.634501 30568 net.cpp:170] Top shape: 3 512 1 1 (1536)
I0520 00:20:04.634523 30568 layer_factory.hpp:74] Creating layer conv5_3_pool1_interp
I0520 00:20:04.634538 30568 net.cpp:99] Creating Layer conv5_3_pool1_interp
I0520 00:20:04.634546 30568 net.cpp:481] conv5_3_pool1_interp <- conv5_3_pool1_conv/bn
I0520 00:20:04.634553 30568 net.cpp:130] This layer is inheriting previous layer's sync mode: 1
I0520 00:20:04.634562 30568 net.cpp:437] conv5_3_pool1_interp -> conv5_3_pool1_interp
I0520 00:20:04.634577 30568 net.cpp:163] Setting up conv5_3_pool1_interp
I0520 00:20:04.634590 30568 net.cpp:170] Top shape: 3 512 60 60 (5529600)
I0520 00:20:04.634596 30568 layer_factory.hpp:74] Creating layer conv5_3_pool2
I0520 00:20:04.634608 30568 net.cpp:99] Creating Layer conv5_3_pool2
I0520 00:20:04.634613 30568 net.cpp:481] conv5_3_pool2 <- conv5_3_conv5_3/relu_0_split_1
I0520 00:20:04.634621 30568 net.cpp:130] This layer is inheriting previous layer's sync mode: 1
I0520 00:20:04.634629 30568 net.cpp:437] conv5_3_pool2 -> conv5_3_pool2
I0520 00:20:04.634644 30568 net.cpp:163] Setting up conv5_3_pool2
I0520 00:20:04.637364 30568 net.cpp:170] Top shape: 3 2048 2 2 (24576)
I0520 00:20:04.637394 30568 layer_factory.hpp:74] Creating layer conv5_3_pool2_conv
I0520 00:20:04.637415 30568 net.cpp:99] Creating Layer conv5_3_pool2_conv
I0520 00:20:04.637424 30568 net.cpp:481] conv5_3_pool2_conv <- conv5_3_pool2
I0520 00:20:04.637439 30568 net.cpp:130] This layer is inheriting previous layer's sync mode: 1
I0520 00:20:04.637447 30568 net.cpp:437] conv5_3_pool2_conv -> conv5_3_pool2_conv
I0520 00:20:04.637461 30568 net.cpp:163] Setting up conv5_3_pool2_conv
I0520 00:20:04.926663 30568 net.cpp:170] Top shape: 3 512 2 2 (6144)
I0520 00:20:04.926743 30568 layer_factory.hpp:74] Creating layer conv5_3_pool2_conv/bn
I0520 00:20:04.926764 30568 net.cpp:99] Creating Layer conv5_3_pool2_conv/bn
I0520 00:20:04.926775 30568 net.cpp:481] conv5_3_pool2_conv/bn <- conv5_3_pool2_conv
I0520 00:20:04.926793 30568 net.cpp:130] This layer is inheriting previous layer's sync mode: 1
I0520 00:20:04.926805 30568 net.cpp:437] conv5_3_pool2_conv/bn -> conv5_3_pool2_conv/bn
I0520 00:20:04.926831 30568 net.cpp:163] Setting up conv5_3_pool2_conv/bn
I0520 00:20:04.926873 30568 net.cpp:170] Top shape: 3 512 2 2 (6144)
I0520 00:20:04.926892 30568 layer_factory.hpp:74] Creating layer conv5_3_pool2_conv/relu
I0520 00:20:04.926903 30568 net.cpp:99] Creating Layer conv5_3_pool2_conv/relu
I0520 00:20:04.926910 30568 net.cpp:481] conv5_3_pool2_conv/relu <- conv5_3_pool2_conv/bn
I0520 00:20:04.926924 30568 net.cpp:130] This layer is inheriting previous layer's sync mode: 1
I0520 00:20:04.926935 30568 net.cpp:426] conv5_3_pool2_conv/relu -> conv5_3_pool2_conv/bn (in-place)
I0520 00:20:04.926946 30568 net.cpp:163] Setting up conv5_3_pool2_conv/relu
I0520 00:20:04.928596 30568 net.cpp:170] Top shape: 3 512 2 2 (6144)
I0520 00:20:04.928625 30568 layer_factory.hpp:74] Creating layer conv5_3_pool2_interp
I0520 00:20:04.928643 30568 net.cpp:99] Creating Layer conv5_3_pool2_interp
I0520 00:20:04.928656 30568 net.cpp:481] conv5_3_pool2_interp <- conv5_3_pool2_conv/bn
I0520 00:20:04.928664 30568 net.cpp:130] This layer is inheriting previous layer's sync mode: 1
I0520 00:20:04.928674 30568 net.cpp:437] conv5_3_pool2_interp -> conv5_3_pool2_interp
I0520 00:20:04.928694 30568 net.cpp:163] Setting up conv5_3_pool2_interp
I0520 00:20:04.928706 30568 net.cpp:170] Top shape: 3 512 60 60 (5529600)
I0520 00:20:04.928714 30568 layer_factory.hpp:74] Creating layer conv5_3_pool3
I0520 00:20:04.928736 30568 net.cpp:99] Creating Layer conv5_3_pool3
I0520 00:20:04.928743 30568 net.cpp:481] conv5_3_pool3 <- conv5_3_conv5_3/relu_0_split_2
I0520 00:20:04.928786 30568 net.cpp:130] This layer is inheriting previous layer's sync mode: 1
I0520 00:20:04.928797 30568 net.cpp:437] conv5_3_pool3 -> conv5_3_pool3
I0520 00:20:04.928809 30568 net.cpp:163] Setting up conv5_3_pool3
I0520 00:20:04.929271 30568 net.cpp:170] Top shape: 3 2048 3 3 (55296)
I0520 00:20:04.929291 30568 layer_factory.hpp:74] Creating layer conv5_3_pool3_conv
I0520 00:20:04.929309 30568 net.cpp:99] Creating Layer conv5_3_pool3_conv
I0520 00:20:04.929318 30568 net.cpp:481] conv5_3_pool3_conv <- conv5_3_pool3
I0520 00:20:04.929327 30568 net.cpp:130] This layer is inheriting previous layer's sync mode: 1
I0520 00:20:04.929338 30568 net.cpp:437] conv5_3_pool3_conv -> conv5_3_pool3_conv
I0520 00:20:04.929352 30568 net.cpp:163] Setting up conv5_3_pool3_conv
I0520 00:20:05.212874 30568 net.cpp:170] Top shape: 3 512 3 3 (13824)
I0520 00:20:05.212915 30568 layer_factory.hpp:74] Creating layer conv5_3_pool3_conv/bn
I0520 00:20:05.212940 30568 net.cpp:99] Creating Layer conv5_3_pool3_conv/bn
I0520 00:20:05.212951 30568 net.cpp:481] conv5_3_pool3_conv/bn <- conv5_3_pool3_conv
I0520 00:20:05.212962 30568 net.cpp:130] This layer is inheriting previous layer's sync mode: 1
I0520 00:20:05.212975 30568 net.cpp:437] conv5_3_pool3_conv/bn -> conv5_3_pool3_conv/bn
I0520 00:20:05.212991 30568 net.cpp:163] Setting up conv5_3_pool3_conv/bn
I0520 00:20:05.213027 30568 net.cpp:170] Top shape: 3 512 3 3 (13824)
I0520 00:20:05.213047 30568 layer_factory.hpp:74] Creating layer conv5_3_pool3_conv/relu
I0520 00:20:05.213068 30568 net.cpp:99] Creating Layer conv5_3_pool3_conv/relu
I0520 00:20:05.213074 30568 net.cpp:481] conv5_3_pool3_conv/relu <- conv5_3_pool3_conv/bn
I0520 00:20:05.213083 30568 net.cpp:130] This layer is inheriting previous layer's sync mode: 1
I0520 00:20:05.213093 30568 net.cpp:426] conv5_3_pool3_conv/relu -> conv5_3_pool3_conv/bn (in-place)
I0520 00:20:05.213106 30568 net.cpp:163] Setting up conv5_3_pool3_conv/relu
I0520 00:20:05.214756 30568 net.cpp:170] Top shape: 3 512 3 3 (13824)
I0520 00:20:05.214782 30568 layer_factory.hpp:74] Creating layer conv5_3_pool3_interp
I0520 00:20:05.214800 30568 net.cpp:99] Creating Layer conv5_3_pool3_interp
I0520 00:20:05.214809 30568 net.cpp:481] conv5_3_pool3_interp <- conv5_3_pool3_conv/bn
I0520 00:20:05.214818 30568 net.cpp:130] This layer is inheriting previous layer's sync mode: 1
I0520 00:20:05.214835 30568 net.cpp:437] conv5_3_pool3_interp -> conv5_3_pool3_interp
I0520 00:20:05.214848 30568 net.cpp:163] Setting up conv5_3_pool3_interp
I0520 00:20:05.214860 30568 net.cpp:170] Top shape: 3 512 60 60 (5529600)
I0520 00:20:05.214874 30568 layer_factory.hpp:74] Creating layer conv5_3_pool6
I0520 00:20:05.214890 30568 net.cpp:99] Creating Layer conv5_3_pool6
I0520 00:20:05.214897 30568 net.cpp:481] conv5_3_pool6 <- conv5_3_conv5_3/relu_0_split_3
I0520 00:20:05.214905 30568 net.cpp:130] This layer is inheriting previous layer's sync mode: 1
I0520 00:20:05.214913 30568 net.cpp:437] conv5_3_pool6 -> conv5_3_pool6
I0520 00:20:05.214925 30568 net.cpp:163] Setting up conv5_3_pool6
I0520 00:20:05.215374 30568 net.cpp:170] Top shape: 3 2048 6 6 (221184)
I0520 00:20:05.215396 30568 layer_factory.hpp:74] Creating layer conv5_3_pool6_conv
I0520 00:20:05.215415 30568 net.cpp:99] Creating Layer conv5_3_pool6_conv
I0520 00:20:05.215423 30568 net.cpp:481] conv5_3_pool6_conv <- conv5_3_pool6
I0520 00:20:05.215431 30568 net.cpp:130] This layer is inheriting previous layer's sync mode: 1
I0520 00:20:05.215445 30568 net.cpp:437] conv5_3_pool6_conv -> conv5_3_pool6_conv
I0520 00:20:05.215458 30568 net.cpp:163] Setting up conv5_3_pool6_conv
I0520 00:20:05.499270 30568 net.cpp:170] Top shape: 3 512 6 6 (55296)
I0520 00:20:05.499311 30568 layer_factory.hpp:74] Creating layer conv5_3_pool6_conv/bn
I0520 00:20:05.499332 30568 net.cpp:99] Creating Layer conv5_3_pool6_conv/bn
I0520 00:20:05.499343 30568 net.cpp:481] conv5_3_pool6_conv/bn <- conv5_3_pool6_conv
I0520 00:20:05.499352 30568 net.cpp:130] This layer is inheriting previous layer's sync mode: 1
I0520 00:20:05.499398 30568 net.cpp:437] conv5_3_pool6_conv/bn -> conv5_3_pool6_conv/bn
I0520 00:20:05.499415 30568 net.cpp:163] Setting up conv5_3_pool6_conv/bn
I0520 00:20:05.499456 30568 net.cpp:170] Top shape: 3 512 6 6 (55296)
I0520 00:20:05.499485 30568 layer_factory.hpp:74] Creating layer conv5_3_pool6_conv/relu
I0520 00:20:05.499496 30568 net.cpp:99] Creating Layer conv5_3_pool6_conv/relu
I0520 00:20:05.499503 30568 net.cpp:481] conv5_3_pool6_conv/relu <- conv5_3_pool6_conv/bn
I0520 00:20:05.499519 30568 net.cpp:130] This layer is inheriting previous layer's sync mode: 1
I0520 00:20:05.499531 30568 net.cpp:426] conv5_3_pool6_conv/relu -> conv5_3_pool6_conv/bn (in-place)
I0520 00:20:05.499542 30568 net.cpp:163] Setting up conv5_3_pool6_conv/relu
I0520 00:20:05.501164 30568 net.cpp:170] Top shape: 3 512 6 6 (55296)
I0520 00:20:05.501191 30568 layer_factory.hpp:74] Creating layer conv5_3_pool6_interp
I0520 00:20:05.501209 30568 net.cpp:99] Creating Layer conv5_3_pool6_interp
I0520 00:20:05.501217 30568 net.cpp:481] conv5_3_pool6_interp <- conv5_3_pool6_conv/bn
I0520 00:20:05.501226 30568 net.cpp:130] This layer is inheriting previous layer's sync mode: 1
I0520 00:20:05.501240 30568 net.cpp:437] conv5_3_pool6_interp -> conv5_3_pool6_interp
I0520 00:20:05.501252 30568 net.cpp:163] Setting up conv5_3_pool6_interp
I0520 00:20:05.501272 30568 net.cpp:170] Top shape: 3 512 60 60 (5529600)
I0520 00:20:05.501279 30568 layer_factory.hpp:74] Creating layer conv5_3_concat
I0520 00:20:05.501289 30568 net.cpp:99] Creating Layer conv5_3_concat
I0520 00:20:05.501307 30568 net.cpp:481] conv5_3_concat <- conv5_3_conv5_3/relu_0_split_4
I0520 00:20:05.501317 30568 net.cpp:481] conv5_3_concat <- conv5_3_pool6_interp
I0520 00:20:05.501324 30568 net.cpp:481] conv5_3_concat <- conv5_3_pool3_interp
I0520 00:20:05.501332 30568 net.cpp:481] conv5_3_concat <- conv5_3_pool2_interp
I0520 00:20:05.501339 30568 net.cpp:481] conv5_3_concat <- conv5_3_pool1_interp
I0520 00:20:05.501346 30568 net.cpp:130] This layer is inheriting previous layer's sync mode: 1
I0520 00:20:05.501358 30568 net.cpp:437] conv5_3_concat -> conv5_3_concat
I0520 00:20:05.501368 30568 net.cpp:163] Setting up conv5_3_concat
I0520 00:20:05.501384 30568 net.cpp:170] Top shape: 3 4096 60 60 (44236800)
I0520 00:20:05.501399 30568 layer_factory.hpp:74] Creating layer conv5_4
I0520 00:20:05.501411 30568 net.cpp:99] Creating Layer conv5_4
I0520 00:20:05.501417 30568 net.cpp:481] conv5_4 <- conv5_3_concat
I0520 00:20:05.501425 30568 net.cpp:130] This layer is inheriting previous layer's sync mode: 1
I0520 00:20:05.501441 30568 net.cpp:437] conv5_4 -> conv5_4
I0520 00:20:05.501452 30568 net.cpp:163] Setting up conv5_4
I0520 00:20:08.164975 30568 net.cpp:170] Top shape: 3 512 60 60 (5529600)
I0520 00:20:08.165055 30568 layer_factory.hpp:74] Creating layer conv5_4/bn
I0520 00:20:08.165097 30568 net.cpp:99] Creating Layer conv5_4/bn
I0520 00:20:08.165120 30568 net.cpp:481] conv5_4/bn <- conv5_4
I0520 00:20:08.165135 30568 net.cpp:130] This layer is inheriting previous layer's sync mode: 1
I0520 00:20:08.165148 30568 net.cpp:437] conv5_4/bn -> conv5_4/bn
I0520 00:20:08.165169 30568 net.cpp:163] Setting up conv5_4/bn
I0520 00:20:08.165218 30568 net.cpp:170] Top shape: 3 512 60 60 (5529600)
I0520 00:20:08.165247 30568 layer_factory.hpp:74] Creating layer conv5_4/relu
I0520 00:20:08.165259 30568 net.cpp:99] Creating Layer conv5_4/relu
I0520 00:20:08.165266 30568 net.cpp:481] conv5_4/relu <- conv5_4/bn
I0520 00:20:08.165273 30568 net.cpp:130] This layer is inheriting previous layer's sync mode: 1
I0520 00:20:08.165290 30568 net.cpp:426] conv5_4/relu -> conv5_4/bn (in-place)
I0520 00:20:08.165300 30568 net.cpp:163] Setting up conv5_4/relu
I0520 00:20:08.167114 30568 net.cpp:170] Top shape: 3 512 60 60 (5529600)
I0520 00:20:08.167142 30568 layer_factory.hpp:74] Creating layer conv5_4/dropout
I0520 00:20:08.167157 30568 net.cpp:99] Creating Layer conv5_4/dropout
I0520 00:20:08.167165 30568 net.cpp:481] conv5_4/dropout <- conv5_4/bn
I0520 00:20:08.167174 30568 net.cpp:130] This layer is inheriting previous layer's sync mode: 1
I0520 00:20:08.167228 30568 net.cpp:426] conv5_4/dropout -> conv5_4/bn (in-place)
I0520 00:20:08.167249 30568 net.cpp:163] Setting up conv5_4/dropout
I0520 00:20:08.167264 30568 net.cpp:170] Top shape: 3 512 60 60 (5529600)
I0520 00:20:08.167270 30568 layer_factory.hpp:74] Creating layer conv6
I0520 00:20:08.167286 30568 net.cpp:99] Creating Layer conv6
I0520 00:20:08.167292 30568 net.cpp:481] conv6 <- conv5_4/bn
I0520 00:20:08.167304 30568 net.cpp:130] This layer is inheriting previous layer's sync mode: 1
I0520 00:20:08.167311 30568 net.cpp:437] conv6 -> conv6
I0520 00:20:08.167322 30568 net.cpp:163] Setting up conv6
I0520 00:20:08.235160 30568 net.cpp:170] Top shape: 3 19 60 60 (205200)
I0520 00:20:08.235198 30568 layer_factory.hpp:74] Creating layer conv6_interp
I0520 00:20:08.235215 30568 net.cpp:99] Creating Layer conv6_interp
I0520 00:20:08.235224 30568 net.cpp:481] conv6_interp <- conv6
I0520 00:20:08.235232 30568 net.cpp:130] This layer is inheriting previous layer's sync mode: 1
I0520 00:20:08.235241 30568 net.cpp:437] conv6_interp -> conv6_interp
I0520 00:20:08.235255 30568 net.cpp:163] Setting up conv6_interp
I0520 00:20:08.235270 30568 net.cpp:170] Top shape: 3 19 473 473 (12752553)
I0520 00:20:08.235280 30568 layer_factory.hpp:74] Creating layer conv6_interp_conv6_interp_0_split
I0520 00:20:08.235291 30568 net.cpp:99] Creating Layer conv6_interp_conv6_interp_0_split
I0520 00:20:08.235296 30568 net.cpp:481] conv6_interp_conv6_interp_0_split <- conv6_interp
I0520 00:20:08.235303 30568 net.cpp:130] This layer is inheriting previous layer's sync mode: 1
I0520 00:20:08.235312 30568 net.cpp:437] conv6_interp_conv6_interp_0_split -> conv6_interp_conv6_interp_0_split_0
I0520 00:20:08.235327 30568 net.cpp:437] conv6_interp_conv6_interp_0_split -> conv6_interp_conv6_interp_0_split_1
I0520 00:20:08.235340 30568 net.cpp:163] Setting up conv6_interp_conv6_interp_0_split
I0520 00:20:08.235352 30568 net.cpp:170] Top shape: 3 19 473 473 (12752553)
I0520 00:20:08.235358 30568 net.cpp:170] Top shape: 3 19 473 473 (12752553)
I0520 00:20:08.235365 30568 layer_factory.hpp:74] Creating layer softmax_loss
I0520 00:20:08.235378 30568 net.cpp:99] Creating Layer softmax_loss
I0520 00:20:08.235384 30568 net.cpp:481] softmax_loss <- conv6_interp_conv6_interp_0_split_0
I0520 00:20:08.235397 30568 net.cpp:481] softmax_loss <- label_data_1_split_1
I0520 00:20:08.235410 30568 net.cpp:130] This layer is inheriting previous layer's sync mode: 1
…
